model/S2C_Model/Co/model.pth (torch, 37467 bytes, 19 tensors)

weight f4 [4, 1, 17]
0.3998625 0.1871653 -0.21035878 0.1763308 -0.14432953 0.2803587 0.24028379 -0.09612174
0.007571214 -0.12755316 0.06567595 -0.19698454 0.14341886 0.13830048 0.045764383 -0.21596818
-0.113583 -0.32857835 -0.027858056 -0.2443489 0.1758693 -0.09844681 -0.13944337 0.023842158
-0.09270335 0.21995142 -0.100275844 0.053144816 0.2704089 -0.0020039438 0.1699685 0.030939138
-0.038449623 0.20107223 -0.059249282 0.049789727 0.24234155 -0.2160451 -0.20733514 -0.20577945
-0.21970779 -0.056399897 -0.06393848 0.005182877 0.12650147 -0.13321945 0.037904173 -0.1167064
0.20009515 -0.21421891 0.1906392 -0.21417743 0.16133541 -0.099505514 -0.04946567 -0.19199012
0.17216617 -0.10558176 -0.059848085 0.03211108 0.10303047 -0.061030984 0.22408134 0.017873734
-0.053178295 0.2025649 -0.12221565 -0.07145591
00000000: c7ba cc3e 43a8 3f3e 4b68 57be 1090 343e
00000010: 1fcb 13be 2d8b 8f3e f40c 763e 7adb c4bd
00000020: f217 f83b 4c9d 02be 1d81 863d 51b6 49be
00000030: 65dc 123e a49e 0d3e 6f73 3b3d c326 5dbe
00000040: 349e e8bd 6c3b a8be 9436 e4bc 9936 7abe
00000050: 1517 343e 7b9e c9bd 3eca 0ebe a150 c33c
00000060: 41db bdbd f23a 613e 6c5d cdbd 61ae 593d
00000070: 0973 8a3e 9954 03bb 390c 2e3e 1374 fd3c
00000080: 5a7d 1dbd e1e5 4d3e 60af 72bd 50f0 4b3d
00000090: 6228 783e ed3a 5dbe aa4f 54be d9b7 52be
000000a0: 14fb 60be 9403 67bd 2ef2 82bd 20d5 a93b
000000b0: 9a89 013e ae6a 08be 6841 1b3d c403 efbd
000000c0: bee5 4c3e 345c 5bbe ec36 433e 5451 5bbe
000000d0: 1c35 253e 8cc9 cbbd 849c 4abd 0f99 44be
000000e0: 544c 303e 403b d8bd 4423 75bd e886 033d
000000f0: a401 d33d a0fb 79bd 9475 653e f06b 923c
00000100: 7cd1 59bd 2c6d 4f3e 334c fabd 7a57 92bd

bias f4 [4]
-0.13256551 0.114862695 -0.22433454 -0.07608087
00000000: 41bf 07be 223d eb3d f4b7 65be 4ad0 9bbd

weight f4 [4]
0.93021 1.0880448 1.0 1.0
00000000: 3e22 6e3f 0d45 8b3f 0000 803f 0000 803f

bias f4 [4]
-0.017090883 0.040310588 0.07656868 -0.0020357093
00000000: 2e02 8cbc b71c 253d 0ad0 9c3d 8969 05bb

running_mean f4 [4]
1.1737031 0.24684466 0.0 0.0
00000000: e73b 963f d9c4 7c3e 0000 0000 0000 0000

running_var f4 [4]
0.20564975 0.0042986143 6e-45 6e-45
00000000: d995 523e 64db 8c3b 0400 0000 0400 0000

weight f4 [16, 4, 17]
-0.08413355 -0.023484427 -0.09035872 -0.02814623 0.13522811 0.15507773 0.18199937 0.17124355
0.24487713 0.35866934 0.30187392 0.23492783 0.3423801 0.31713048 0.17838539 0.22762606
0.075375244 -0.024274074 0.07700812 0.16811351 0.01671182 -0.012283385 -0.06010519 0.033194885
-0.08729472 0.06669049 -0.037064582 -0.0710558 0.0055086087 -0.057600874 -0.07963967 -0.17254156
-0.101880945 -0.10975002 0.08679514 -0.04261632 0.07746415 -0.037821144 0.116045065 -0.031729985
-0.009863286 0.0386548 -0.08398011 -0.06387665 -0.030024214 0.09940994 0.01630428 -0.06084915
-0.080931336 0.034183584 -0.0989851 0.082937516 0.086527914 0.03246356 0.09077244 0.027878895
-0.053701922 0.03774963 -0.043069717 -0.029129894 0.11170312 -0.10936306 0.05385503 0.008976244
0.04197335 -0.09905748 0.067540236 0.08091162 -0.020654274 0.0081113605 0.04300163 0.08445032
0.17227705 0.14740853 0.0016755161 0.13887486 0.09710842 0.0983232 -0.06332199 -0.011883999
0.0083337175 -0.09834321 0.013468246 -0.067864515 0.085747465 -0.03917447 0.17894126 0.01841367
0.124537736 -0.058715798 -0.076126635 -0.1423574 -0.22902034 -0.037991095 -0.07441686 -0.19539379
0.0341079 -0.04950997 0.09293271 -0.013949017 0.07644483 0.0999308 -0.15267588 -0.22825336
-0.1471705 -0.007663737 -0.13584143 -0.14304206 -0.07566799 -0.20287313 -0.02567102 -0.08996165
-0.16775148 -0.13600332 -0.18326189 -0.09648416 -0.12966076 -0.13818653 -0.23582867 0.038552713
-0.046341322 0.0013387479 -0.013611792 -0.0013078569 0.04571484 -0.08454804 0.02660196 0.031951867
0.09806435 0.053129874 -0.068092495 -0.08642587 0.025857985 0.07002015 0.03336769 0.04640485
-0.10910584 -0.077442266 0.08794658 0.017830998 -0.11881521 -0.009433696 3.610593e-05 -0.13484754
-0.13064432 -0.010006425 -0.09244696 0.010049118 -0.08631782 0.0866144 -0.016145218 -0.062178813
-0.007093152 -0.39936554 -0.0767514 0.0054390794 -0.21139444 -0.14598937 -0.007770825 0.021198574
0.011675838 0.071675956 -0.013326871 0.1470434 0.008137635 0.10386553 0.09889783 0.0026822423
0.13789706 0.044023372 -0.19901158 0.004649853 0.025530472 0.0021923713 0.02758251 -0.1463331
-0.10194775 -0.122269526 0.003130901 -0.07753265 -0.0026011674 0.027075399 -0.18210354 -0.02806698
-0.08212642 -0.02398721 -0.20211008 0.054287974 -0.12432731 0.10212977 -0.016150994 -0.06393342
-0.07663505 -0.06585924 -0.10042434 0.08132543 -0.018764567 -0.00471118 -0.062816344 0.068210535
-0.0033606796 -0.018243248 -0.0705656 0.041426294 0.082108036 -0.011061927 -0.10810745 -0.045458816
-0.1195094 -0.09195621 -0.12738995 -0.11948786 -0.0088083325 0.0011636299 0.100468025 -0.05417913
-0.018348448 -0.06959031 -0.042282294 0.10323018 0.036194623 -0.11688557 -0.046242133 -0.12224375
-0.14919339 -0.1922236 0.0026687246 -0.046767294 -0.029884633 -0.111014165 0.074538164 -0.22260082
-0.19335423 -0.1931722 -0.2377441 -0.09440307 -0.1759344 -0.107851416 -0.21281983 -0.087941356
-0.24113035 -0.07161189 -0.24383572 -0.13045287 -0.09046885 -0.27606085 -0.26184934 -0.23154095
-0.12272978 -0.15173899 -0.073391795 -0.06460517 -0.10325677 -0.23326631 -0.23235385 0.04194132
00000000: 364e acbd 6a62 c0bc fe0d b9bd ec92 e6bc
00000010: 3d79 0a3e b2cc 1e3e 0b5e 3a3e 785a 2f3e
00000020: 12c1 7a3e 82a3 b73e 388f 9a3e ec90 703e
00000030: 724c af3e ed5e a23e a9aa 363e ce16 693e
00000040: 565e 9a3d 6cda c6bc 6fb6 9d3d f325 2c3e
00000050: 3ae7 883c 4040 49bc dc30 76bd 5cf7 073d
00000060: 93c7 b2bd 0695 883d 08d1 17bd b485 91bd
00000070: 8f81 b43b e5ee 6bbd 201a a3bd bcae 30be
00000080: f5a6 d0bd 9ec4 e0bd a6c1 b13d 738e 2ebd
00000090: 86a5 9e3d 58ea 1abd 09a9 ed3d 4df7 01bd
000000a0: 9f99 21bc 7f54 1e3d c4fd abbd c3d1 82bd
000000b0: 57f5 f5bc 7097 cb3d 8e90 853c f53c 79bd
000000c0: 54bf a5bd 1604 0c3d b3b8 cabd 25db a93d
000000d0: 8c35 b13d 83f8 043d e7e6 b93d 4862 e43c
000000e0: 8cf6 5bbd 5b9f 1a3d df69 30bd d1a1 eebc
000000f0: 9bc4 e43d bdf9 dfbd 1897 5c3d 1911 133c
00000100: 3fec 2b3d a6de cabd 8952 8a3d feb4 a53d
00000110: 2733 a9bc 83e5 043c 7a22 303d 4af4 ac3d
00000120: 6569 303e 43f2 163e fe9c db3a 3635 0e3e
00000130: c8e0 c63d ad5d c93d f6ae 81bd 1bb5 42bc
00000140: 258a 083c 2a68 c9bd eba9 5c3c 8dfc 8abd
00000150: 5e9c af3d 6975 20bd 613c 373e 44d8 963c
00000160: a40d ff3d fa7f 70bd 48e8 9bbd 23c6 11be
00000170: 4f84 6abe 8d9c 1bbd de67 98bd 4f15 48be
00000180: bab4 0b3d f7ca 4abd 8153 be3d 6b8a 64bc
00000190: 1b8f 9c3d 85a8 cc3d 1157 1cbe 40bb 69be
000001a0: ddb3 16be 1620 fbbb 041a 0bbe 9e79 12be
000001b0: d2f7 9abd f9bd 4fbe 084c d2bc d03d b8bd
000001c0: 0bc7 2bbe 7444 0bbe 01a9 3bbe 7d99 c5bd
000001d0: cac5 04be c580 0dbe 127d 71be 73e9 1d3d
000001e0: 66d0 3dbd ed78 af3a fe03 5fbc 656c abba
000001f0: 7c3f 3b3d 8627 adbd 5bec d93c f6df 023d
00000200: f6d5 c83d b69e 593d 1474 8bbd 0c00 b1bd
00000210: 20d4 d33c b966 8f3d 8fac 083d 0313 3e3d
00000220: e272 dfbd 0d9a 9ebd 561d b43d 5012 923c
00000230: 6455 f3bd ca8f 1abc 7270 1738 7915 0abe
00000240: a0c7 05be fdf1 23bc d554 bdbd 0ea5 243c
00000250: 66c7 b0bd e462 b13d fa42 84bc 36af 7ebd
00000260: ac6d e8bb a479 ccbe d72f 9dbd 4e3a b23b
00000270: c977 58be 3d7e 15be 68a2 febb a2a8 ad3c
00000280: 044c 3f3c d8ca 923d f358 5abc 8c92 163e
00000290: b753 053c 73b7 d43d f28a ca3d 8fc8 2f3b
000002a0: e334 0d3e da51 343d b1c9 4bbe cb5d 983b
000002b0: 4825 d13c e3ad 0f3b b7f4 e13c 58d8 15be
000002c0: fbc9 d0bd 7268 fabd cd2f 4d3b 70c9 9ebd
000002d0: 5978 2abb 3acd dd3c 5a79 3abe b9ec e5bc
000002e0: e631 a8bd d380 c4bc f2f5 4ebe 115d 5e3d
000002f0: 519f febd 6a29 d13d 174f 84bc 86ef 82bd
00000300: d6f2 9cbd 36e1 86bd 47ab cdbd f28d a63d
00000310: 26b8 99bc 3e60 9abb dba5 80bd f7b1 8b3d
00000320: d93e 5cbb dd72 95bc b384 90bd 9eae 293d
00000330: 4228 a83d 163d 35bc 7067 ddbd 0633 3abd
00000340: 58c1 f4bd 8a53 bcbd 8372 02be 0db6 f4bd
00000350: d350 10bc f184 983a 2ec2 cd3d efea 5dbd
00000360: 7c4f 96bc 5d85 8ebd 3330 2dbd 586a d33d
00000370: d040 143d b461 efbd 6468 3dbd ee5a fabd
00000380: 27c6 18be 43d6 44be c5e5 2e3b 108f 3fbd
00000390: 9ed0 f4bc 655b e3bd 77a7 983d 78f1 63be
000003a0: a7fe 45be efce 45be 3073 73be 6656 c1bd
000003b0: 2628 34be 34e1 dcbd 71ed 59be 991a b4bd
000003c0: e0ea 76be 41a9 92bd 12b0 79be 7095 05be
000003d0: bc47 b9bd d957 8dbe 1e11 86be 1219 6dbe
000003e0: c059 fbbd 7761 1bbe 704e 96bd b74f 84bd
000003f0: 4978 d3bd 5ddd 6ebe 2bee 6dbe a9ca 2b3d

bias f4 [16]
-0.04046648 -0.21527494 -0.14571844 -0.22667436 0.14065689 -0.010050213 -0.021577526 0.18494876
0.07570028 -0.16493967 -0.2795271 0.13537952 -0.16296157 -0.19918054 -9.889147e-05 0.042962886
00000000: 2ec0 25bd 0971 5cbe 3737 15be 531d 68be
00000010: 5c08 103e a6a9 24bc 5ac3 b0bc 3563 3d3e
00000020: c008 9b3d f2e5 28be 2d1e 8fbe eea0 0a3e
00000030: 66df 26be fcf5 4bbe f463 cfb8 daf9 2f3d

weight f4 [16]
0.86267006 1.0998328 0.6238003 0.45247722 0.7120092 1.3105514 0.4889923 1.5364664
0.9900947 0.8225553 0.64617455 1.1346996 0.7616749 0.62589127 1.3388419 0.41641855
00000000: f2d7 5c3f 52c7 8c3f 60b1 1f3f 18ab e73e
00000010: 3c46 363f 26c0 a73f 335d fa3e eeaa c43f
00000020: d976 7d3f fc92 523f b26b 253f d63d 913f
00000030: 20fd 423f 693a 203f 2c5f ab3f d034 d53e

bias f4 [16]
0.11910393 -0.19183926 0.009589502 0.1976282 0.12116568 -0.07265054 0.10504218 0.019679978
-0.09709052 0.20011908 0.25566325 0.057596795 0.28758973 0.13880022 0.2792918 0.2230142
00000000: c3ec f33d 8371 44be 491d 1d3c 0c5f 4a3e
00000010: b625 f83d cec9 94bd 5b20 d73d e837 a13c
00000020: 65d7 c6bd 04ec 4c3e 4be6 823e 9eea 6b3d
00000030: f63e 933e a521 0e3e 56ff 8e3e d65d 643e

running_mean f4 [16]
0.6123893 0.1267879 0.17281145 0.47423595 0.39442673 0.18687122 0.28195155 0.30751395
0.3986019 0.085559554 0.08513757 0.4409257 0.2506792 0.029581087 0.20359795 0.32240987
00000000: 8cc5 1c3f b0d4 013e 7cf5 303e 0ecf f23e
00000010: 4df2 c93e 2b5b 3f3e f45b 903e 7872 9d3e
00000020: 8c15 cc3e d939 af3d 9b5c ae3d 03c1 e13e
00000030: 0659 803e 0954 f23c fb7b 503e e812 a53e

running_var f4 [16]
1.9906707 0.26817116 0.088463016 0.6064281 0.3257235 0.14414932 0.19559816 0.06752578
0.68347245 0.07048978 0.10508496 0.11471209 0.25341517 0.015091785 0.07005657 0.17048143
00000000: 4cce fe3f bb4d 893e 192c b53d df3e 1b3f
00000010: 3bc5 a63e e19b 133e e24a 483e f54a 8a3d
00000020: 0df8 2e3f f25c 903d c936 d73d 2cee ea3d
00000030: a2bf 813e 8943 773c d279 8f3d af92 2e3e

weight f4 [32, 16, 9]
0.12809303 0.059851717 0.10217883 0.19152465 0.049002074 -0.05808423 -0.16743685 -0.10560836
-0.15218145 -0.20575513 -0.23824464 -0.13346426 -0.11858948 -0.100924425 -0.04797944 0.0026348538
-0.021154 -0.11948679 -0.017743353 0.0412999 -0.0018441046 -0.008427358 0.13895251 0.09015799
0.025275435 -0.10816102 -0.098388456 0.120973274 0.06470685 0.09170359 0.0811397 -0.013461131
0.01430488 0.07206693 -0.048101764 -0.029344926 0.10135549 -0.020933224 0.07289425 0.07613286
-0.029433494 0.06877239 -0.01527766 -0.085697465 -0.020788962 -0.038701296 -0.08143686 -0.0060797874
-0.20259136 0.055641375 0.21640718 0.10616571 -0.14244182 -0.028128153 -0.059669863 -0.05870103
0.05049878 0.011676962 0.029462242 0.05817305 -0.013949058 0.0039058384 -0.0371793 0.09982025
-0.1699198 -0.041553114 0.22479199 -0.33565003 -0.28308013 0.23944235 0.19603454 -0.01930584
0.04766452 -0.12766623 0.031002654 0.021916417 -0.096379735 -0.0667203 -0.017458703 0.043957718
0.088267185 -0.15981612 0.091817684 -0.06565156 0.038598508 0.1747268 0.16431683 -0.0740911
0.026922109 0.010011812 0.025368204 0.013220139 0.020090813 -0.087200634 -0.038511112 -0.13655928
-0.08107036 -0.0967407 -0.0022516574 -0.061118472 -0.012113719 -0.057999413 -0.17364372 0.0954464
0.12440176 0.05928505 -0.09917892 -0.09895149 -0.048890032 -0.08487061 0.081708245 0.17063498
0.057500895 0.0059290156 -0.011890771 -0.08719144 -0.019842228 0.101028636 0.02336727 0.11945461
-0.10515328 0.0045588864 0.039747365 0.021733683 -0.0070515666 0.12092106 0.11532225 0.011288467
-0.17362325 -0.021700932 -0.049618177 -0.21859784 0.04711597 -0.007911571 0.15265404 -0.05756679
0.039069112 -0.1257756 -0.111367315 0.0032181607 -0.036652915 0.03804657 -0.043675575 -0.034116797
-0.070512764 -0.06622915 -0.032045 -0.07046895 -0.085787684 0.05122868 0.0033205014 0.08733856
0.2224178 0.12858306 0.015739374 0.14894816 0.1468492 0.10328736 0.061950862 0.09764617
0.109907046 0.12022548 0.11298727 0.12713414 0.21512207 0.067002825 0.09734365 -0.052567948
-0.072459586 -0.075089306 -0.029157873 -0.032805033 -0.010317672 0.009069542 -0.17268308 -0.09442095
-0.15982187 -0.18688148 -0.004375561 0.06431629 -0.06003556 -0.12981324 -0.08898243 0.008084604
-0.060579915 -0.04263372 -0.05978758 -0.06359852 0.056488525 -0.013435345 0.021240493 0.11247104
0.07754945 0.17646694 -0.005837324 -0.18233262 -0.08381312 -0.10492003 0.047802195 0.10846203
0.11617725 0.08585432 0.0068999683 -0.020528745 -0.07060445 -0.15135778 -0.0056111487 0.14889465
0.06613593 -0.0006988598 -0.04601026 -0.05166141 0.05683492 0.036840107 0.12690258 0.26129457
-0.012124367 -0.04261845 -0.18012162 -0.011873842 -0.01874254 0.09749983 0.067176655 0.045054838
0.031167187 -0.03252584 0.020861382 -0.04181008 0.0641557 -0.019511757 0.08539455 0.06423213
0.13302833 0.01423873 -0.032308806 0.009950244 -0.026595473 0.09833588 0.27708855 0.043941375
-0.02457984 -0.045232974 0.016202746 -0.027614761 -0.057097446 0.039711215 0.053948376 0.048274353
0.12189785 0.081805564 -0.17988904 -0.38841116 0.041763604 0.0835204 -0.018580962 -0.021928739
00000000: d22a 033e 1327 753d 2243 d13d 0a1f 443e
00000010: 66b6 483d bbe9 6dbd 9174 2bbe 3249 d8bd
00000020: 74d5 1bbe 79b1 52be 67f6 73be dbaa 08be
00000030: 0bdf f2bd 77b1 cebd 1786 44bd 83ad 2c3b
00000040: 274b adbc 7db5 f4bd 825a 91bc 152a 293d
00000050: e2b5 f1ba e712 0abc 9149 0e3e c1a4 b83d
00000060: 6e0e cf3c 8683 ddbd e37f c9bd d6c0 f73d
00000070: 0685 843d 17cf bb3d 922c a63d 138c 5cbc
00000080: 045f 6a3c d497 933d 5b06 45bd c564 f0bc
00000090: 7893 cf3d 277c abbc 9549 953d 8beb 9b3d
000000a0: 831e f1bc 8ad8 8c3d 274f 7abc 2782 afbd
000000b0: 9d4d aabc 4085 1ebd 5ec8 a6bd f438 c7bb
000000c0: 1c74 4fbe 36e8 633d d899 5d3e 686d d93d
000000d0: 45dc 11be 036d e6bc 6368 74bd 7e70 70bd
000000e0: cfd7 4e3d ba50 3f3c cd5a f13c dd46 6e3d
000000f0: 978a 64bc 18f9 7f3b 5249 18bd 8f6e cc3d
00000100: 75ff 2dbe 9933 2abd df2f 663e 52da abbe
00000110: e1ef 90be 6030 753e 47bd 483e 4827 9ebc
00000120: df3b 433d f0ba 02be 47f9 fd3c 0f8a b33c
00000130: bd62 c5bd a7a4 88bd 8e05 8fbc 020d 343d
00000140: 6dc5 b43d d6a6 23be e90a bc3d 5374 86bd
00000150: 7819 1e3d 95eb 323e ac42 283e 13bd 97bd
00000160: c18b dc3c 9508 243c fbd0 cf3c 4899 583c
00000170: 7d95 a43c 3f96 b2bd d4bd 1dbd 32d6 0bbe
00000180: 3808 a6bd fd1f c6bd 8b90 13bb 5d57 7abd
00000190: 9f78 46bc cb90 6dbd a9cf 31be 6779 c33d
000001a0: 5ac6 fe3d e1d4 723d 511e cbbd 14a7 cabd
000001b0: ea40 48bd a4d0 adbd a756 a73d f0ba 2e3e
000001c0: 0f86 6b3d 3048 c23b 82d1 42bc 6d91 b2bd
000001d0: 2b8c a2bc 1ae8 ce3d b86c bf3c 9ea4 f43d
000001e0: 9a5a d7bd b662 953b 22ce 223d d60a b23c
000001f0: d410 e7bb 76a5 f73d 122e ec3d 43f3 383c
00000200: 4bca 31be 27c6 b1bc 6e3c 4bbd 1dd8 5fbe
00000210: adfc 403d 899f 01bc 5751 1c3e 28cb 6bbd
00000220: ef06 203d 52cb 00be 8c14 e4bd c7e7 523b
00000230: 5e21 16bd b8d6 1b3d 29e5 32bd 0ebe 0bbd
00000240: ff68 90bd 26a3 87bd 9e41 03bd 0652 90bd
00000250: 74b1 afbd 2ad5 513d c59c 593b 8fde b23d
00000260: 7ec1 633e 47ab 033e dcef 803c de85 183e
00000270: a35f 163e 5388 d33d 30c0 7d3d b7fa c73d
00000280: f216 e13d c738 f63d df65 e73d 742f 023e
00000290: f648 5c3e c738 893d 1c5c c73d 7d51 57bd
000002a0: b165 94bd 6cc8 99bd 7edc eebc 925e 06bd
000002b0: 740b 29bc 6b98 143c d5d3 30be c55f c1bd
000002c0: 58a8 23be dc5d 3fbe de60 8fbb 42b8 833d
000002d0: d9e7 75bd c3ed 04be 6c3c b6bd 4975 043c
000002e0: a522 78bd b2a0 2ebd d2e3 74bd f13f 82bd
000002f0: 8360 673d ec1f 5cbc 8b00 ae3c 3757 e63d
00000300: 3fd2 9e3d c0b3 343e 0647 bfbb 67b5 3abe
00000310: 37a6 abbd 50e0 d6bd 3ccc 433d 5721 de3d
00000320: 57ee ed3d 64d4 af3d 2119 e23b e62b a8bc
00000330: 1199 90bd 89fd 1abe badd b7bb d777 183e
00000340: 4672 873d b033 37ba 4175 3cbd ea9a 53bd
00000350: bccb 683d a7e5 163d c0f2 013e 67c8 853e
00000360: 48a5 46bc af90 2ebd cd71 38be 818a 42bc
00000370: f589 99bc fead c73d ea93 893d 6c8b 383d
00000380: 5452 ff3c d139 05bd 7de5 aa3c 0c41 2bbd
00000390: 1064 833d 1fd7 9fbc 56e3 ae3d 238c 833d
000003a0: 9438 083e 9049 693c 3d56 04bd 5906 233c
000003b0: c0de d9bc 5264 c93d 8dde 8d3e dffb 333d
000003c0: a95b c9bc 3646 39bd 9fbb 843c 5a38 e2bc
000003d0: 03df 69bd 3aa8 223d f9f8 5c3d 54bb 453d
000003e0: 94a5 f93d ad89 a73d d534 38be d4dd c6be
000003f0: 5010 2b3d be0c ab3d 1a37 98bc e6a3 b3bc

bias f4 [32]
0.09088481 -0.13577783 -0.0077059567 -0.058606055 -0.18298729 -0.26751962 -0.13650681 0.056358095
-0.050289348 -0.10959618 -0.15739535 -0.24750918 -0.10484028 -0.30741337 0.05645955 -0.19557418
-0.16553055 -0.20378645 -0.11756849 0.046458676 -0.05958551 -0.078912 -0.17496246 -0.04803969
-0.11202139 -0.041799467 -0.032634266 -0.12276273 -0.23497674 0.058793202 -0.2603183 -0.20735815
00000000: d121 ba3d 5809 0bbe 4082 fcbb e70c 70bd
00000010: 0561 3bbe 55f8 88be 71c8 0bbe bfd7 663d
00000020: 34fc 4dbd f673 e0bd 3f2c 21be 0c73 7dbe
00000030: 80b6 d6bd 4965 9dbe 2142 673d 9944 48be
00000040: d780 29be 65ad 50be c0c7 f0bd 744b 3e3d
00000050: f00f 74bd 9d9c a1bd 5c29 33be 44c5 44bd
00000060: 786b e5bd eb35 2bbd 82ab 05bd 076b fbbd
00000070: be9d 70be 24d1 703d 7148 85be b255 54be

weight f4 [32]
0.32311046 0.30816817 0.11997622 0.3670903 0.49058992 0.439315 0.48628318 0.31069553
0.25597158 0.17644586 0.46787152 0.30831063 0.108144864 0.20487525 0.21173505 0.07585121
0.5541271 0.5319763 0.07956531 0.20359059 0.14225745 0.08070225 0.4857801 0.48595825
0.396464 0.31089604 0.25742945 0.17930207 0.15883042 0.25173953 0.08852355 0.22650595
00000000: bc6e a53e 38c8 9d3e 18b6 f53d 43f3 bb3e
00000010: 9a2e fb3e e5ed e03e 1cfa f83e 7c13 9f3e
00000020: b50e 833e 39ae 343e db8c ef3e e4da 9d3e
00000030: 0e7b dd3d d1ca 513e 13d1 583e e157 9b3d
00000040: 46db 0d3f 992f 083f 23f3 a23d 0d7a 503e
00000050: f0ab 113e 3947 a53d 2bb8 f83e 85cf f83e
00000060: 54fd ca3e c42d 9f3e cbcd 833e f69a 373e
00000070: 71a4 223e 01e4 803e d64b b53d 2df1 673e

bias f4 [32]
0.018153794 0.06393705 -0.019565746 0.09102853 0.11013219 0.119260505 0.066732414 0.044601597
0.12575856 0.0015833795 0.096733876 0.04408024 0.014060429 0.052931193 0.03178077 0.01423698
0.15394029 0.08077703 0.025385588 0.047104914 0.025085177 0.0018551407 0.07152343 0.07182566
0.042291798 0.07818949 -0.1321992 0.030215634 0.022463592 0.06862692 0.027213652 0.011167076
00000000: 44b7 943c 6ef1 823d 5848 a0bc 2a6d ba3d
00000010: fc8c e13d da3e f43d 01ab 883d 2ab0 363d
00000020: dac6 003e 6689 cf3a 691c c63d 7b8d 343d
00000030: b75d 663c 61ce 583d 8d2c 023d 3942 693c
00000040: 86a2 1d3e 6d6e a53d 70f5 cf3c 15f1 403d
00000050: 6e7f cd3c 3128 f33a e07a 923d 5519 933d
00000060: 2a3a 2d3d d021 a03d 3a5f 07be c786 f73c
00000070: 9105 b83c 458c 8c3d 2aef de3c 1df6 363c

running_mean f4 [32]
0.5796693 0.29239625 0.47325718 0.45416334 0.42085522 0.05409544 0.26265663 0.49608898
0.15967229 0.13488823 0.100458674 0.1010801 0.103172496 0.051659368 0.66684264 0.5984718
0.45379326 0.13370937 0.18757832 0.73696244 0.15667187 0.7125793 0.08179198 0.368724
0.28618893 0.51747954 0.67703784 0.14748265 0.33422634 0.59711057 0.114074565 0.43541303
00000000: 3565 143f f6b4 953e c44e f23e 1988 e83e
00000010: 567a d73e 2e93 5d3d ee7a 863e 60ff fd3e
00000020: 2281 233e 2420 0a3e 47bd cd3d 1503 cf3d
00000030: 1a4c d33d c698 533d 33b6 2a3f 7335 193f
00000040: 9757 e83e 1ceb 083e 8814 403e 92a9 3c3f
00000050: 976e 203e 996b 363f 8e82 a73d 64c9 bc3e
00000060: 5b87 923e 8a79 043f 5a52 2d3f b105 173e
00000070: b71f ab3e 3ddc 183f ed9f e93d 75ee de3e

running_var f4 [32]
0.35174283 1.0296937 0.2629036 1.6550443 1.6442534 0.034050867 0.5580228 0.3570025
0.08994511 0.11009112 0.14690788 0.17976908 0.05439582 0.033707604 0.3207681 0.97865945
1.4829648 0.19713186 0.188153 0.88062227 0.06160926 1.2077665 0.11175739 0.7033458
0.87598044 1.8044752 0.41800717 0.10304729 0.40663484 0.5062687 0.100392476 2.3870697
00000000: a317 b43e 01cd 833f 4d9b 863e 7ed8 d33f
00000010: e576 d23f ec78 0b3d 95da 0e3f 08c9 b63e
00000020: 2435 b83d 7477 e13d 056f 163e 6315 383e
00000030: 27ce 5e3d fc10 0a3d b73b a43e 6d89 7a3f
00000040: cad1 bd3f efdc 493e 2eab 403e 7670 613f
00000050: fe59 7c3d 1898 9a3f 0fe1 e43d 780e 343f
00000060: 4140 603f 0bf9 e63f 0905 d63e 750a d33d
00000070: 7132 d03e d39a 013f 929a cd3d c0c5 1840

weight f4 [1, 512]
0.03930396 -0.052056305 -0.0072391876 0.0034693268 -0.030610997 -0.08561622 0.039605986 0.030672535
0.016777469 0.0044858204 -0.006836263 -0.00930361 0.0007261095 -0.0034658841 -0.001779461 -0.015718812
-0.0010115071 0.06294571 -0.06486975 -0.13365957 0.06101686 0.039712552 -0.030285772 -0.025061058
-0.055566333 0.026745753 0.0015822737 -0.027252633 -0.03634104 0.030527802 -0.01760221 0.0016772223
-0.05089044 0.11335535 -0.011381101 -0.004449099 0.008206233 -0.043328226 -0.0879143 0.067665696
0.08180858 0.0075499243 -0.005216173 0.0008269007 0.00825731 0.033868734 -0.015303727 -0.014187873
-0.0012533035 0.019966394 -0.01548787 -0.015583471 -0.02244066 0.15202062 0.11258124 0.14442816
-0.013628712 -0.021939622 -0.007888792 -0.013254141 -0.010980475 0.025326392 -0.034277644 -0.016511545
-0.000499607 0.022445465 -0.010547067 -0.007014068 0.028412541 -0.03285589 0.16178776 0.08508353
-0.016901756 -0.0088921925 -0.01961557 -0.011844326 -0.03979051 -0.023650702 -0.0008991481 -0.048613038
-0.021107892 -0.01378377 0.00091796764 0.05912107 0.0107527375 -0.012988122 0.023781743 0.06066664
0.3103768 -0.10497027 -0.11141437 -0.01380119 -0.0045373123 0.011178357 -0.0012031522 0.0101609845
-0.023363337 -0.0012627932 0.01393425 -0.10978233 -0.019599268 0.050107446 0.09151438 0.0064596995
0.002150159 0.11368625 0.060031973 0.019795833 -0.022363216 -0.00360009 -0.015749274 0.009588671
0.062144533 -0.03949513 -0.02206209 -0.07421723 0.052072383 0.034155134 0.019429872 -0.010675965
-0.022568244 -0.004264647 -0.00027009222 -0.0023152716 -0.003973768 -0.0060274485 0.015733114 0.0073258546
0.1131847 -0.04827486 -0.071254775 0.035666298 0.032185066 -0.0149618285 -0.35902748 -0.009459157
-0.011492413 -0.0049289614 -0.002641122 -0.001757764 0.012238805 0.014097493 -0.0111923525 -0.018222272
-0.059529528 -0.015817856 0.12711184 0.103346705 -0.0010366284 0.004522213 0.012463536 -0.0071314783
-0.0025932617 -0.0023154553 0.05330931 0.0032581403 -0.0427767 -0.012203413 0.027180191 -0.008300752
-0.012079215 -0.0010774368 0.23958325 -0.020323785 0.0050201872 -0.08916059 0.0019758907 0.0028913359
0.004710789 0.037151452 -0.012671067 -0.06299805 -0.044108078 -0.034795333 -0.0057855775 0.011644261
0.00457503 0.08318605 -0.105392754 -0.08825545 -0.0006090365 0.015649274 0.0016264683 0.01345249
-0.030080393 0.022190735 0.045260757 0.058714062 -0.03793561 0.0023099633 -0.011502097 0.0050431374
0.0667908 -0.097939074 0.10690619 -0.010194821 -0.07248726 0.14791417 0.09856226 0.0772675
-0.005085186 -0.005216164 -0.040849585 0.002598287 -0.0069919457 -0.007931773 -0.054668594 -0.04968898
0.24268751 -0.07495674 -0.008600454 0.057106536 -0.021653702 -0.0035754151 0.033824448 0.045404445
-0.08366083 -0.08127142 -0.049407054 0.006574657 0.008635449 -0.0031104675 -0.005598332 -0.010688239
-0.014107904 0.0066984044 -0.044117652 0.0060984013 0.049355116 0.058009464 -0.14049195 -0.003995042
-0.00073386385 -0.004045764 -0.008799952 -0.034378313 0.026045365 0.019002978 0.03028641 -0.0030914461
0.067283206 0.025573567 -0.11045939 -0.0024657587 -0.111740015 -0.036860004 -0.01806782 -0.018872414
-0.040009532 0.04944808 -0.0031156454 -0.014245424 -0.01015536 -0.008568592 -0.005648488 0.007463025
00000000: 30fd 203d fe38 55bd b536 edbb a55d 633b
00000010: eac3 fabc 8f57 afbd e339 223d f844 fb3c
00000020: e770 893c cafd 923b bb02 e0bb 2b6e 18bc
00000030: 6258 3e3a e323 63bb ce3c e9ba bdc4 80bc
00000040: 8c94 84ba aee9 803d 6eda 84bd 0ede 08be
00000050: d1ec 793d a1a9 223d de19 f8bc d94c cdbc
00000060: 8699 63bd e919 db3c 4c64 cf3a ea40 dfbc
00000070: 58da 14bd 7115 fa3c 8332 90bc 3ed6 db3a
00000080: 7e72 50bd da26 e83d cc77 3abc bfc9 91bb
00000090: 7073 063c f078 31bd 6a0c b4bd 5094 8a3d
000000a0: 428b a73d 5b65 f73b 6eec aabb 5ec4 583a
000000b0: ab49 073c f1b9 0a3d 7cbc 7abc 4174 68bc
000000c0: e345 a4ba 9090 a33c d6c0 7dbc d151 7fbc
000000d0: 7ad5 b7bc 4bab 1b3e fe90 e63d fae4 133e
000000e0: f64a 5fbc b9ba b3bc fe3f 01bc e627 59bc
000000f0: 73e7 33bc 4b79 cf3c b766 0cbd 3843 87bc
00000100: 0ff8 02ba 8ddf b73c 9bcd 2cbc 44d6 e5bb
00000110: 6bc1 e83c e693 06bd b1ab 253e 4640 ae3d
00000120: 8d75 8abc 8fb0 11bc d5b0 a0bc b40e 42bc
00000130: 60fb 22bd 1ebf c1bc cfb4 6bba 771e 47bd
00000140: 75ea acbc 52d5 61bc c4a3 703a ef28 723d
00000150: 402c 303c 22cc 54bc eed1 c23c 957d 783d
00000160: b5e9 9e3e a7fa d6bd 382d e4bd 631e 62bc
00000170: bcad 94bb 6d25 373c 17b3 9dba 427a 263c
00000180: 7864 bfbc 4f84 a5ba 7b4c 643c 8fd5 e0bd
00000190: a58e a0bc 773d 4d3d e46b bb3d e3ab d33b
000001a0: afe9 0c3b 56d4 e83d 16e4 753d df2a a23c
000001b0: 1033 b7bc 7def 6bbb 9f04 81bc cd19 1d3c
000001c0: 448b 7e3d a5c5 21bd 8ebb b4bc 34ff 97bd
000001d0: da49 553d 41e6 0b3d 652b 9f3c 3eea 2ebc
000001e0: 0ae1 b8bc 74be 8bbb 2a9b 8db9 d0bb 17bb
000001f0: 6236 82bb e781 c5bb bbe2 803c b90d f03b
00000200: 61cd e73d dcbb 45bd 06ee 91bd d316 123d
00000210: 7dd4 033d 7522 75bc 73d2 b7be 94fa 1abc
00000220: ac4a 3cbc 2083 a1bb ad16 2dbb c664 e6ba
00000230: 4585 483c 2cf9 663c 2160 37bc e046 95bc
00000240: 3cd5 73bd 7394 81bc 9b29 023e 70a7 d33d
00000250: 7adf 87ba 122f 943b dc33 4c3c 2daf e9bb
00000260: b6f3 29bb e5be 17bb dd5a 5a3d 8686 553b
00000270: 9f36 2fbd d3f0 47bc fea8 de3c e1ff 07bc
00000280: e6e7 45bc c838 8dba 5055 753e 117e a6bc
00000290: 6280 a43b d499 b6bd f27d 013b 917c 3d3b
000002a0: f65c 9a3b 1f2c 183d 4f9a 4fbc 1f05 81bd
000002b0: acaa 34bd 8d85 0ebd f194 bdbb 92c7 3e3c
000002c0: 22ea 953b 735d aa3d 28d8 d7bd 46bf b4bd
000002d0: bfa7 1fba e832 803c 382f d53a d567 5c3c
000002e0: 286b f6bc 58c9 b53c 5863 393d 287e 703d
000002f0: 5f62 1bbd c162 173b 4b73 3cbc e740 a53b
00000300: 9dc9 883d 4894 c8bd a2f1 da3d 2e08 27bc
00000310: 3374 94bd d076 173e 03db c93d 6c3e 9e3d
00000320: a2a1 a6bb 5bec aabb e551 27bd 0648 2a3b
00000330: b11c e5bb 44f4 01bc 2dec 5fbd ac86 4bbd
00000340: 1383 783e eb82 99bd ebe8 0cbc 8be8 693d
00000350: 1b63 b1bc 8351 6abb 818b 0a3d 03fa 393d
00000360: 5f56 abbd a171 a6bd 0d5f 4abd 3870 d73b
00000370: b37b 0d3c fcd8 4bbb 3672 b7bb b91d 2fbc
00000380: d724 67bc 4a7e db3b b6b4 34bd 19d5 c73b
00000390: 9728 4a3d 559b 6d3d 1fdd 0fbe d7e8 82bb
000003a0: c560 40ba 5492 84bb ad2d 10bc 46d0 0cbd
000003b0: 175d d53c 22ac 9b3c 351b f83c dc99 4abb
000003c0: c7cb 893d a87f d13c 8838 e2bd 9198 21bb
000003d0: f3d7 e4bd 84fa 16bd f702 94bc 529a 9abc
000003e0: 09e1 23bd 128a 4a3d db2f 4cbb a465 69bc
000003f0: ab62 26bc 4863 0cbc f416 b9bb 648c f43b
