model/S2C_Model/Mg/model.pth (torch, 37467 bytes, 19 tensors)

weight f4 [4, 1, 17]
0.27111492 0.28876418 0.060621504 0.003319188 0.33789128 0.13177949 0.10540008 0.19502519
0.21017757 0.06585984 -0.21703039 0.047508482 -0.16555868 -0.29036158 -0.26094657 -0.35679242
-0.018705709 0.33462155 0.5275112 0.27989537 0.1163668 0.18000466 0.24973577 -0.14667857
-0.28577316 0.087449744 0.11037715 -0.1482285 -0.3598999 -0.09152386 -0.2585739 -0.32837817
-0.20144208 -0.13634235 -0.03999676 0.59715635 -0.08424322 -0.042093765 0.6404465 0.40227783
0.066401064 0.078028955 -0.12002458 -0.015457643 -0.26549292 0.07582601 0.103794724 -0.34494415
-0.22176066 -0.10651623 -0.36988235 -0.10074109 -0.17984048 -0.0005531609 -0.016801253 -0.23234533
-0.12345839 0.12555987 -0.15014018 0.10990772 0.11916575 -0.15740806 -0.104541555 -0.14917237
0.0299097 -0.2029359 0.10216871 0.011941761
00000000: 93cf 8a3e e6d8 933e 414e 783d bc86 593b
00000010: 1600 ad3e 34f1 063e ffdb d73d afb4 473e
00000020: ca38 573e 86e1 863d 373d 5ebe 4198 423d
00000030: 3788 29be 46aa 94be ca9a 85be 7fad b6be
00000040: b73c 99bc 8453 ab3e f90a 073f 724e 8f3e
00000050: b851 ee3d 2453 383e bcba 7f3e e832 16be
00000060: dc50 92be da18 b33d 6a0d e23d 36c9 17be
00000070: cd44 b8be dd70 bbbd cc63 84be 2f21 a8be
00000080: d546 4ebe 549d 0bbe a5d3 23bd 3ddf 183f
00000090: b687 acbd 836a 2cbd 4df4 233f 5cf7 cd3e
000000a0: 48fd 873d a5cd 9f3d 72cf f5bd 0e42 7dbc
000000b0: b0ee 87be ab4a 9b3d 5492 d43d 859c b0be
000000c0: 3a15 63be 2e25 dabd 3861 bdbe 5851 cebd
000000d0: 1a28 38be 0002 11ba c8a2 89bc efeb 6dbe
000000e0: c1d7 fcbd c492 003e 59be 19be 4c17 e13d
000000f0: 2c0d f43d 942f 21be e219 d6bd a4c0 18be
00000100: 3005 f53c 6ece 4fbe d43d d13d 60a7 433c

bias f4 [4]
-0.3441181 0.7585628 0.098712385 0.09084669
00000000: 3f30 b0be 2c31 423f b829 ca3d d40d ba3d

weight f4 [4]
0.5344076 1.5491388 0.6516539 1.0
00000000: f0ce 083f 2e4a c63f cad2 263f 0000 803f

bias f4 [4]
0.09816815 0.09017449 0.09471103 -0.10647834
00000000: 620c c93d 67ad b83d dbf7 c13d 5111 dabd

running_mean f4 [4]
0.5983656 0.6684004 0.9115515 0.0
00000000: 7d2e 193f 4a1c 2b3f 705b 693f 0000 0000

running_var f4 [4]
0.11805617 0.0138485255 0.09283736 6e-45
00000000: 6fc7 f13d ede4 623c 8421 be3d 0400 0000

weight f4 [16, 4, 17]
-0.09164671 -0.05499005 -0.07481044 -0.0010125301 -0.06984137 -0.03323306 -0.19536047 -0.114112526
-0.1993383 -0.1896317 -0.33833778 -0.3637021 -0.3417828 -0.3391018 -0.20362857 -0.2783686
-0.23517318 -0.034490827 0.23320507 0.02843668 0.010935369 0.115912944 0.31222373 0.1629778
0.37304273 -0.028403793 -0.081842154 -0.2083684 -0.25559717 -0.39368308 -0.31504667 -0.28162095
-0.17779367 -0.44611332 0.07162571 -0.038614362 -0.004037381 -0.019472305 -0.15913445 -0.1909557
-0.040417988 -0.28013584 -0.28320125 -0.37489426 -0.3839674 -0.1674893 -0.19542412 -0.15004194
-0.12637772 -0.08116841 -0.06257478 -0.15194036 -0.091638625 -0.1233601 -0.14555784 -0.09105927
-0.024278471 -0.10093786 -0.010735836 0.028276093 -0.038800694 -0.040967066 -0.17214295 -0.14007078
-0.13693768 -0.05140913 -0.11208394 -0.12839544 -0.08796092 -0.07737048 -0.0006134053 0.08116715
0.08296575 0.1691388 0.14371713 0.114879824 0.0072069755 0.14503205 0.080219746 -0.03561706
0.15552106 -0.07490088 -0.029765218 -0.19547765 -0.016562542 -0.2536384 -0.2427963 -0.22395511
0.18127309 0.15940778 0.2607829 0.1724902 0.07691852 0.21354185 -0.00674099 0.17532003
0.4331788 0.48514682 -0.012418685 -0.3074681 -0.54795295 -0.12717326 -0.11704995 0.041016378
0.05516963 0.26274586 0.20389125 0.026079997 0.019853592 0.08059293 0.13018161 0.13270533
0.07704978 -0.07724315 -0.037798245 -0.08303871 -0.105830364 -0.10614533 -0.19183566 0.1415236
0.11628968 -0.013350455 0.1453565 0.04001882 0.012022415 0.14414403 0.16854106 0.04948062
0.19492747 0.1573501 0.134626 0.103353456 0.05804432 0.04393299 -0.02076055 0.038884368
0.14014803 0.054513857 0.12491183 0.11002882 0.00058021175 -0.10587329 -0.022157291 -0.052838404
-0.26895013 -0.2180203 -0.3036136 -0.1603009 -0.29121292 -0.22431551 -0.3622647 -0.18599755
-0.30691832 0.13446563 0.3021267 0.115949266 0.24131359 0.12063475 0.011375643 0.088088505
0.24325769 0.15986204 0.048998505 -0.29018772 0.061042685 0.021555036 0.19833447 0.19376288
0.35661376 0.13499784 0.181628 0.003276408 0.1071065 0.1158264 -0.025683833 -0.1366751
-0.17283878 -0.17076802 -0.19298974 -0.21861136 -0.21252568 -0.17184518 -0.31646907 -0.17340165
-0.1909753 -0.15510939 -0.2345626 0.11467081 0.09830003 0.013202601 0.061874483 0.04792895
0.20663685 0.025513817 0.074042 0.23768888 0.015950974 0.1551707 0.13776943 0.083390564
0.06916102 0.17921567 0.18806025 0.06669543 -0.11652472 -0.0024493467 -0.060579862 0.01744915
0.1254491 0.08696597 -0.10062727 0.023627512 -0.061086394 -0.050808243 -0.017691206 -0.01856208
-0.082941025 -0.17680265 -0.16202067 -0.013948712 0.18236342 -0.24666202 -0.16668338 0.006630316
0.19291608 0.28684637 0.2553786 0.07144964 0.32489747 0.27079916 0.082731314 0.05553001
-0.11850152 -0.1704873 -0.33509833 -0.53393847 -0.5932645 -0.27413657 -0.048157845 0.017219681
-0.09214463 -0.103118025 0.13503288 -0.0054786163 -0.044490922 0.049612466 -0.0735801 -0.07061685
-0.18186523 -0.09217591 -0.1079972 -0.13060233 -0.14285114 -0.079062924 0.098862566 -0.11332543
00000000: 45b1 bbbd 3f3d 61bd 3736 99bd dfb6 84ba
00000010: fe08 8fbd 641f 08bd 930c 48be d4b3 e9bd
00000020: 571f 4cbe d02e 42be 9c3a adbe 2937 babe
00000030: 28fe aebe c09e adbe 0284 50be 5486 8ebe
00000040: 3dd1 70be 4146 0dbd 4fcd 6e3e 0af4 e83c
00000050: 432a 333c c463 ed3d cadb 9f3e a7e3 263e
00000060: 75ff be3e 12af e8bc dc9c a7bd 875e 55be
00000070: a2dd 82be d490 c9be cc4d a1be 9f30 90be
00000080: 8b0f 36be f768 e4be 80b0 923d 182a 1ebd
00000090: 024c 84bb 6284 9fbc 24f4 22be e489 43be
000000a0: 558d 25bd f76d 8fbe c1ff 90be 24f2 bfbe
000000b0: 6097 c4be 5182 2bbe 431d 48be 98a4 19be
000000c0: 2969 01be a03b a6bd 3527 80bd 4196 1bbe
000000d0: 08ad bbbd 38a4 fcbd 1d0d 15be 487d babd
000000e0: a5e3 c6bc 82b8 cebd 5ce5 2fbc 44a3 e73c
000000f0: 7aed 1ebd 15cd 27bd 3e46 30be b76e 0fbe
00000100: 6439 0cbe 6192 52bd 448c e5bd 187a 03be
00000110: db24 b4bd 6a74 9ebd efcc 20ba f63a a63d
00000120: f2e9 a93d b932 2d3e 952a 133e 1d46 eb3d
00000130: 7e28 ec3b 4883 143e 404a a43d 32e3 11bd
00000140: ea40 1f3e a265 99bd 30d6 f3bc 4b2b 48be
00000150: 2bae 87bc e4dc 81be 989f 78be 7d54 65be
00000160: a79f 393e cb3b 233e 5685 853e 45a1 303e
00000170: 7587 9d3d b7aa 5a3e 86e3 dcbb 1887 333e
00000180: 9dc9 dd3e 2a65 f83e bd77 4bbc 756c 9dbe
00000190: a546 0cbf b539 02be e2b7 efbd ca00 283d
000001a0: 8df9 613d a086 863e dec8 503e b8a5 d53c
000001b0: 00a4 a23c e80d a53d 544e 053e e8e3 073e
000001c0: 46cc 9d3d a831 9ebd 55d2 1abd 3310 aabd
000001d0: 97bd d8bd b962 d9bd 9170 44be 90eb 103e
000001e0: 4929 ee3d debb 5abc 56d8 143e c6ea 233d
000001f0: aaf9 443c 7e9a 133e 0796 2c3e 31ac 4a3d
00000200: 119b 473e 6220 213e 66db 093e faaa d33d
00000210: e2bf 6d3d 14f3 333d 0712 aabc 3745 1f3d
00000220: f782 0f3e ec49 5f3d c6d1 ff3d ca56 e13d
00000230: 5a19 183a 18d4 d8bd 3583 b5bc 156d 58bd
00000240: d5b3 89be b740 5fbe 3e73 9bbe eb25 24be
00000250: dc19 95be f7b2 65be c27a b9be 2476 3ebe
00000260: 6624 9dbe 5cb1 093e 5ab0 9a3e cf76 ed3d
00000270: e91a 773e 5a0f f73d e860 3a3c bf67 b43d
00000280: 8b18 793e e0b2 233e a8b2 483d 7c93 94be
00000290: e507 7a3d 3094 b03c 3118 4b3e c769 463e
000002a0: 1496 b63e e03c 0a3e b1fc 393e 01b9 563b
000002b0: a75a db3d 6436 ed3d e766 d2bc 8ff4 0bbe
000002c0: a6fc 30be d0dd 2ebe 1a9f 45be a8db 5fbe
000002d0: 55a0 59be 2ff8 2fbe 3c08 a2be 3490 31be
000002e0: 078f 43be ffd4 1ebe 2e31 70be 88d8 ea3d
000002f0: 8751 c93d b94f 583c 1970 7d3d 2651 443d
00000300: 9c98 533e 5a02 d13c 55a3 973d b764 733e
00000310: 9eab 823c 11e5 1e3e 6e13 0d3e acc8 aa3d
00000320: 4ba4 8d3d 5084 373e de92 403e 9d97 883d
00000330: 83a4 eebd 3885 20bb 9722 78bd 85f1 8e3c
00000340: bb75 003e 371b b23d ac15 cebd 7c8e c13c
00000350: ba35 7abd 4e1c 50bd 26ed 90bc 810f 98bc
00000360: fcdc a9bd c10b 35be bfe8 25be 2389 64bc
00000370: 7abd 3a3e f894 7cbe 0caf 2abe 1f43 d93b
00000380: cb8b 453e 87dd 923e fcc0 823e 3054 923d
00000390: f658 a63e 30a6 8a3e 096f a93d 7073 633d
000003a0: edb0 f2bd 3994 2ebe 0292 abbe 31b0 08bf
000003b0: 2fe0 17bf a15b 8cbe 2941 45bd 4a10 8d3c
000003c0: 53b6 bcbd 8b2f d3bd 0f46 0a3e f785 b3bb
000003d0: 1d3c 36bd 7136 4b3d 2ab1 96bd 919f 90bd
000003e0: e13a 3abe b9c6 bcbd a32d ddbd 9ebc 05be
000003f0: 9247 12be beeb a1bd 7578 ca3d 2a17 e8bd

bias f4 [16]
0.067650616 0.03551397 -0.13234486 0.19876295 -0.083684765 0.12910312 -0.5471971 -0.3423214
0.16092743 -0.28519338 -0.2922314 0.046616267 -0.18862273 -0.004599335 0.14352229 -0.102711506
00000000: 688c 8a3d 1977 113d 6985 07be 8488 4b3e
00000010: eb62 abbd 9c33 043e 1c15 0cbf c044 afbe
00000020: 29ca 243e de04 92be 5b9f 95be b3f0 3e3d
00000030: 5126 41be 05b6 96bb 82f7 123e 695a d2bd

weight f4 [16]
0.45967793 1.2410811 0.37133655 0.9508036 1.0630517 1.7901771 0.8863195 0.39444387
1.4542694 0.50457156 0.6966092 0.5279597 0.46344778 1.1859721 1.2375648 0.2104611
00000000: e85a eb3e bfdb 9e3f d31f be3e dd67 733f
00000010: 1412 883f 8624 e53f d6e5 623f 8cf4 c93e
00000020: 8025 ba3f 9a2b 013f fb54 323f 5e28 073f
00000030: 0749 ed3e efcd 973f 8668 9e3f 1d83 573e

bias f4 [16]
0.21153079 0.33310115 0.059270073 0.104095615 0.2917878 0.08195838 0.22402056 0.283181
-0.17123581 0.18200567 0.15525258 0.41146547 0.053186264 0.38080147 0.24535027 0.17257705
00000000: 879b 583e 3c8c aa3e 2dc5 723d 1530 d53d
00000010: 3665 953e ccd9 a73d a565 653e 1afd 903e
00000020: 7158 2fbe b25f 3a3e 88fa 1e3e 9aab d23e
00000030: d7d9 593d 69f8 c23e 1a3d 7b3e 0ab8 303e

running_mean f4 [16]
1.0376109 0.6874216 1.2274052 0.79142684 0.5758611 0.62417364 0.5913534 0.30994555
0.8652539 0.27212292 0.23706159 0.45200068 1.4757601 0.51417583 0.88266724 1.295578
00000000: 6fd0 843f ddfa 2f3f 9d1b 9d3f f39a 4a3f
00000010: a26b 133f d8c9 1f3f f062 173f 2fb1 9e3e
00000020: 4881 5d3f b253 8b3e 46c0 723e a26c e73e
00000030: b5e5 bc3f 07a1 033f 7bf6 613f 80d5 a53f

running_var f4 [16]
1.3824904 4.8862705 2.624096 1.857104 3.2803574 0.9115817 5.511756 0.42712358
1.8561002 0.6318677 0.5593401 0.4477087 14.180307 1.7605324 5.075732 4.2720714
00000000: 72f5 b03f 545c 9c40 30f1 2740 95b5 ed3f
00000010: 60f1 5140 6b5d 693f 4e60 b040 f1af da3e
00000020: b194 ed3f 15c2 213f ea30 0f3f 133a e53e
00000030: 8ae2 6241 2059 e13f 666c a240 cfb4 8840

weight f4 [32, 16, 9]
-0.061081532 0.100350454 -0.08721332 0.1555501 0.16266516 -0.0044903564 -0.058407918 0.067898
0.05055738 -0.14169921 -0.035510212 -0.10102886 0.15035221 -0.07244225 -0.12344253 0.09015469
0.35127342 0.10489379 0.2391876 0.16194125 0.16505119 0.28223366 0.29498613 0.16592501
0.02599015 0.07011039 0.051661402 -0.15786399 -0.12529835 -0.15717585 0.0011628493 -0.0016115811
-0.12416221 -0.21269435 -0.11218673 -0.1173679 -0.18673679 0.047919486 0.037867814 -0.43775582
0.2627739 -0.30599415 -0.2656678 -0.37116468 -0.12928925 0.13832442 0.1749781 0.18222381
0.26208574 -0.23550291 -0.40215883 0.119897015 0.46233422 -0.45555705 -0.13554277 -0.0664089
0.0636305 -0.4071253 0.040179994 -0.05061327 -0.035742532 -0.04682022 -0.0012974879 -0.13622521
-0.12381047 -0.006696788 -0.03855564 0.076336995 0.002942255 -0.018385794 0.021682762 -0.044709988
0.1548745 0.091674924 0.072759375 0.4556314 0.5159372 0.29151538 -0.16755152 0.017355908
0.16411342 -0.00070213614 0.090466276 -0.28663573 -0.40433666 -0.27982235 -0.17013699 -0.32621807
-0.056162283 0.02563613 -0.08343319 0.11750368 0.16778064 0.3130218 0.20338708 0.12586798
-0.07924904 0.02904334 0.46435192 -0.30871114 -0.12891787 -0.01513622 -0.039913762 -0.038537618
0.05184484 -0.0034055617 -0.14292902 0.082054935 0.22518894 0.16376399 0.18088529 0.38229436
0.35417256 0.10140669 0.19950435 0.08067613 0.07647144 -0.32933468 -0.31296468 -0.49176124
-0.1335113 0.17134105 0.096185364 0.122799784 -0.11219665 -0.12491289 0.004475911 -0.0044481186
-0.031186769 -0.3860397 -0.2564276 -0.38383728 0.0061326628 -0.25211728 0.01822839 0.04186111
-0.06770124 0.07503445 0.043329787 -0.0039504906 0.026859155 -0.032450695 0.06880724 -0.02461872
0.09082744 0.16255018 -0.06555516 0.13601902 0.0025384098 -0.015308973 -0.465367 -0.38206378
-0.36118972 -0.19877377 -0.34598458 -0.12329113 0.102353185 0.12566626 0.08482488 -0.18849503
-0.3583324 -0.62179846 0.011119534 0.02183168 -0.1090793 0.095995985 0.2268842 0.2085077
0.14727996 -0.11316143 -0.12303577 0.22005932 0.11250367 -0.15902953 0.025051093 0.04801614
-0.22540942 -0.05627098 -0.030307028 -0.27651575 -0.30451792 -0.08731787 -0.22484101 -0.060569134
0.14388415 -0.27370867 -0.34787908 -0.41125733 -0.56645226 -0.38198373 0.13370228 0.19661076
0.15982552 -0.13471824 0.1403683 0.6902305 -0.261589 -0.2445891 -0.024010893 -0.09642986
-0.096955545 0.072451435 0.3203775 0.12710871 0.022195572 -0.09139177 -0.13952197 0.097504206
0.118123084 0.059376646 0.08850936 -0.02739323 -0.04479498 -0.03773272 -0.0018403187 0.003712782
-0.099895045 -0.17051713 -0.29766417 0.09817509 0.06279691 -0.15005824 -0.20266469 -0.026322085
-0.27466458 -0.09318619 -0.46150798 -0.5343416 -0.3246476 -0.30526665 -0.13648707 0.393095
0.20659164 -0.14810057 -0.25568953 -0.1690143 0.062844686 -0.0653672 -0.10615761 0.054993317
0.15367454 0.14701924 0.12017251 -0.0813393 0.14920005 0.28361717 0.18039566 0.045475826
0.0773519 0.06411263 -0.07892075 -0.30589125 -0.035382982 0.15588465 0.19068868 0.36454567
00000000: a130 7abd 8a84 cd3d e69c b2bd 8748 1f3e
00000010: b291 263e d723 93bb 243d 6fbd 1b0e 8b3d
00000020: 4115 4f3d 9919 11be 2873 11bd 38e8 cebd
00000030: eef5 193e 9a5c 94bd 70cf fcbd 06a3 b83d
00000040: 1cda b33e 8ed2 d63d 98ed 743e edd3 253e
00000050: 2e03 293e ee80 903e 6c08 973e 3fe8 293e
00000060: 4ce9 d43c 0996 8f3d e89a 533d 19a7 21be
00000070: 364e 00be b5f2 20be bf6a 983a b03b d3ba
00000080: c248 febd 8ccc 59be 28c2 e5bd 955e f0bd
00000090: ee37 3fbe 3947 443d 481b 1b3d 8821 e0be
000000a0: 4d8a 863e 44ab 9cbe 9c05 88be 4c09 bebe
000000b0: 6764 04be eba4 0d3e 762d 333e e198 3a3e
000000c0: 1a30 863e ad27 71be c3e7 cdbe 918c f53d
000000d0: 12b7 ec3e c63e e9be b9cb 0abe 6401 88bd
000000e0: b550 823d ba72 d0be c793 243d dc4f 4fbd
000000f0: c366 12bd 8fc6 3fbd 7810 aaba 9f7e 0bbe
00000100: 5890 fdbd bb70 dbbb 85ec 1dbd 9256 9c3d
00000110: d9d2 403b ce9d 96bc 0ca0 b13c d221 37bd
00000120: 6c97 1e3e 10c0 bb3d de02 953d 8548 e93e
00000130: 7614 043f 8141 953e a092 2bbe fa2d 8e3c
00000140: 590d 283e 8f0f 38ba 6246 b93d ebc1 92be
00000150: 3705 cfbe e044 8fbe 6438 2ebe 0e06 a7be
00000160: 6c0a 66bd dc02 d23c 05df aabd c5a5 f03d
00000170: b0ce 2b3e 6544 a03e b444 503e 89e3 003e
00000180: 524d a2bd 4cec ed3c 89bf ed3e 630f 9ebe
00000190: 0c03 04be e8fd 77bc 9d7c 23bd 9fd9 1dbd
000001a0: 415b 543d d82f 5fbb fc5b 12be 6b0c a83d
000001b0: ee97 663e bfb1 273e fe39 393e 16bc c33e
000001c0: 1b56 b53e 50ae cf3d de4a 4c3e 8739 a53d
000001d0: 0f9d 9c3d 8e9e a8be e83c a0be 21c8 fbbe
000001e0: 30b7 08be 0774 2f3e d5fc c43d 747e fb3d
000001f0: 5bc7 e5bd 54d2 ffbd aaaa 923b 86c1 91bb
00000200: 657b ffbc ffa6 c5be 7a4a 83be 5286 c4be
00000210: 81f4 c83b 8415 81be b453 953c 8e76 2b3d
00000220: f3a6 8abd a9ab 993d 937a 313d 1e73 81bb
00000230: bb07 dc3c 05eb 04bd cfea 8c3d 33ad c9bc
00000240: bd03 ba3d 8e73 263e c941 86bd 9248 0b3e
00000250: 735b 263b 7dd2 7abc 9544 eebe dd9d c3be
00000260: dced b8be 5a8b 4bbe e424 b1be 0f80 fcbd
00000270: 8c9e d13d a8ae 003e abb8 ad3d d704 41be
00000280: 5877 b7be 2f2e 1fbf b52e 363c 5ad8 b23c
00000290: f864 dfbd 8b99 c43d 5554 683e 0b83 553e
000002a0: 8fd0 163e 2ec1 e7bd 2efa fbbd 3b57 613e
000002b0: 5368 e63d a3d8 22be f337 cd3c 92ac 443d
000002c0: bad1 66be 667c 66bd 7246 f8bc 7993 8dbe
000002d0: c6e9 9bbe b6d3 b2bd b93c 66be 5717 78bd
000002e0: 5e56 133e 8b23 8cbe 351d b2be 5290 d2be
000002f0: 0403 11bf 5f93 c3be 40e9 083e 5554 493e
00000300: 4da9 233e 94f3 09be b5bc 0f3e f2b2 303f
00000310: feee 85be 9175 7abe 7eb2 c4bc 057d c5bd
00000320: a190 c6bd 6b61 943d 8508 a43e c928 023e
00000330: 7dd3 b53c 9c2b bbbd d9de 0ebe 49b0 c73d
00000340: 84ea f13d ed34 733d 6544 b53d c467 e0bc
00000350: f17a 37bd a08d 1abd d936 f1ba 2552 733b
00000360: c695 ccbd 0b9c 2ebe 7067 98be 0610 c93d
00000370: ab9b 803d dea8 19be 5587 4fbe 6aa1 d7bc
00000380: d6a0 8cbe 67d8 bebd c64a ecbe 9cca 08bf
00000390: 3638 a6be e94b 9cbe 44c3 0bbe bf43 c93e
000003a0: c28c 533e ada7 17be bde9 82be 1612 2dbe
000003b0: b7b4 803d 3ddf 85bd 2969 d9bd ac40 613d
000003c0: dc5c 1d3e 368c 163e 011d f63d 3895 a6bd
000003d0: e6c7 183e 4536 913e a4b9 383e dc44 3a3d
000003e0: ac6a 9e3d 7c4d 833d 34a1 a1bd c79d 9cbe
000003f0: bfed 10bd 3aa0 1f3e e543 433e bba5 ba3e

bias f4 [32]
-0.42020804 -0.23371592 -0.15618336 -0.077529944 0.03479289 0.048305333 -0.008482891 -0.033292495
-0.4980715 -0.0789354 -0.18944126 -0.12906782 -0.06729477 -0.44215903 -0.43951786 -0.3799161
-0.23638026 -0.20768405 0.007100882 -0.28969562 -0.0693137 0.1369467 -0.11821158 -0.098694615
-0.3547791 -0.15551871 -0.012937483 -0.113881245 -0.51514 -0.06908824 -0.15581517 -0.41320717
00000000: 8225 d7be 3a53 6fbe 88ee 1fbe 05c8 9ebd
00000010: fd82 0e3d d0db 453d d3fb 0abc b65d 08bd
00000020: 3a03 ffbe e2a8 a1bd e4fc 41be 5b2a 04be
00000030: d7d1 89bd ab62 e2be 7c08 e1be 5d84 c2be
00000040: ab0d 72be 21ab 54be 84ae e83b fc52 94be
00000050: 57f4 8dbd c13b 0c3e ea18 f2bd 6720 cabd
00000060: 9ba5 b5be 4c40 1fbe bdf7 53bc 923a e9bd
00000070: 37e0 03bf 237e 8dbd 038e 1fbe e48f d3be

weight f4 [32]
0.10304539 0.18049435 0.11603229 0.14847444 0.14125496 0.21437608 0.14994888 0.09965034
0.100557 0.12490327 0.20437215 0.12362443 0.10304075 0.13693418 0.07683482 0.18418291
0.1299116 0.046963774 0.17680791 0.18976234 0.29582652 0.108064555 0.10190751 0.08906456
0.12618977 0.108595826 0.15192953 0.07570328 0.1320841 0.09839632 0.12729229 0.06657937
00000000: 7609 d33d 83d3 383e 56a2 ed3d af09 183e
00000010: 24a5 103e 6785 5b3e 338c 193e 7a15 cc3d
00000020: d4f0 cd3d 49cd ff3d ef46 513e ce2e fd3d
00000030: 0707 d33d 7938 0c3e 935b 9d3d 729a 3c3e
00000040: 8c07 053e 165d 403d 220d 353e 0f51 423e
00000050: 9376 973e f350 dd3d e2b4 d03d 7b67 b63d
00000060: e437 013e 7d67 de3d 6a93 1b3e 520a 9b3d
00000070: 0e41 073e 0384 c93d e958 023e c45a 883d

bias f4 [32]
0.03119894 0.03680757 0.015139824 -0.02791157 0.018551964 0.03505259 0.018947521 0.00054410496
-0.0018849147 0.02472524 0.013565676 0.020695025 0.016296566 0.024641892 0.011303552 0.056793194
0.04100526 -0.010649415 0.026694447 0.0046125213 0.111795224 0.02497828 0.0026288505 0.017655507
0.01145839 0.009133386 -0.0014886812 -0.024720922 0.02571814 -0.009372006 -0.0062512476 -0.01244224
00000000: eb94 ff3c 89c3 163d 060d 783c cea6 e4bc
00000010: 4afa 973c 4e93 0f3d d537 9b3c 44a2 0e3a
00000020: 3e0f f7ba 968c ca3c 9242 5e3c 9d88 a93c
00000030: 6080 853c cbdd c93c 8932 393c fb9f 683d
00000040: 22f5 273d e27a 2ebc 50ae da3c a224 973b
00000050: e5f4 e43d 409f cc3c cb48 2c3b 48a2 903c
00000060: f9bb 3b3c 33a4 153c da1f c3ba 8883 cabc
00000070: d9ae d23c 0b8d 19bc 44d7 ccbb 89da 4bbc

running_mean f4 [32]
0.1956056 0.2036296 0.053172983 0.08847795 0.08454562 0.15696089 0.2749567 0.07865477
0.0069895685 0.27765495 0.14043841 0.050808147 0.8380373 0.07774608 0.051848173 0.096962065
0.21030058 0.05607734 0.23430721 0.05539295 0.1336194 0.5194819 0.10598394 0.20802973
0.010692201 0.109013155 0.08964642 0.07436023 0.36305207 0.35252437 0.110371284 0.060636643
00000000: d64c 483e 4784 503e eacb 593d ed33 b53d
00000010: 4126 ad3d 5bba 203e 20c7 8c3e c115 a13d
00000020: c008 e53b ca28 8e3e 16cf 0f3e 341c 503d
00000030: 9d89 563f 5639 9f3d c05e 543d 0c94 c63d
00000040: 0959 573e 5ab1 653d 3bee 6f3e b8e3 623d
00000050: 86d3 083e c4fc 043f 1c0e d93d bf05 553e
00000060: 572e 2f3c 4a42 df3d 8b98 b73d 2d4a 983d
00000070: f6e1 b93e 137e b43e 570a e23d 215e 783d

running_var f4 [32]
0.30693847 0.20456687 0.038148385 0.070077434 0.060232393 0.14517096 0.24536313 0.06594193
0.004427817 0.23236908 0.32147923 0.027583567 1.3066016 0.21164505 0.033837285 0.08585121
0.28581613 0.049053017 0.18452772 0.07011993 0.11316371 0.5144202 0.22038245 0.23318662
0.0034482256 0.07433382 0.07333551 0.081965044 2.190323 0.8817907 0.24823341 0.13573597
00000000: 0a27 9d3e fa79 513e 7b41 1c3d c284 8f3d
00000010: 3eb6 763d b2a7 143e 7940 7b3e 900c 873d
00000020: 3917 913b 29f2 6d3e ed98 a43e eff6 e13c
00000030: b93e a73f 7bb9 583e f798 0a3d c2d2 af3d
00000040: 7e56 923e d1eb 483d d6f4 3c3e 0a9b 8f3d
00000050: 60c2 e73d 0bb1 033f f0ab 613e 79c8 6e3e
00000060: a0fb 613b 543c 983d ee30 963d 4add a73d
00000070: 412e 0c40 09bd 613f e630 7e3e 5ffe 0a3e

weight f4 [1, 512]
-0.022528203 0.025796726 -0.21928065 -0.1680554 -0.14206447 -0.084868215 0.014362663 -0.032486435
0.047554433 0.5003162 0.36910945 -0.037256453 0.06444233 -0.01190629 0.0003401559 -0.01049059
-0.030574933 0.077222124 0.32837313 0.41612524 0.06259552 0.1998752 0.1018277 -0.21834324
-0.02464795 -0.010181498 -0.0014935764 -0.07040258 0.026923535 -0.020775475 0.013536188 -0.025040364
0.40037158 -0.0054218 -0.121452354 -0.042298716 0.006066092 0.12049672 -0.084776245 0.07448931
0.049726605 0.24980012 0.14784935 0.03359843 0.012359056 0.032052487 0.0050846646 0.022109658
-0.068174295 0.35723045 0.22443637 -0.002236152 -0.013331674 -0.018267285 -0.026932864 1.2461327e-05
0.028268808 -0.020446261 -0.040716875 -0.10428016 -0.15425023 -0.0072064013 -0.0028940418 -0.028566584
0.00076123787 0.36937848 0.27392587 -0.13592462 -0.15074939 0.12621623 0.030040909 -0.0121056205
0.004441129 -0.042852547 -0.11523313 -0.07762463 -0.013057537 -0.0026169615 0.009620188 -0.025533378
0.11709551 0.529103 0.017483981 0.049739063 0.14127395 -0.11739981 -0.0050087087 -0.0065039946
0.014468012 0.022880506 -0.016170321 0.0013244841 0.0012079384 -0.006984041 0.007253376 -0.009492653
-0.024070162 0.40364966 0.20827845 0.11711113 -0.07937824 -0.1332077 -0.0059197727 -0.0010515496
0.1801241 0.013218576 -0.07319601 0.043901138 -0.095805936 -0.00033954295 0.0071621328 0.009594285
0.06286308 -0.15102662 -0.16739732 0.25716498 -0.03940509 0.022553055 -0.075313285 0.07457171
0.17500438 0.26166472 0.13745622 -0.07507349 0.01116442 -0.0076102684 -0.041373845 0.042013086
0.0120632 -0.049274676 -0.08726483 0.5004104 -0.06600413 -0.12464932 -0.017855622 0.027662382
0.0027735503 -0.074035 -0.1402708 0.10004964 -0.005850048 0.020924732 -0.0022715083 -0.05995924
0.28114963 -0.03360184 -0.1740264 0.113624945 0.03931009 -0.002875745 0.056142982 -0.41858682
-0.0034390285 -0.0111666 -0.050145503 -0.004989429 -0.006239069 0.038163148 0.011194993 -0.039343856
0.027686846 -0.0075134784 0.01446102 0.100730166 0.546575 0.26056808 0.11012583 -0.047580756
-0.020339467 -0.0024540434 -0.016256018 0.004977139 -0.025949867 -0.0657007 -0.0077628167 -0.11253815
0.027636433 0.2956318 -0.14891632 0.0068838033 -0.17644633 0.0014212826 0.013665638 0.017472621
0.19436656 0.05930642 -0.09193421 -0.09501584 -0.14629988 -0.046128336 -0.08469227 -0.055237737
0.051519834 0.46872622 0.003586978 0.038832672 -0.20770156 -0.03951786 -0.012095184 0.016681775
0.015655642 0.08963925 0.022034446 0.1121348 0.07401667 0.054915063 0.009822578 0.0063418853
-0.011112641 -0.02515546 0.25374654 0.4990731 -0.011919324 -0.099429905 -0.04191787 -0.04132706
-0.030567935 -0.082306564 0.0567515 0.117861524 -0.20371716 -0.14606631 -0.09835964 9.68986e-05
-0.11058336 -0.120050386 0.049668774 -0.09017805 -0.08106905 0.046602305 -0.024440674 -0.047284067
0.35202843 0.2260908 0.30353057 -0.10408708 0.11081267 0.0060912836 0.0033619716 0.0022445894
-0.2796602 0.12337204 -0.025333919 -0.021978132 -0.028538521 0.030533776 0.052054983 0.16076426
0.26947883 0.3030425 0.22435991 -0.2485479 0.018605087 0.0025757854 0.00701638 -0.005271086
00000000: 118d b8bc a853 d33c 1b8b 60be b716 2cbe
00000010: 5979 11be 63cf adbd 6051 6b3c 7f10 05bd
00000020: 70c8 423d b914 003f eafb bc3e 399a 18bd
00000030: 57fa 833d 9a12 43bc f456 b239 b9e0 2bbc
00000040: 4878 fabc a226 9e3d 8620 a83e 5e0e d53e
00000050: 1432 803d 16ac 4c3e 0b8b d03d 5f95 5fbe
00000060: 7fea c9bc 4cd0 26bc 1cc4 c3ba 3a2f 90bd
00000070: bf8e dc3c 5431 aabc e3c6 5d3c 7321 cdbc
00000080: 81fd cc3e 5ba9 b1bb 03bc f8bd 6b41 2dbd
00000090: 11c6 c63b fcc6 f63d 2b9f adbd da8d 983d
000000a0: 20ae 4b3d 9acb 7f3e d265 173e 829e 093d
000000b0: a37d 4a3c 7849 033d 429d a63b 501f b53c
000000c0: f79e 8bbd e9e6 b63e a6d2 653e 688c 12bb
000000d0: 186d 5abc 46a5 95bc 4fa2 dcbc fe10 5137
000000e0: fd93 e73c eb7e a7bc bdc6 26bd d690 d5bd
000000f0: c6f3 1dbe ad23 ecbb f7a9 3dbb 7804 eabc
00000100: cf8d 473a 2d1f bd3e 0340 8c3e d32f 0bbe
00000110: 0c5e 1abe d43e 013e 5a18 f63c a756 46bc
00000120: e486 913b 2786 2fbd 59ff ebbd a9f9 9ebd
00000130: 48ef 55bc 5481 2bbb fe9d 1d3c 602b d1bc
00000140: c5cf ef3d 4b73 073f 913a 8f3c 30bb 4b3d
00000150: 1eaa 103e 506f f0bd 1820 a4bb 761f d5bb
00000160: 3e0b 6d3c e66f bb3c 9f77 84bc 509a ad3a
00000170: b053 9e3a 62da e4bb baad ed3b 1387 1bbc
00000180: ca2e c5bc 2bab ce3e f246 553e f6d7 ef3d
00000190: 0f91 a2bd 9967 08be a7fa c1bb 26d4 89ba
000001a0: 7472 383e ba92 583c cae7 95bd aed1 333d
000001b0: e735 c4bd af04 b2b9 53b0 ea3b 5931 1d3c
000001c0: 5cbe 803d b9a6 1abe 346a 2bbe 21ab 833e
000001d0: 3b67 21bd 2fc1 b83c da3d 9abd 0db9 983d
000001e0: 5934 333e ebf8 853e 53c1 0c3e 21c0 99bd
000001f0: f9ea 363c 8f5f f9bb 9f77 29bd ea15 2c3d
00000200: baa4 453c 3ed4 49bd e7b7 b2bd e51a 003f
00000210: 2c2d 87bd 2548 ffbd f445 92bc 389c e23c
00000220: 74c4 353b a99f 97bd 26a3 0fbe d3e6 cc3d
00000230: c2b1 bfbb 586a ab3c 96dd 14bb d297 75bd
00000240: d8f2 8f3e 15a2 09bd fa33 32be 32b4 e83d
00000250: 9e03 213d ff76 3cbb 2ff6 653d 0351 d6be
00000260: 5361 61bb 1df4 36bc 5f65 4dbd 5d7e a3bb
00000270: 1b71 ccbb f650 1c3d 346b 373c 0627 21bd
00000280: 86cf e23c a033 f6bb eaed 6c3c 9e4b ce3d
00000290: 57ec 0b3f 2e69 853e a789 e13d 0ae4 42bd
000002a0: f49e a6bc 04d4 20bb 572b 85bc 4517 a33b
000002b0: d194 d4bc 178e 86bd 3a5f febb 677a e6bd
000002c0: cd65 e23c 0d5d 973e 857d 18be 8791 e13b
000002d0: 59ae 34be 554a ba3a d7e5 5f3c be22 8f3c
000002e0: 0708 473e 4aeb 723d 0148 bcbd aa97 c2bd
000002f0: a3cf 15be 11f1 3cbd 2473 adbd f740 62bd
00000300: 7606 533d e2fc ef3e 8113 6b3b 020f 1f3d
00000310: b8af 54be 7bdd 21bd e12a 46bc 38a8 883c
00000320: 4340 803c c894 b73d 9581 b43c eea6 e53d
00000330: 0d96 973d 9eee 603d e1ee 203c 97cf cf3b
00000340: cb11 36bc d312 cebc 11eb 813e 8286 ff3e
00000350: 4549 43bc e8a1 cbbd 13b2 2bbd 9046 29bd
00000360: 9b69 fabc 5890 a8bd 4374 683d 6261 f13d
00000370: 3b9b 50be 6892 15be c770 c9bd 0a36 cb38
00000380: 8779 e2bd fadc f5bd 7c71 4b3d 45af b8bd
00000390: 8807 a6bd 0fe2 3e3d cf37 c8bc f0ac 41bd
000003a0: 123d b43e 5984 673e 5c68 9b3e 9b2b d5bd
000003b0: c1f1 e23d 6499 c73b 8654 5c3b f619 133b
000003c0: 9f2f 8fbe 7baa fc3d 1489 cfbc 7c0b b4bc
000003d0: 9ec9 e9bc f821 fa3c 9b37 553d 639f 243e
000003e0: 21f9 893e 6328 9b3e 9bbe 653e 5783 7ebe
000003f0: b269 983c 82ce 283b a9e9 e53b 13b9 acbb
