SpecGen/model/S2C_Model/Cu/model.pth (torch, 37467 bytes, 19 tensors)

weight f4 [4, 1, 17]
000000 de a0 cc bd 2c c0 c0 be c7 8d ca be 21 5f 21 bc
       -0.099916205 -0.37646616 -0.39561293 -0.009849341
000010 21 da e4 bd 40 88 57 be 72 70 43 3c 47 70 bd 3c
       -0.11174417 -0.21048069 0.0119286645 0.023124827
000020 75 74 35 3e 89 56 5f 3e a3 a2 ac 3d a2 c2 1b 3e
       0.17720206 0.21810354 0.08429458 0.15210965
000030 4c 74 b2 3e 06 29 ae bd 52 d2 bd 3d b5 6a 72 3e
       0.34854352 -0.08503918 0.09268631 0.23673518
000040 8c b4 96 3d a6 7e c7 3e 34 f7 33 3e 5c 11 13 3e
       0.07358655 0.38963813 0.1757477 0.14362091
000050 90 95 fb 3d dd cd 54 3e 3d 6f 4f be 3c 32 ae 3d
       0.12284386 0.20781656 -0.20257278 0.08505675
000060 18 fb d3 3d 6d 27 d6 bd cb 94 77 3e d3 5c dc bc
       0.10350627 -0.104567386 0.24177854 -0.02689973
000070 c9 be 39 be 7e 30 5b be cd d4 5a bd 75 20 96 be
       -0.18139185 -0.21405217 -0.0534256 -0.29321638
000080 6a 8f 6d 3d 37 6e 77 be 69 6b f6 bd 00 95 21 3b
       0.0579981 -0.24163137 -0.120322056 0.0024655461
000090 50 ac 5e 3e d2 74 66 be d0 7b 30 3d 80 84 dd 3a
       0.2174542 -0.22505501 0.043086827 0.001690045
0000a0 b8 a2 e2 bc 64 65 f0 3d f6 55 16 be 5c e4 fe bd
       -0.027665481 0.11738089 -0.14681229 -0.124459
0000b0 3d df 52 be 28 cd 0e 3d 80 18 9d 3d b0 6b bf bd
       -0.20592971 0.03486362 0.07670689 -0.09346712
0000c0 24 fb eb 3d 78 d0 d6 bc 5a 17 49 3e bd 1e 92 bd
       0.11522511 -0.026222453 0.19637814 -0.07134769
0000d0 e0 b4 5b be 83 2c a4 3e e3 1b 33 3f db cf 58 be
       -0.21455717 0.3206521 0.69964427 -0.2117304
0000e0 96 d8 2c be c5 f0 a4 3e 5e 54 d8 3e 76 cf 0f be
       -0.16879496 0.32214943 0.42251867 -0.14043984
0000f0 da 35 91 3e 51 61 5f be ae 1d 1a bd c5 b5 8d 3e
       0.28361398 -0.21814467 -0.03762596 0.27677742
000100 3b 0c 53 bd 69 8d 08 3d cc e3 f6 bd 7d ad 13 3d
       -0.051525336 0.033337984 -0.120551676 0.036054123

bias f4 [4]
000000 72 88 18 3e d0 6c 3d bc 7e 15 e0 bd b1 b5 29 be
       0.148958 -0.011561587 -0.10941599 -0.16573216

weight f4 [4]
000000 5f 05 a6 3f ab 1b 72 3f 00 00 80 3f 37 5e 0a 3f
       1.2970389 0.9457347 1.0 0.5405001

bias f4 [4]
000000 e3 42 a9 3c b3 3a 74 3c 48 59 04 3c be 22 d3 3d
       0.020661777 0.014906573 0.008077927 0.10309361

running_mean f4 [4]
000000 3f e5 bc 3e 9a a0 f4 3e 00 00 00 00 f2 01 11 40
       0.3689365 0.4777878 0.0 2.2657437

running_var f4 [4]
000000 4d bc 3a 3c 29 e2 2f 3d 04 00 00 00 fd 8b 54 3f
       0.0113974335 0.042940293 6e-45 0.83026105

weight f4 [16, 4, 17]
000000 03 0e 88 3d 7e cb 12 3d 88 13 5b 3e 19 1c 4c be
       0.066432975 0.035838597 0.2139417 -0.19932593
000010 58 e3 3c bd 5d b1 47 be 96 ee 0f be a1 8e d8 bd
       -0.04611525 -0.19501252 -0.14055857 -0.10574079
000020 cf 0c d2 bd 03 a4 ff bd 09 45 9e be 9d 93 d9 bd
       -0.10256349 -0.12482455 -0.30912045 -0.10623858
000030 46 e1 05 be dc b6 e3 bd ca ed 1f bd d0 71 7d be
       -0.13074216 -0.11118862 -0.039045133 -0.24750447
000040 70 11 77 3c 23 8b 42 bd 62 56 42 3d 22 19 09 bd
       0.015079841 -0.047495972 0.047445662 -0.033471234
000050 2c 75 8b 3d 5c 6e b9 3e ac 40 98 3e ed 42 42 3e
       0.06809458 0.3621701 0.2973684 0.18970843
000060 d7 12 7d 3e 94 b4 91 3e 08 ad 88 3e 19 f1 fc 3c
       0.24714218 0.28458083 0.26694512 0.030876683
000070 38 40 0f 3e 33 40 e6 3b 4c 1f 0f be 3d c2 95 bd
       0.13989341 0.007026696 -0.13976783 -0.07312439
000080 37 d1 d5 bd e2 c3 4f be 9c 58 64 3d 36 d8 05 bd
       -0.10440295 -0.20289567 0.055748567 -0.032676898
000090 a6 de 01 3d 59 6b a5 bd 3d 0c e1 bd 72 db eb bd
       0.031706475 -0.080771156 -0.109886624 -0.11516465
0000a0 b6 32 fd bd e6 31 97 3d 54 f2 3b 3d 2b 7f 50 bd
       -0.12363188 0.07382564 0.0458854 -0.050902527
0000b0 75 10 5a 3c 1e a0 5d 3d e3 d3 8c bd 06 3a 5d bd
       0.013309588 0.054107778 -0.06876352 -0.054010414
0000c0 2c 0e c0 bd 18 11 56 bd 7d c5 96 3d 58 c2 96 3e
       -0.09377703 -0.052262396 0.07361887 0.29445148
0000d0 54 db 50 3e 13 a2 90 3e 99 77 10 3e 87 49 80 3e
       0.20396167 0.28248653 0.14108123 0.25056097
0000e0 ea 59 7f 3e 40 0c 40 3e 42 ae fa 3c 9d 44 12 3e
       0.24936643 0.18754673 0.03060067 0.14283986
0000f0 ff 3c 18 3e 25 33 fa 3d 33 58 02 be 40 c3 c8 bd
       0.14867018 0.12216786 -0.12728958 -0.09802866
000100 3c b5 e0 bd 94 bb 25 be ed 92 35 be cf 73 36 be
       -0.10972068 -0.16184837 -0.17731829 -0.17817615
000110 fa a5 38 3e c7 b6 8a 3d 83 0c 7d be 72 45 15 be
       0.18032065 0.06773143 -0.24711804 -0.14577273
000120 cc 1b aa 3e e9 73 96 3e f6 c2 03 bd 75 47 cc bd
       0.33224332 0.29385307 -0.03216835 -0.09974567
000130 ea a7 5a bc b0 e4 3f bc e7 ec fa bd dd 5c cd bd
       -0.013345698 -0.011712238 -0.12252217 -0.10027478
000140 98 59 6a be b1 cc 60 bd d1 56 f6 3d 25 20 03 3e
       -0.2288574 -0.05488271 0.12028278 0.12805231
000150 eb 49 83 3e a1 a2 cd bd f8 bc 7c be 6c eb 77 bd
       0.25642332 -0.100407846 -0.24681461 -0.06052725
000160 3b ee 9c be 60 60 46 be ef 6a 85 be c8 45 d6 bd
       -0.30650505 -0.19372702 -0.26058146 -0.104625285
000170 a9 7f 51 3d ab f5 9d 3e 3d 75 be 3e 2a af e4 3e
       0.051147137 0.30851492 0.3719882 0.4466489
000180 00 b5 da 3e d3 c7 aa 3e 79 dc 3b 3e 21 48 41 bc
       0.42716217 0.3335558 0.18345822 -0.011796982
000190 74 4b e2 bc 8d d5 80 bd 0d 2b 11 bd 53 b0 7c 3d
       -0.02762387 -0.062907316 -0.035441447 0.061691593
0001a0 07 8b de bc 14 ab 1b be e2 ab 5e 3d 64 3a 93 bd
       -0.027165903 -0.1520198 0.05436314 -0.071888715
0001b0 95 72 89 3d 93 59 9e bd c3 13 5e bd 26 bb d3 bc
       0.06711308 -0.07731929 -0.054218065 -0.025846075
0001c0 03 f7 b0 3c aa ad 0b 3d 52 86 e0 3c a4 12 5b 3d
       0.02160216 0.034101166 0.027407799 0.053484574
0001d0 c8 22 a4 3c 6c 6a fb bd 41 0d 74 bc c2 f2 29 bc
       0.020036116 -0.12276158 -0.014895738 -0.010372819
0001e0 17 08 fa bd de 15 d9 3c c4 77 18 bd 24 e9 98 3c
       -0.12208574 0.026499685 -0.037223592 0.018665858
0001f0 03 f9 d6 3d 15 8a c3 3d 10 3e 51 3e f8 12 86 3d
       0.10496714 0.095478214 0.20433831 0.06546587
000200 e6 72 8b 3e 1f bc 84 3e f8 d2 12 3e e3 2c 8f 3d
       0.27236098 0.25924775 0.1433829 0.06990983
000210 9f b1 e2 3c b6 55 35 3d d9 0f 79 3d f0 e7 59 3d
       0.027672587 0.044271193 0.06080613 0.05319971
000220 95 08 ed 3d 64 7c c9 3d 04 24 92 bd a3 93 39 3d
       0.115739025 0.09838179 -0.07135776 0.045306813
000230 1f 56 29 3d ea f2 ee bd 2b 35 fb 3d eb 7f 35 3e
       0.041341897 -0.11667426 0.12266 0.17724578
000240 0b 1b 53 3e 0d 92 5a 3e 04 14 0e be cf e9 3f be
       0.20615785 0.21344776 -0.13874823 -0.18741535
000250 2d 7e 82 3d 35 8e a4 be b0 8a 3f be 12 fa 3e be
       0.06371722 -0.32139745 -0.18705249 -0.18650082
000260 5e 53 89 be 86 ca 84 3d 4f 0b 7f 3e 95 ba 90 3e
       -0.26821417 0.06483941 0.24906658 0.2826735
000270 be af 4f 3e 5f 4f 0a bd 68 03 f1 3c f2 20 51 bd
       0.20281884 -0.0337671 0.02942057 -0.05105681
000280 ec 5e 51 3c fa 4b 00 be 91 37 68 3c 5b 91 92 bd
       0.012778979 -0.12528983 0.014173404 -0.071566306
000290 ac f2 46 3d bd 15 5c 3c da dd f7 bc fc de dc bd
       0.048571274 0.013432917 -0.030257154 -0.107847184
0002a0 af b4 a5 bd 32 ca 2d be 76 86 c9 3b 86 08 85 bd
       -0.08091103 -0.16971663 0.006150062 -0.06495766
0002b0 cf 71 b5 3d 92 97 6d 3d 4c 15 b4 bd 0c 81 fc 3d
       0.08859598 0.058005877 -0.087931246 0.12329301
0002c0 af 25 e1 bb 2e e0 35 3d 78 fd 26 bd f7 be 90 3d
       -0.0068709473 0.044403248 -0.04076907 0.07067674
0002d0 3c 58 ae 3d ff d9 ca 3d 8b c8 be bd 31 99 d5 bb
       0.08512923 0.09904861 -0.09315594 -0.006518506
0002e0 3b 96 62 3d 88 a2 0a 3d d2 32 1f 3d ed d2 bf bd
       0.055319052 0.033846408 0.038866825 -0.09366403
0002f0 c1 a0 c8 bc 2e 6b a6 bd dc ca fa 3c 72 58 21 be
       -0.024490716 -0.08125912 0.030614309 -0.15756395
000300 ce bf 41 3c 0f d2 79 bc 27 b5 34 be 32 79 85 bd
       0.011825515 -0.015247836 -0.17647229 -0.06517257
000310 cd 50 99 be e7 c0 a0 be 7b 13 4b be 4a 17 87 be
       -0.2994446 -0.31397173 -0.1983165 -0.26384956
000320 d3 9c 66 be 42 df 9a be ea e4 f4 be 9b de 14 bf
       -0.22520761 -0.30248457 -0.47830898 -0.5815217
000330 25 47 97 be 0c 22 cc bd b4 9e 2b 3c f9 d0 16 3e
       -0.29546466 -0.099674314 0.0104748495 0.14728154
000340 0f 3e a0 3e 3a 38 b7 3e a6 34 9c 3e 2a aa 76 3e
       0.31297347 0.35785085 0.30508918 0.2408835
000350 5c 1e 6e 3e 6c b4 71 3d 80 5c 99 3c 33 af 0d 3e
       0.23253769 0.059009954 0.018720865 0.13836364
000360 11 d1 e5 bd 03 7f 6b bd 4c a4 22 be dd 76 b3 be
       -0.11221517 -0.057494175 -0.15882987 -0.35051623
000370 ff 8b af bd 52 46 19 3e 38 6f 15 3b df b7 2b bb
       -0.08571624 0.14968231 0.0022801887 -0.0026202125
000380 e5 3d 7d be 68 b8 2f be 33 71 2b be 3d a0 d2 bd
       -0.24730642 -0.17160189 -0.16742401 -0.10284469
000390 6f b6 79 be 68 00 9c bd 2d 98 4e be cc 7a 8c bc
       -0.24385999 -0.07617265 -0.20175238 -0.017148398
0003a0 4c 44 82 bb 7a 42 f3 bd 46 97 e5 bc 05 d6 3a 3d
       -0.003975427 -0.11877914 -0.028026234 0.04561426
0003b0 17 a8 49 3e 3d c0 f3 3b 28 14 6b 3d 24 77 e2 3c
       0.19693027 0.007438688 0.05739227 0.027644701
0003c0 0d 62 d5 3d c9 bf 5b bd ac f4 45 3d 94 5c f5 bc
       0.10419092 -0.053649697 0.04832904 -0.029951371
0003d0 0d 37 b1 bd f3 10 ca bd 2a c9 c0 bd 8e fb cd 3d
       -0.08653078 -0.09866514 -0.09413369 0.10057746
0003e0 bc 1b c0 bd 2b f5 ec bc f2 bd 32 3d d7 e4 af bd
       -0.0938029 -0.028925499 0.043638177 -0.085885696
0003f0 24 57 65 3d ea 82 b8 3d 3c ca 3f 3d 05 a8 07 3c
       0.055991307 0.09009345 0.046823725 0.008279805

bias f4 [16]
000000 da f6 09 3e 1a a8 54 bd ef f6 41 bd ae 32 c0 bd
       0.13473073 -0.051918127 -0.047354635 -0.093846664
000010 93 4c 46 3e 36 66 69 3d e0 58 1b be 1f a4 8a be
       0.19365148 0.05698224 -0.15170622 -0.2707834
000020 ca 74 05 bf 10 09 23 3c a5 9d 58 bd bb 76 f1 3e
       -0.5213133 0.009950891 -0.052884717 0.47160897
000030 52 94 35 be 28 cf 57 3d 70 fe 1a be e3 8c 9a 3d
       -0.17732361 0.052687794 -0.15136123 0.07546403

weight f4 [16]
000000 02 a4 3b 3f fb 8d 49 3f 19 b5 d8 3e 07 fb 8f 3f
       0.7329713 0.7873227 0.42325667 1.1248482
000010 f2 86 d1 3f 56 9e 4e 3f ee 1f 6b 3f 28 33 d3 3e
       1.6369307 0.8071035 0.91845596 0.41249967
000020 2c c1 81 3e 76 ef b3 3f 3f e2 55 3f de 86 c1 3f
       0.2534269 1.4057453 0.8354835 1.5119283
000030 0e ef 53 3f ca cf a0 3f 03 f9 5b 3f 3d 59 16 3f
       0.82786644 1.2563412 0.85926837 0.58729917

bias f4 [16]
000000 d3 45 1e be 56 21 cf 3e e2 33 6b bc b3 57 de 3e
       -0.15456323 0.4045512 -0.014355632 0.43426284
000010 48 10 e0 3e 48 fd a7 3e 83 50 bf bc 1a 24 b8 3e
       0.43762422 0.32810426 -0.02335382 0.35965043
000020 bd 68 02 3e 93 72 80 bc af f3 fa 3e 31 7d 9f 3e
       0.12735267 -0.015679633 0.4901404 0.311502
000030 51 57 30 bd b1 c5 cf 3e cf c5 11 be 57 75 2a 3e
       -0.04305202 0.40580514 -0.14235614 0.16646324

running_mean f4 [16]
000000 11 b1 5e 3f 0b 1a 04 3f 26 32 24 3f a8 29 9a 3e
       0.8698893 0.5160224 0.6413902 0.30109906
000010 f5 8b 0b 3f 3e 16 1c 3f b4 26 29 3f 56 18 9d 3e
       0.5451043 0.6097144 0.6607468 0.3068263
000020 52 b3 81 3e 5c 94 c8 3e 7f 7f f0 3e 46 3b 33 3f
       0.25332123 0.3917569 0.46972272 0.7001232
000030 d3 94 3a 3f 5e dc 9f 3e 55 f5 ab 3e ee 16 a7 3f
       0.7288334 0.31222814 0.3358561 1.3053873

running_var f4 [16]
000000 c3 a4 73 40 e1 7c f0 3f 77 34 3a 3f c7 66 3b 3e
       3.8069313 1.878811 0.72736305 0.18300925
000010 5b 27 fa 3e e3 bb c9 3f 8c 1c 5b 40 28 2c b3 3e
       0.4885815 1.5760463 3.4236174 0.34994626
000020 6a c8 80 3e 16 fd 71 3f 56 b6 d6 3e 40 9e 9f 3e
       0.25152904 0.94526803 0.41935986 0.31175423
000030 c9 86 63 40 17 34 df 3e 47 fc 83 3e 30 0d 44 40
       3.5551016 0.4359443 0.2577841 3.063305

weight f4 [32, 16, 9]
000000 4c ba 5a be f0 09 d1 be 86 cf fd bd cc 0b c8 bc
       -0.21360129 -0.40827894 -0.123930976 -0.024419688
000010 76 43 3c bd 98 e9 ba bd 18 59 95 3d 05 91 03 3d
       -0.045962773 -0.09126586 0.07292384 0.032120723
000020 47 b7 0f 3d f7 24 de bd ac 03 23 3d 20 2e 33 3d
       0.035086896 -0.10846894 0.039798424 0.04374516
000030 03 42 19 3e d6 1a aa 3c 6c 88 c4 3d f6 d4 9b 3c
       0.14966588 0.02076475 0.09596333 0.019022446
000040 5e bc 34 3e 25 82 cc 3e a0 0d 9d 3e 8d 49 36 3e
       0.17649981 0.39943042 0.30674458 0.17801495
000050 d7 b9 c2 3d b3 3a 48 3e 2c 31 5b 3d d9 e9 0c 3e
       0.095081024 0.19553642 0.05351369 0.13761081
000060 bc e1 46 3d 0c 20 57 bd b3 75 cf bd aa ad 59 be
       0.04855512 -0.052520797 -0.10129871 -0.21257654
000070 63 33 28 3d fe 66 85 bd 92 a7 9e 3d 0c 94 ec bd
       0.04106463 -0.06513785 0.07746805 -0.11551675
000080 9e 04 38 3b 28 39 d0 bd 8c 2b f1 bd 5d 48 6a bd
       0.0028078924 -0.10167152 -0.11775884 -0.057197917
000090 d0 45 04 be 8e c6 bf 3c 10 5b 3e 3d d4 b3 cc 3b
       -0.12917256 0.023410108 0.046473563 0.006247023
0000a0 34 b8 ca bd 6e 93 06 be 25 c2 17 3e 4a e7 5d be
       -0.09898415 -0.13142177 0.14820154 -0.21670261
0000b0 00 45 9f bd 3e 8b 9f be 41 8f 38 be dc 7e 69 be
       -0.077768326 -0.3116092 -0.18023397 -0.228023
0000c0 73 8c 23 be c5 ff 94 be b6 a2 95 3c d7 8b a5 bc
       -0.15971546 -0.29101387 0.018266063 -0.020208282
0000d0 7d 88 fa bd 6e 83 01 be 03 d6 fa bd fb ce 01 bf
       -0.12233064 -0.12647793 -0.12247851 -0.5070645
0000e0 63 91 51 be 8c 77 ed bd 4d ab 42 be 50 02 24 bc
       -0.20465617 -0.115950674 -0.19010659 -0.010010317
0000f0 7f ee 47 be 96 a8 91 bd b4 ce 67 3c 01 c2 91 bd
       -0.19524573 -0.07112233 0.014148403 -0.071170814
000100 13 72 71 bd e1 ab 0d 3d b4 bc fe 3c 96 2a 1a 3c
       -0.05894668 0.034587745 0.03109584 0.009409567
000110 0e e0 89 bd 99 49 ac bd 8e f9 cc bd bc 71 01 be
       -0.06732188 -0.08412475 -0.10008536 -0.12641042
000120 b3 aa 94 3e e0 46 aa 3b 4a ec 4f 3e d1 51 3e 3e
       0.29036483 0.0051964372 0.20304981 0.18585898
000130 0e 23 5f 3e 5f 3a e3 3d ee 2b 61 3d 8f d5 0d 3d
       0.21790716 0.11095118 0.054973535 0.034627493
000140 d2 63 be bc 96 c1 62 3e 63 55 90 be a8 75 b8 be
       -0.023240957 0.2214416 -0.28190145 -0.36027265
000150 c6 50 ae be 63 47 24 be 26 dc 1f be dc 9d 4b be
       -0.34046 -0.16042857 -0.15611324 -0.19884437
000160 09 02 db bd 96 c4 b8 3d 7b dd 1c be d9 5e c8 bd
       -0.106937476 0.09021871 -0.15318863 -0.09783716
000170 cc 4d ca bd 0a 64 c8 bd 1e d1 50 be 6f 1e 31 be
       -0.0987812 -0.09784706 -0.20392272 -0.17296766
000180 d5 52 2c 3b 2e a4 66 3c 57 b1 64 3d 54 5e f4 bb
       0.002629449 0.014077229 0.055833187 -0.007457534
000190 f6 e2 35 3e 27 8c e3 3d 3a 01 0d 3d c3 4b 28 bd
       0.1776236 0.11110716 0.034424998 -0.041087877
0001a0 00 69 dc bd 4e fc 38 3e 5e d3 26 be 50 6a 8e bd
       -0.10762215 0.18064997 -0.16291568 -0.06953871
0001b0 60 65 29 be a3 39 c3 be f2 b9 76 be d1 fa 8c be
       -0.16542578 -0.3812991 -0.2409437 -0.27535108
0001c0 63 ac 43 be 6f 05 55 be 18 72 17 be dd e1 e0 bd
       -0.19108729 -0.20802854 -0.14789617 -0.1098058
0001d0 48 ea 2b 3d 3a fd 2c be bf 5f f7 bd f2 f4 6a bd
       0.041971475 -0.16893473 -0.12078809 -0.057362504
0001e0 42 99 b8 3d 3e 65 0c be c3 f9 27 be c2 c3 bd 3c
       0.090136066 -0.13710496 -0.1640387 0.023164634
0001f0 80 e9 44 3d 5c 11 36 3e e7 69 e1 3e 9d 17 29 be
       0.048074245 0.1778006 0.4402611 -0.16512914
000200 b7 6a 09 bd a9 df fb 3d 22 39 a0 3c 99 14 c8 bc
       -0.033549037 0.12298519 0.019558493 -0.024423884
000210 21 fe bc bd 3f 10 b8 bd f3 31 f9 bd 0f 24 8d 3d
       -0.09228159 -0.08987474 -0.1216773 0.06891643
000220 b7 1e a7 3d df 5e b7 3d 6d 39 b4 3b 48 63 3d 3c
       0.08160155 0.08953642 0.0055000097 0.011559315
000230 ac c2 15 bd 7f 5f 2a be 24 59 35 be 20 a5 1f be
       -0.036562607 -0.16637991 -0.17709786 -0.15590334
000240 1d 76 1d bd fa f6 50 be 1e a8 b4 3d 6e 2b 11 3e
       -0.03844272 -0.20406714 0.08821128 0.14176723
000250 91 62 cc 3d 1c 62 61 bc 3e 6a 2b 3d e0 28 a1 3e
       0.099797376 -0.013756301 0.041849367 0.31476498
000260 12 62 4f 3e 44 71 d9 bd 67 1c 20 3f a5 11 43 bd
       0.20252255 -0.10617307 0.6254334 -0.04762425
000270 9a ed 92 bd 79 6f 1c bd a1 a5 db bd a9 b0 35 be
       -0.07174225 -0.038192246 -0.107249506 -0.17743172
000280 19 3b c8 be 4d 2c 87 be 03 7c 78 3d ff 9c ed bb
       -0.39107588 -0.26400986 0.06066514 -0.0072513814
000290 93 7d f0 3c 56 7d ec bd 15 d0 17 be 78 06 12 be
       0.029356753 -0.115473434 -0.14825471 -0.1426028
0002a0 95 7f cf bd 63 66 27 be 47 f3 5a be 09 1c cc be
       -0.10131756 -0.16347651 -0.21381865 -0.3986514
0002b0 7d 15 ea 3d bf e4 f6 bd d8 76 6f 3d 50 28 2e 3d
       0.1142988 -0.120553486 0.058462948 0.042518914
0002c0 63 c2 c5 bc 95 57 d5 3d 41 78 6c 3e 22 3d fa bd
       -0.024140542 0.104170956 0.23092748 -0.122186914
0002d0 de 59 ce bc 87 77 9b be 42 6e 98 3d 8c c3 db 3d
       -0.025189336 -0.3036463 0.07442905 0.10730657
0002e0 05 05 47 3d e6 cc 8a be e3 8d 9a 3d 4a 1a 75 3e
       0.04858877 -0.2710945 0.07546594 0.2393581
0002f0 22 37 71 3a ca ef 26 3e 20 0f 72 3d 86 4c 84 bd
       0.0009201636 0.1630241 0.059096456 -0.06459908
000300 d5 43 17 be e0 88 8d be df bb 0a 3d 67 99 58 bb
       -0.1477197 -0.2764349 0.033870574 -0.003305042
000310 0e 8d 64 3a 4d ec 92 bd 01 d5 66 bd b4 24 02 be
       0.00087185286 -0.07173977 -0.05635548 -0.12709314
000320 d0 73 56 3e b8 50 85 3e 9c 47 8f 3e a8 6c e4 3d
       0.20942616 0.26038146 0.2798432 0.11153537
000330 eb be 3b 3e 51 e2 ca 3e e8 e7 04 3e 30 17 9f 3d
       0.18334548 0.3962579 0.1297909 0.077680945
000340 25 29 e7 3d f3 af 5b 3d 2f 25 bb 3d 6b 66 44 3e
       0.112871446 0.053634595 0.091379516 0.19179694
000350 26 97 3a 3d 3c fd 9f 3d 48 74 fd bc 46 03 41 3d
       0.045554303 0.078119725 -0.030939236 0.047122262
000360 84 df 43 3e 4d 18 a6 bc fb 1a d3 3c 1e 9b a8 bd
       0.19128233 -0.02027526 0.025769701 -0.08232711
000370 a9 33 dc bd b5 61 87 bd 99 66 dc bd 4c 34 5f be
       -0.10752041 -0.06610433 -0.107617564 -0.21797293
000380 bc 67 29 be ce 61 12 3d 05 91 c9 bd 0b 66 07 be
       -0.16543478 0.035737805 -0.098421134 -0.1322252
000390 17 31 95 3d 3f c4 72 3d 27 a3 98 3e a1 ae 9e 3e
       0.07284754 0.059269186 0.29811975 0.30992606
0003a0 05 fb 81 3d 56 1d 5a 3b a4 c8 42 3d e6 bd 63 3e
       0.06346706 0.0033281646 0.047554627 0.2224041
0003b0 26 bf 84 bd 74 e8 91 3d b1 ba 00 3d b6 7d a4 3d
       -0.06481771 0.07124415 0.031428043 0.0803179
0003c0 22 b2 92 bd 32 bf aa bd e6 42 37 be 1a a2 3c 3e
       -0.071628824 -0.08337249 -0.17896613 0.18421212
0003d0 50 fb eb be 8b 92 2b 3e d9 f8 2a bd 84 83 9c be
       -0.46090174 0.1675512 -0.041741226 -0.30569088
0003e0 48 1f a5 be 7d 90 ae bd 8d 42 e5 3e 93 95 68 3e
       -0.32250428 -0.08523653 0.44777337 0.22713308
0003f0 ee 33 ed bd d1 a3 e5 3d 3d 8a 12 3d 9a 6f 6c 3e
       -0.115821704 0.11212886 0.035776366 0.23089448

bias f4 [32]
000000 98 32 c5 be 95 ce 6c bd ca f0 a9 3d 52 55 d3 be
       -0.38515162 -0.0578142 0.0829788 -0.41276032
000010 f1 2a cf be dc 80 ef be 8e 42 42 be 1b 09 bf bd
       -0.4046245 -0.46778 -0.18970701 -0.093279086
000020 24 07 35 bd 70 66 6b be c7 18 3d be ec da df be
       -0.044196263 -0.22988296 -0.18466483 -0.43721712
000030 2e d0 56 bd 97 f5 d4 bd 06 43 a7 bd 6e 16 21 be
       -0.05244463 -0.10398405 -0.081670806 -0.15731212
000040 94 07 f7 bc 47 09 93 be 05 a1 7a be 6a b4 df be
       -0.03015498 -0.28718016 -0.24475487 -0.43692333
000050 fd 5b bd be 86 58 49 be b2 65 81 be 27 fb e7 be
       -0.36984244 -0.19662675 -0.252729 -0.45308802
000060 af fa 2c be e7 7c ea bd a4 93 0b be 73 e1 a5 be
       -0.16892503 -0.114496045 -0.13630539 -0.32398567
000070 fe cd 10 be 49 24 69 3d 41 74 24 be 43 f5 2f be
       -0.1414108 0.05691937 -0.16059972 -0.17183404

weight f4 [32]
000000 59 b3 ac 3d 65 34 c7 3d 8b e7 92 3d 1e 6c 03 3e
       0.08432645 0.0972679 0.071730696 0.12834212
000010 40 30 bc 3d 3c 8c a4 3e 70 f8 7f 3e 28 a7 2f 3e
       0.091888905 0.3213824 0.24997115 0.17153609
000020 87 90 09 3e 01 e9 cb 3d 18 51 00 3e 4a f5 37 3e
       0.13434039 0.09956551 0.12530935 0.17964664
000030 5f 8a 13 3e df 68 ca 3d fd fc ab 3d 00 ed be 3d
       0.14408253 0.09883284 0.08397863 0.09322548
000040 16 e1 02 3e 6f 64 69 3e 31 1e 88 3e 6e 62 ad 3d
       0.12781176 0.22792219 0.26585534 0.084660396
000050 49 82 f9 3e 9d 0f d3 3d cf eb 82 3e ce 33 68 3e
       0.48732212 0.10305712 0.25570533 0.22676012
000060 82 30 e5 3d ab 69 23 3e 12 f1 d5 3d 8c 31 90 3e
       0.11190893 0.15958278 0.10446371 0.281628
000070 16 1c 2c 3e e4 c3 de 3d 95 8d 97 3e 77 c3 0b 3e
       0.16807589 0.10877207 0.29600206 0.13648783

bias f4 [32]
000000 cb cb 97 3c af b8 71 b9 1c 7b 3c 3b dd 85 00 bc
       0.018529793 -0.00023052351 0.0028759902 -0.0078444155
000010 b2 9c 00 3c 88 e1 89 3d 0a c0 71 3d 2a b6 0b 3d
       0.007849859 0.0673247 0.059021033 0.034109272
000020 72 67 f0 3c 87 47 da 3c 60 41 e7 3c 8a d1 68 3c
       0.029346202 0.026645435 0.028229415 0.014210114
000030 18 80 b0 3c 8d 88 35 bd b6 e6 a8 bc fd 26 ec 39
       0.021545455 -0.044319678 -0.020617824 0.00045042476
000040 d8 b2 07 3b fa fe 19 3d 56 18 6d 3d 87 d8 48 3c
       0.0020705964 0.03759668 0.057884537 0.012258655
000050 95 31 a1 3d e0 af 9d 3c 72 a4 4f 3d dc 2b 48 3d
       0.07870785 0.019248903 0.050693937 0.048869953
000060 9a a8 8b 3c 89 e9 24 3d 03 9a 89 3c 36 39 55 3d
       0.017048169 0.04026178 0.016797071 0.052056514
000070 bc 43 6f 3d 13 22 84 bc 21 8d 7e 3d 03 b4 71 3c
       0.058414206 -0.01612953 0.06214631 0.014752391

running_mean f4 [32]
000000 65 2e 89 3e cb ea a0 3d 12 94 15 3f 96 99 f8 3d
       0.2679321 0.07857283 0.5842906 0.12138669
000010 84 d6 4b 3f e5 65 f0 3e 99 a8 b6 3e 90 27 4c 3f
       0.796242 0.4695274 0.35675505 0.7974787
000020 fd ab cc 3e eb fc 3c 3e 0b 67 eb 3d d9 a7 3f 3f
       0.39974967 0.18455856 0.11494263 0.7486549
000030 12 fd ad 3e 1e f9 ca 3e c9 e2 19 3f 68 48 e8 3f
       0.3398214 0.39643186 0.6011167 1.8147097
000040 f1 5d 76 3f ce 2c 3d 3f 32 f2 94 3e cf 2d 12 3e
       0.96237093 0.7389649 0.2909103 0.14275287
000050 a7 90 01 3e 1e be 1b 3e 0f 46 26 3e 38 a0 4b 3e
       0.12652837 0.15209243 0.16237663 0.19885337
000060 75 34 41 3e 13 a6 9f 3d b1 0e bd 3d bc 84 15 3f
       0.18867667 0.07795348 0.09231318 0.5840566
000070 12 d0 24 3e bf 5c 28 3f 5f 90 db 3d 01 b2 ff 3e
       0.16094998 0.6576652 0.10720896 0.49940494

running_var f4 [32]
000000 0b 52 3c 3e 07 f6 8a 3d 5b ef 58 3f b5 ea cb 3d
       0.18390672 0.06785207 0.8474023 0.09956876
000010 4f 2a 8b 40 5e 36 22 40 e9 c1 b4 3f 06 80 76 40
       4.3489146 2.5345683 1.4121677 3.851564
000020 71 07 a6 3e fe ec 32 3e 58 3b 99 3d de 39 c2 40
       0.32427552 0.17473218 0.07482022 6.069564
000030 aa 1c 92 3f d4 2f 15 3f b9 5c 29 3f 49 26 18 40
       1.1414998 0.58276105 0.6615711 2.3773367
000040 d2 ae af 40 59 42 b4 40 1e ed 3f 3f 15 48 34 3e
       5.4900904 5.633099 0.7497119 0.17605622
000050 fe 3a 00 3f 52 69 0b 3e 4a 7a a0 3e 4a 27 1e 3f
       0.50090015 0.13614395 0.313433 0.617787
000060 2d 2f 2c 3e 40 a8 57 3d e6 15 b8 3d 30 61 8c 40
       0.16814871 0.05265069 0.08988552 4.3868637
000070 92 ae 60 3e f8 4c 1c 3f fc 88 9d 3e 38 9b 82 3f
       0.21941593 0.61054945 0.30768573 1.0203619

weight f4 [1, 512]
000000 a6 76 c0 3d 9d 89 62 be 1c df 17 bd 4d e5 05 3b
       0.093976304 -0.22122808 -0.037078008 0.0020430863
000010 b0 5a 6c 3a 11 e3 3b bc 1d ae ea bc f6 2c 08 be
       0.0009016199 -0.011467711 -0.028647477 -0.13298401
000020 dc dc d9 bb 21 45 9e bd 50 97 a2 bd 6c 64 c5 bd
       -0.006648643 -0.07728029 -0.07939017 -0.096382946
000030 e3 bb 6b bd 0e 7a b2 bd 17 5d 26 3d 4e 94 cd bc
       -0.05755223 -0.08714686 0.04061612 -0.025095131
000040 e1 11 2f be bf 65 49 bd 0a 3e fb 3c 47 43 16 bb
       -0.17096664 -0.0491693 0.030669231 -0.0022928284
000050 96 08 9a bb e8 bf 62 3e b0 7c cd 3c a1 9b ab 3d
       -0.0047007306 0.22143519 0.02508387 0.08379293
000060 64 16 9f bd b0 ea 94 3c 98 84 cb 3c bb ec 13 3e
       -0.077679425 0.018178314 0.024843499 0.14445774
000070 dc 5e a4 3d 26 0e 1d 3e 89 ba 64 3c 37 1d db bc
       0.080259055 0.15337428 0.013960489 -0.02674733
000080 ca 82 1b bc 12 27 78 bd f7 2f 82 3d 82 65 7b bc
       -0.009491632 -0.060584135 0.06356805 -0.015344026
000090 b0 96 b9 bb 2e 85 a0 bd b8 b7 2e be 61 b3 79 3d
       -0.0056637153 -0.07837902 -0.1706227 0.060962085
0000a0 87 33 38 3d 8a 43 af 3d 81 ca 65 bc cc f5 98 be
       0.044971015 0.08557804 -0.0140253315 -0.29875028
0000b0 7e 96 12 bd 43 b3 a7 bc cf d5 36 3e bd 12 8b 3d
       -0.03578805 -0.02047122 0.17854999 0.067906834
0000c0 b0 ba 15 bd 39 5b 1c bd 97 88 99 bc b9 ff 09 3e
       -0.036554992 -0.038172934 -0.018741889 0.13476457
0000d0 6a 93 84 3e 28 63 d0 3d d5 09 82 bd b8 ef ce bc
       0.25893718 0.101751626 -0.063495316 -0.025260791
0000e0 af 93 14 3d 77 5f 05 3c 52 1e 8a bc d4 20 19 be
       0.036273655 0.008140436 -0.016860161 -0.14953929
0000f0 60 05 b2 bc e4 c3 dc bb c6 f0 85 3d fa 1b 85 3c
       -0.021731079 -0.006737219 0.065400645 0.016248692
000100 12 db ab 39 3e 05 4d 3d 09 cc 14 be 85 0f 3d be
       0.00032778882 0.050053827 -0.14530958 -0.18462951
000110 b1 03 90 3d e6 72 0e 3d f2 50 de 3c 04 f4 e4 3d
       0.07031954 0.034777544 0.027138207 0.11179355
000120 dc 5d 6b 3e f7 f2 55 3d 08 e3 10 3d f1 09 e1 3c
       0.22985023 0.052233662 0.035372764 0.02747056
000130 7b 30 c7 3b 1f 28 0c be 51 8d 28 3c 76 a8 b6 bc
       0.0060787774 -0.1368718 0.010287599 -0.022297125
000140 a5 72 c1 ba 95 4d 71 3e 0e 80 bb 3b 13 b7 e0 b9
       -0.0014758898 0.23564751 0.0057220524 -0.0004286101
000150 f0 89 13 bd b6 66 ca bc 9b 48 52 bd ae ee ba bc
       -0.03602022 -0.02470718 -0.051338773 -0.02281889
000160 e1 e6 9d bd 77 c5 59 be 44 95 15 3e 85 e2 80 3d
       -0.07710052 -0.21266733 0.14607722 0.06293205
000170 3c 8b aa 3d 60 77 d1 3c 0c ad df bd c9 3c 71 bd
       0.08327338 0.025569618 -0.10921678 -0.05889586
000180 d1 87 6b 3a 61 9a da ba 88 09 05 3f 87 f4 9e 3d
       0.0008984777 -0.0016678089 0.5196767 0.07761484
000190 b3 eb a5 bd cf 48 40 bd a8 77 40 bd cb ad b6 bd
       -0.08101597 -0.046944436 -0.046989113 -0.08919867
0001a0 2a 95 81 be e2 2f 2a 3e 23 35 8f 3c c3 1d 90 bc
       -0.25309116 0.16619828 0.017481392 -0.017592316
0001b0 6b 75 bf 3d a4 15 c9 3c 46 30 95 bd ad a3 03 be
       0.093485676 0.024546452 -0.07284598 -0.12855406
0001c0 61 30 51 bb 14 60 de 3c 66 70 01 bd a6 00 45 bd
       -0.0031919705 0.027145423 -0.031601332 -0.04809632
0001d0 47 7c f6 3d 3e 7a 70 bd 46 26 86 bc 44 e3 79 3c
       0.12035423 -0.05871033 -0.016375672 0.015251938
0001e0 27 8d 24 3d a9 c0 97 3c 08 f3 f5 bc b1 7b ea 3d
       0.040173676 0.018524485 -0.030023113 0.114493735
0001f0 56 8b 18 3e 63 14 8d 3e fc 3b ea 3d e0 74 70 bc
       0.14896902 0.27554616 0.11437222 -0.014676303
000200 40 ff 36 be 94 37 96 3e 08 79 48 bd 10 31 81 3d
       -0.17870808 0.29339278 -0.04894355 0.06308186
000210 50 82 0e 3e 8f 8e 29 bd 8a 1e 44 bd 00 5f c4 bc
       0.13916898 -0.04139572 -0.047880687 -0.02397108
000220 f1 e2 8b 3d 3c a1 01 3c f0 17 80 be 9c 59 42 3c
       0.06830395 0.007911976 -0.25018263 0.011862185
000230 87 8c ad 3b 8c 27 af 3c e8 b2 a3 3c 97 ba 3d 3e
       0.005296293 0.021381162 0.01998277 0.1852821
000240 f3 d1 12 3c 6e 25 90 3d 4a 4b 9c be 2b e9 4f bc
       0.008961189 0.07038389 -0.3052619 -0.012689869
000250 2b 48 fa 3c 72 7c 0b 3d 64 96 5d bd 95 df d3 3b
       0.03055199 0.034054227 -0.0540985 0.006465862
000260 c7 b7 87 3e b2 d4 35 3d fa d1 c7 3c 85 55 41 be
       0.26507398 0.044392295 0.024392117 -0.1888028
000270 a3 ed f7 bc 3f 94 1e bd 8b d8 9c bd 86 03 9c bd
       -0.030264681 -0.038715597 -0.0765849 -0.076178595
000280 9a 7b db bd d8 7e b2 bc c6 f0 cb 3e 5b 35 a4 3d
       -0.107169345 -0.021789 0.39832133 0.08017989
000290 f3 8d 2a bc 32 9a af bc 2f 8a d7 3a a7 f6 31 3d
       -0.01040982 -0.02143583 0.001644438 0.043448117
0002a0 bc 1a 11 bd e1 00 e9 3c 97 47 db bd cf 00 21 bd
       -0.035425887 0.028442802 -0.10707014 -0.03930741
0002b0 a1 d6 7c bc f4 ce 30 3c 3f 68 6b 3e 32 a5 77 bc
       -0.015432031 0.010791529 0.22988985 -0.015115069
0002c0 ac 0a ba bb c2 28 1b 3e b4 99 20 bb c5 81 16 bd
       -0.0056775417 0.15152267 -0.0024505677 -0.03674485
0002d0 4e 9b a3 3c f0 e3 c1 bb d6 29 35 3c 70 81 3c bd
       0.019971516 -0.005917065 0.011057338 -0.04602188
0002e0 33 c5 30 bc 19 b0 b5 bd 23 63 33 3e f9 1f 74 3e
       -0.010789203 -0.088714786 0.17518286 0.23840322
0002f0 a2 b7 3c 3e 4a 3b 50 bd 22 b8 ac bd 62 c9 92 bc
       0.18429425 -0.050837792 -0.08433558 -0.017918292
000300 a6 0b 03 bb 2d 77 11 3b 11 10 91 3e ff 82 f6 bd
       -0.0019995957 0.0022196278 0.2833257 -0.12036704
000310 7e b8 4e be 87 0b 8a 3d 6f f1 89 bd cf a6 8a bd
       -0.20187566 0.0674048 -0.06735503 -0.067700975
000320 95 b5 11 bc 97 02 63 bd d1 0f 68 bd 6f 23 ad 3c
       -0.00889339 -0.05542239 -0.05665571 0.02113506
000330 97 bf 90 3c 2e 81 22 3e 0c de 1b 3e e9 0c 9c 3d
       0.017669482 0.1586959 0.15221423 0.0761965
000340 77 6d 2a bc 84 2e e6 bd fe 3a 59 bc 86 a7 34 bd
       -0.010402075 -0.11239341 -0.013258694 -0.044105075
000350 ff 0a c4 3c 4c 2e 33 3d f4 eb d3 3d c1 6a 78 3e
       0.023931025 0.043745324 0.10347739 0.24259473
000360 51 0e e1 3d a6 96 0b 3c 64 62 b8 3c 46 7a d1 3c
       0.10989059 0.008519804 0.022507854 0.025571
000370 39 e5 0d 3c 10 1d 03 3c dc 66 88 bd 04 78 ef bd
       0.008660608 0.0080025345 -0.06660244 -0.11692813
000380 ca 88 5c 3d 9f 52 7f be 9d 4b df bd 63 7f 55 bd
       0.05384139 -0.24933861 -0.10903094 -0.05212344
000390 e6 95 09 bc ff f3 88 3a 65 10 a3 3c e2 21 16 3d
       -0.008397555 0.0010448693 0.019905278 0.036653407
0003a0 43 68 2d 3d 78 65 0b 3d fb de 42 3d 45 13 1d 3e
       0.04233576 0.034032315 0.047575932 0.15339382
0003b0 3f d6 41 bc f9 62 15 3d 10 bc 06 3d 5e e1 b6 3c
       -0.011830865 0.03647134 0.032894194 0.02232426
0003c0 7c 69 31 3d b5 d7 0b 3d 1a 29 fb bd 7a 64 a4 3d
       0.04331349 0.03414126 -0.12263699 0.08026977
0003d0 92 62 7f 3d 7c 23 91 3c 94 a4 29 bc 82 52 37 bc
       0.062349863 0.017717116 -0.01035418 -0.011189105
0003e0 be 9d a7 bd f1 44 87 bd 71 cb 04 be 7a a6 16 be
       -0.08184384 -0.066049464 -0.12968232 -0.14711943
0003f0 c5 b7 13 be 7d 45 9b bd a5 43 60 bd 0b 64 ab bc
       -0.14425571 -0.07581613 -0.05475201 -0.020921728
