SpecGen/model/S2P_Model/model.pth (torch, 37467 bytes, 19 tensors)

weight f4 [4, 1, 17]
-0.1510666 0.1457746 0.07561758 -0.11325517 0.16888952 -0.16477636 0.13831231 -0.11386928
0.06806117 0.049566 -0.13680987 -0.22611494 0.11501402 0.14409095 -0.09187809 -0.18949991
-0.22794507 0.004129351 0.15573166 0.026615856 -0.08901909 -0.22791235 0.053679053 -0.14242145
-0.011650742 0.12265063 0.03221864 0.07252696 0.08546613 0.18543935 -0.08436435 -0.1525668
-0.19871037 -0.2178725 0.113135345 0.3157844 -0.011954872 0.021403806 0.22940746 0.25085148
0.23147458 0.1502886 0.10243075 0.04744402 0.09217254 -0.3006345 -0.1720029 -0.064864054
-0.21634865 -0.23503456 -0.36609632 0.0030168444 -0.19149858 0.06279218 -0.1576012 0.13535815
0.14293891 -0.22173302 -0.021603644 0.06529653 -0.12862515 -0.14601836 0.043576032 0.16129187
-0.1625611 -0.18162256 0.05685526 0.09485456
00000000: 34b1 1abe f045 153e 64dd 9a3d 54f2 e7bd
00000010: 60f1 2c3e 22bb 28be bea1 0d3e 4c34 e9bd
00000020: a863 8b3d b805 4b3d e317 0cbe ad8a 67be
00000030: 788c eb3d 948c 133e 942a bcbd 440c 42be
00000040: 6f6a 69be 824f 873b 1f78 1f3e 7f09 da3c
00000050: a44f b6bd db61 69be 91de 5b3d eed6 11be
00000060: c1e2 3ebc 4130 fb3d b1f7 033d 0489 943d
00000070: de08 af3d d0e3 3d3e 37c7 acbd 793a 1cbe
00000080: bb7a 4bbe f819 5fbe 81b3 e73d 7eae a13e
00000090: 5ede 43bc 0957 af3c cae9 6a3e 9b6f 803e
000000a0: ac07 6d3e 41e5 193e 37c7 d13d a954 423d
000000b0: f5c4 bc3d c4ec 99be 8721 30be 72d7 84bd
000000c0: 808a 5dbe e6ac 70be fa70 bbbe 40b6 453b
000000d0: 3418 44be 3099 803d 3562 21be 549b 0a3e
000000e0: 945e 123e fb0d 63be 20fa b0bc 30ba 853d
000000f0: 50b6 03be d685 15be c87c 323d b229 253e
00000100: 6b76 26be 44fb 39be 10e1 683d 1c43 c23d

bias f4 [4]
-0.13879284 -0.020208756 0.115753196 -0.23637085
00000000: b61f 0ebe d58c a5bc 0310 ed3d 330b 72be

weight f4 [4]
1.0 1.0354464 1.0036057 1.0
00000000: 0000 803f 8289 843f 2776 803f 0000 803f

bias f4 [4]
-0.041567434 0.00016560836 0.16409615 0.049302895
00000000: 9d42 2abd 28a7 2d39 d208 283e d5f1 493d

running_mean f4 [4]
0.0 6e-45 0.564454 0.0
00000000: 0000 0000 0400 0000 0f80 103f 0000 0000

running_var f4 [4]
6e-45 6e-45 0.03962942 6e-45
00000000: 0400 0000 0400 0000 7552 223d 0400 0000

weight f4 [16, 4, 17]
0.29610953 0.16273536 0.17809725 0.2603701 0.17516617 0.20595896 0.21823306 0.34890956
0.30855954 0.22465117 0.35857603 0.37478942 0.2832144 0.3664865 0.15404639 0.33248475
0.29316345 -0.010921966 0.01840846 0.09038733 0.057373792 -0.049069904 0.042886045 0.02015858
0.046871547 -0.03595999 -0.0325824 -0.16351125 -0.17353097 -0.03739814 -0.0075108325 -0.07505225
0.068499066 0.104025446 0.02248354 -0.107484296 -0.043160457 -0.08674311 0.051668715 -0.027771156
-0.025237046 0.088474534 -0.10259851 -0.0606085 -0.14046331 -0.0063426537 -0.04237354 0.14010179
-0.04454255 0.12405077 -0.023935698 -0.17515025 -0.34469956 -0.19306454 -0.20162788 -0.24799691
-0.20388281 -0.21692589 -0.20419909 -0.30268764 -0.3214761 -0.27258226 -0.3274894 -0.29473937
-0.21051402 -0.29414216 -0.23049513 -0.3343547 -0.0442212 0.023462642 0.08875675 -0.11424112
0.046538617 -0.01554895 -0.028566234 -0.11993936 -0.12771519 -0.012640995 0.030334856 0.040255237
-0.09641471 0.0425653 -0.04331423 0.06112614 -0.12049405 -0.1573283 -0.0074666804 0.023851417
0.047897708 0.13301493 0.08804603 0.0021856676 -0.038109828 -0.05640629 -0.03976274 0.086566694
0.0081543885 0.044067387 -0.04057128 -0.12523554 0.0756442 -0.025898598 -0.17072953 -0.15423626
0.09325375 0.21998304 0.12215705 0.18288322 0.23927289 0.20048916 0.16167042 0.06278578
-0.11559835 -0.021787107 -0.10893164 -0.38765073 -0.39100578 -0.12093304 0.069910966 0.08207052
-0.016241759 0.014713246 0.0069634924 -0.006293323 -0.05513505 0.088741325 0.04053325 -0.068425894
0.055540834 0.10390601 -0.084461644 0.12753573 0.100437544 -0.092147686 0.0055663465 0.11984931
0.20703635 0.3615351 0.2489815 0.36721995 0.18909405 0.16420439 0.32788962 0.29542825
0.3783436 0.22082898 0.2825588 0.1684414 0.16842598 0.36285454 0.28144294 0.27215087
0.19736737 -0.12227473 -0.18665977 -0.104148604 -0.031528912 -0.08431883 -0.0016211469 -0.112110026
-0.04028797 -0.17127314 -0.08967185 0.06104594 0.054963157 -0.005931426 -0.13336548 0.06066351
0.026054202 -0.1826946 -0.046125803 -0.044074465 0.076588206 -0.024431577 -0.1770562 0.014961286
0.08235339 -0.111356296 -0.015435827 0.08851727 0.039948713 0.13242231 0.08844416 0.062645
0.08387725 0.10855659 0.17216094 -0.31540945 -0.34553945 -0.35976997 -0.22533718 -0.2138398
-0.40900365 -0.26591945 -0.21930733 -0.23284669 -0.30288842 -0.41076756 -0.36842477 -0.34619647
-0.20015433 -0.21037063 -0.26367772 -0.4128694 0.06520283 0.0075487983 -0.090022855 0.04595317
0.07337207 0.045053072 0.03927085 -0.038814332 -0.107127585 0.06861502 0.103224754 -0.06881756
0.048451528 -0.074749924 -0.017137375 0.0652809 -0.03821691 0.02144335 0.092368945 0.035015013
0.11671116 0.044709004 -0.05275217 0.08584762 -0.0024927661 -0.109058574 0.0059566363 -0.07702511
-0.07519834 -0.0056495266 -0.138526 -0.14240532 -0.011859129 -0.03295906 -0.07236021 -0.008258825
-0.22104856 -0.03992152 -0.1506842 -0.3316198 -0.06817224 0.03966113 -0.17505918 -0.113690935
-0.09998935 -0.19934984 0.14496894 0.060169622 0.21928759 0.16901071 0.31922433 -0.027907334
00000000: ab9b 973e 19a4 263e 205f 363e 3b4f 853e
00000010: c35e 333e e8e6 523e 7d78 5f3e 46a4 b23e
00000020: 84fb 9d3e f50a 663e 4797 b73e 66e4 bf3e
00000030: 7a01 913e 1ea4 bb3e 56be 1d3e 713b aa3e
00000040: 8519 963e 0cf2 32bc 57cd 963c fe1c b93d
00000050: c800 6b3d 86fd 48bd 47a9 2f3d 9b23 a53c
00000060: 61fc 3f3d c84a 13bd 1f75 05bd 7e6f 27be
00000070: 1ab2 31be cb2e 19bd 6e1d f6bb feb4 99bd
00000080: 3d49 8c3d 4b0b d53d 672f b83c ba20 dcbd
00000090: 05c9 30bd 5fa6 b1bd 93a2 533d 5680 e3bc
000000a0: ecbd cebc 2332 b53d 2b1f d2bd 9e40 78bd
000000b0: 9dd5 0fbe 09d6 cfbb e18f 2dbd d876 0f3e
000000c0: 4072 36bd 550e fe3d cc14 c4bc 965a 33be
000000d0: 767c b0be b6b2 45be 8a77 4ebe e7f2 7dbe
000000e0: a8c6 50be d221 5ebe 9119 51be e0f9 9abe
000000f0: 8498 a4be e78f 8bbe b1ac a7be 14e8 96be
00000100: fd90 57be cd99 96be ea06 6cbe 8a30 abbe
00000110: 4a21 35bd ba34 c03c 19c6 b53d 40f7 e9bd
00000120: 479f 3e3d 06c1 7ebc bc03 eabc c4a2 f5bd
00000130: c5c7 02be 2d1c 4fbc ce80 f83c ade2 243d
00000140: 1375 c5bd f458 2e3d 436a 31bd 675f 7a3d
00000150: 96c5 f6bd ab1a 21be 0eab f4bb 0c64 c33c
00000160: 6330 443d 1135 083e 7a51 b43d 6b3d 0f3b
00000170: 0d19 1cbd 480a 67bd 41de 22bd e149 b13d
00000180: fc99 053c 0180 343d 122e 26bd bf3d 00be
00000190: 59eb 9a3d 4c29 d4bc b9d3 2ebe 1cf0 1dbe
000001a0: d2fb be3d 3c43 613e 7a2d fa3d bd45 3b3e
000001b0: f403 753e 084d 4d3e ee8c 253e d595 803d
000001c0: d4be ecbd e07a b2bc 8d17 dfbd 287a c6be
000001d0: e931 c8be beab f7bd 7b2d 8f3d 9714 a83d
000001e0: 700d 85bc d40f 713c 022e e43b 3838 cebb
000001f0: 4ad5 61bd 03be b53d 3106 263d e022 8cbd
00000200: c97e 633d adcc d43d 3afa acbd ba98 023e
00000210: 33b2 cd3d edb7 bcbd e665 b63b 8e73 f53d
00000220: 5601 543e 211b b93e 02f5 7e3e 4104 bc3e
00000230: dfa1 413e 3225 283e 26e1 a73e 5f42 973e
00000240: 41b6 c13e fe20 623e 8cab 903e e77b 2c3e
00000250: dc77 2c3e 12c8 b93e 4a19 903e 5c57 8b3e
00000260: ac1a 4a3e 2c6b fabd bd23 3fbe dd4b d5bd
00000270: 7624 01bd 5aaf acbd aa7c d4ba f199 e5bd
00000280: 0005 25bd 3a62 2fbe e0a5 b7bd 4f0b 7a3d
00000290: 0c21 613d 685c c2bb f690 08be 4d7a 783d
000002a0: 9f6f d53c 4b14 3bbe 69ee 3cbd 6d87 34bd
000002b0: 47da 9c3d bb24 c8bc 384e 35be 2f20 753c
000002c0: e5a8 a83d c50e e4bd 8de6 7cbc 8b48 b53d
000002d0: 43a1 233d b799 073e 3622 b53d 064c 803d
000002e0: d6c7 ab3d eb52 de3d f54a 303e 597d a1be
000002f0: 8cea b0be c533 b8be cabe 66be d2f8 5abe
00000300: ed68 d1be 9826 88be 1a92 60be 5d6f 6ebe
00000310: 3114 9bbe 2050 d2be 2ca2 bcbe aa40 b1be
00000320: 42f5 4cbe 666b 57be c400 87be 9e63 d3be
00000330: 1089 853d e95b f73b e75d b8bd 6439 3c3d
00000340: 1944 963d 9289 383d 79da 203d c7fb 1ebd
00000350: b565 dbbd 0886 8c3d 8067 d33d 39f0 8cbd
00000360: 1c75 463d 7d16 99bd ae63 8cbc feb1 853d
00000370: 5689 1cbd f7a9 af3c ee2b bd3d e76b 0f3d
00000380: 4306 ef3d ca20 373d a912 58bd e1d0 af3d
00000390: ad5d 23bb 1a5a dfbd e32f c33b 57bf 9dbd
000003a0: 9601 9abd aa1f b9bb c2d9 0dbe b3d2 11be
000003b0: cb4c 42bc 1400 07bd 9731 94bd 0650 07bc
000003c0: 8e5a 62be bf84 23bd f54c 1abe 12ca a9be
000003d0: e39d 8bbd b673 223d b742 33be cbd6 e8bd
000003e0: 37c7 ccbd 5d22 4cbe bd72 143e 6c74 763d
000003f0: ed8c 603e 2511 2d3e 5f71 a33e ec9d e4bc

bias f4 [16]
-0.28358358 -0.038519304 -0.14202748 -0.056102347 -0.11214468 0.08651716 -0.16813076 0.37716064
-0.27320567 0.17729394 -0.27884617 -0.16445793 -0.0044586714 0.117837876 -0.23179604 -0.21123287
00000000: de31 91be 6bc6 1dbd a76f 11be 93cb 65bd
00000010: 1cac e5bd e92f b13d 782a 2cbe 331b c13e
00000020: 9de1 8bbe 8b8c 353e edc4 8ebe a967 28be
00000030: 0c1a 92bb fc54 f13d f15b 6dbe 6e4d 58be

weight f4 [16]
0.69107246 1.7014481 0.4909984 0.29190058 0.5824215 0.78403974 0.90155536 1.0708177
0.6377741 1.036715 0.45150203 1.174124 0.8023145 1.1271676 0.7988577 0.41172788
00000000: 20ea 303f 0dc9 d93f 2464 fb3e fe73 953e
00000010: 9319 153f d4b6 483f 55cc 663f 8e10 893f
00000020: 2a45 233f 14b3 843f 462b e73e b249 963f
00000030: 7c64 4d3f 0747 903f f081 4c3f ffcd d23e

bias f4 [16]
0.0030709668 0.067530744 0.09666463 0.14059642 0.32769665 0.23117858 -0.06457779 0.0974649
0.13776521 0.31821078 -0.0186826 0.11856944 0.40236947 0.43634072 0.1779529 0.18426599
00000000: 4642 493b 8f4d 8a3d 1bf8 c53d 82f8 0f3e
00000010: dbc7 a73e 14ba 6c3e 5c41 84bd ad9b c73d
00000020: 5312 0d3e 86ec a23e 410c 99bc 89d4 f23d
00000030: 5f03 ce3e 0d68 df3e 4939 363e 39b0 3c3e

running_mean f4 [16]
6e-45 0.1935907 0.045524187 0.061681677 0.24569732 0.17828421 6e-45 0.7085312
0.0702367 0.15568006 6e-45 0.01662896 0.48778877 0.14832214 0.03787328 0.05141896
00000000: 0400 0000 a43c 463e 9277 3a3d eda5 7c3d
00000010: 1498 7b3e 2390 363e 0400 0000 4d62 353f
00000020: 42d8 8f3d 986a 1f3e 0400 0000 7539 883c
00000030: 73bf f93e c2e1 173e 0321 1b3d b09c 523d

running_var f4 [16]
6e-45 0.17552692 0.053918324 0.016115734 0.52372456 0.16259976 6e-45 0.08777972
0.08558537 0.034151312 6e-45 0.010826534 1.1106328 0.055247374 0.020546453 0.020160744
00000000: 0400 0000 54bd 333e 76d9 5c3d 2505 843c
00000010: d012 063f 8d80 263e 0400 0000 dbc5 b33d
00000020: 6247 af3d 3fe2 0b3d 0400 0000 c661 313c
00000030: 3729 8e3f 124b 623d 0951 a83c 2528 a53c

weight f4 [32, 16, 9]
-0.033842504 0.05878108 0.053629257 -0.014579363 0.05221658 0.066850655 -0.008040648 -0.0013059962
-0.09501609 -0.13976924 -0.12053837 0.21040946 0.15751483 0.3177357 -0.0015597048 -0.17624958
-0.105011955 -0.22600104 -0.14834855 -0.008095965 0.020570287 -0.017410887 0.08012569 -6.190262e-05
0.08058527 0.14701293 -0.06347279 0.035880305 -0.06391915 0.023417005 0.0030083396 0.061953925
0.0557719 -0.07812527 -0.08724016 0.029321682 -0.23257956 -0.13695726 -0.2029162 -0.20798117
-0.34860307 -0.1422538 -0.06510189 -0.15800263 -0.39613098 -0.10907474 -0.06419178 0.11476066
-0.058675464 -0.14254314 -0.11702994 -0.21065484 -0.009892564 0.096695624 0.10347416 0.13379468
0.17005944 0.2700443 0.16305307 0.1546134 0.28970227 0.1811131 0.2358922 -0.12811588
-0.16153796 0.010394261 -0.025852885 -0.14678241 0.13256977 0.0045096795 0.064659745 0.092182584
-0.21262394 0.0978941 -0.03091024 -0.059405163 -0.003397293 0.12647693 0.14883846 0.11031436
0.17288011 -0.005211887 -0.01151373 -0.31529278 -0.2565286 0.09613682 0.05019803 0.11991609
0.006342651 0.14709866 0.008668664 0.055464637 -0.02515707 0.05925455 -0.037621185 0.024803296
-0.046884604 0.07894005 -0.07414676 -0.046599478 -0.08755706 -0.070622735 0.2035097 0.35426003
0.5340554 0.30236533 -0.276764 -0.025984501 -0.10116438 -0.036851615 -0.07782716 0.086987495
0.041359466 0.06634549 -0.10673272 -0.19990186 -0.30884105 -0.0060262987 0.01878958 -0.08081314
-0.33021605 0.054968037 0.20513998 0.1970036 0.018394407 0.045735486 -0.0011257057 0.21380495
0.050625924 0.08322976 0.0033056343 -0.16825312 -0.33433 -0.08424367 -0.2343393 -0.05004726
0.08993838 -0.015709413 0.19044748 -0.055456586 -0.05536254 -0.09822098 -0.10711402 -0.003110458
0.041989222 0.004546019 0.084972546 0.18834162 0.18649101 -0.019998528 -0.044025343 -0.048966788
-0.08586631 -0.12585151 -0.026368132 0.07020012 0.411324 -0.033894952 -0.1268805 0.15442163
0.25538146 -0.1892533 0.061398868 -0.020308087 -0.11578237 0.0007493277 -0.01578327 -0.10916242
0.0035833984 -0.042922977 -0.019722924 -0.052952927 -0.12547661 -0.19796528 -0.18817814 -0.19133614
-0.03621283 0.1149408 0.020240836 0.2600656 -0.06686437 -0.087245986 -0.2237968 -0.31037822
-0.2582179 -0.20241174 -0.17386721 -0.08607924 0.013938513 0.11134965 0.03776283 0.043568954
0.03949843 -0.06987181 0.053404562 -0.13294397 -0.10876215 0.33939263 -0.018596174 0.047072195
-0.04959387 0.026234575 -0.06431042 0.03857046 0.04280967 0.04744954 -0.01607103 0.089194104
0.073305555 -0.20656784 0.031500958 -0.09722994 0.030524233 -0.08942472 -0.44144276 0.04486235
0.103667855 -0.057160623 0.046445403 -0.13097568 -0.096951574 -0.14700763 -0.012675692 -0.058720767
-0.11628191 0.055507023 0.006172978 0.16453373 -0.046821423 -0.020026501 -0.24856772 -0.58933896
-0.33075142 0.28287458 0.007163457 -0.08032943 0.0047977795 0.08900502 0.0037786944 0.031393044
-0.034755833 -0.0060243728 0.08456364 0.042295475 0.050006706 -0.33380127 -0.11533378 -0.035745103
0.056990992 -0.16063704 0.04964736 -0.00057866186 -0.07556361 0.019705286 -0.05137251 -0.1786894
00000000: 709e 0abd 6ec4 703d 5aaa 5b3d 48de 6ebc
00000010: 0de1 553d ffe8 883d ecbc 03bc f62d abba
00000020: cc97 c2bd ab1f 0fbe d2dc f6bd 9475 573e
00000030: 914b 213e 41ae a23e 026f ccba c57a 34be
00000040: 8210 d7bd d16c 67be afe8 17be f0a4 04bc
00000050: 0583 a83c 47a1 8ebc f018 a43d b7d1 81b8
00000060: e409 a53d 8f8a 163e 06fe 81bd 3af7 123d
00000070: 0be8 82bd 05d5 bf3c 9027 453b 66c3 7d3d
00000080: 1371 643d 2400 a0bd f8aa b2bd 0634 f03c
00000090: 5629 6ebe 863e 0cbe 44c9 4fbe 04f9 54be
000000a0: 1a7c b2be fbaa 11be 2454 85bd 71cb 21be
000000b0: aed1 cabe 9462 dfbd fb76 83bd a307 eb3d
000000c0: af55 70bd d4f6 11be 65ad efbd e7b5 57be
000000d0: 6c14 22bc 5b08 c63d 43ea d33d 7901 093e
000000e0: 1024 2e3e 3f43 8a3e 62f7 263e fa52 1e3e
000000f0: db53 943e b675 393e ba8d 713e cf30 03be
00000100: 356a 25be b14c 2a3c 6ec9 d3bc 214e 16be
00000110: 5fc0 073e efc5 933b 546c 843d 39ca bc3d
00000120: 17ba 59be b47c c83d 7937 fdbc d452 73bd
00000130: 1ea5 5ebb 2b83 013e 1c69 183e 7fec e13d
00000140: 7c07 313e 7ac8 aabb 15a4 3cbc 0e6e a1be
00000150: b757 83be 62e3 c43d 739c 4d3d 9196 f53d
00000160: 03d6 cf3b 08a1 163e 0307 0e3c e32e 633d
00000170: 3316 cebc e6b4 723d ac18 1abd 4830 cb3c
00000180: 120a 40bd 52ab a13d 42da 97bd 18df 3ebd
00000190: 1e51 b3bd a7a2 90bd d964 503e 9261 b53e
000001a0: dbb7 083f a1cf 9a3e 03b4 8dbe 73dd d4bc
000001b0: 452f cfbd b8f1 16bd d963 9fbd 8026 b23d
000001c0: 8b68 293d 25e0 873d af96 dabd 13b3 4cbe
000001d0: 6a20 9ebe 4278 c5bb 9bec 993c 5c81 a5bd
000001e0: 1412 a9be 2a26 613d 3710 523e 50bb 493e
000001f0: deaf 963c 2255 3b3d 6a8c 93ba afef 5a3e
00000200: 215d 4f3d 5d74 aa3d 57a3 583b 8c4a 2cbe
00000210: 4d2d abbe f287 acbd a4f6 6fbe 5bfe 4cbd
00000220: 9d31 b83d 07b1 80bc aa04 433e 7226 63bd
00000230: d5c3 62bd 1528 c9bd 985e dbbd d3d8 4bbb
00000240: e4fc 2b3d c5f6 943b 1606 ae3d a0dc 403e
00000250: 80f7 3e3e f4d3 a3bc eb53 34bd 6691 48bd
00000260: adda afbd 38df 00be fb01 d8bc 15c5 8f3d
00000270: 0f99 d23e 6fd5 0abd f6ec 01be b420 1e3e
00000280: 5cc1 823e 9ecb 41be 617d 7b3d 255d a6bc
00000290: 4f1f edbd 886e 443a eb4b 81bc 8c90 dfbd
000002a0: 73d7 6a3b 01d0 2fbd f891 a1bc 2be5 58bd
000002b0: f17c 00be 69b7 4abe c5b1 40be 9fed 43be
000002c0: e853 14bd 1566 eb3d 1cd0 a53c 5127 853e
000002d0: 30f0 88bd 06ae b2bd fd2a 65be e5e9 9ebe
000002e0: 2335 84be 0645 4fbe 3f0a 32be 504a b0bd
000002f0: 5c5e 643c 490b e43d 32ad 1a3d 5c75 323d
00000300: 1bc9 213d f418 8fbd bebe 5a3d 7722 08be
00000310: b1be debd dfc4 ad3e 0157 98bc c6ce 403d
00000320: f122 4bbd e4e9 d63c 2eb5 83bd 0ffc 1d3d
00000330: 3159 2f3d 735a 423d 65a7 83bc 66ab b63d
00000340: 3921 963d 8586 53be 2607 013d 7e20 c7bd
00000350: f50d fa3c 4f24 b7bd c904 e2be 95c1 373d
00000360: d04f d43d 4221 6abd 893d 3e3d 7d1e 06be
00000370: 8c8e c6bd 2b89 16be b5ad 4fbc 3085 70bd
00000380: 3625 eebd 555b 633d b146 ca3b 887b 283e
00000390: d2c7 3fbd 9e0e a4bc 8988 7ebe ebde 16bf
000003a0: 4058 a9be f0d4 903e 6fbb ea3b c283 a4bd
000003b0: b136 9d3b 4448 b63d f9a3 773b fe95 003d
000003c0: 225c 0ebd 1a68 c5bb b42f ad3d 053e 2d3d
000003d0: d5d3 4c3d 00e8 aabe 1e34 ecbd 7569 12bd
000003e0: 636f 693d 097e 24be 085b 4b3d 57b1 17ba
000003f0: 18c1 9abd fb6c a13c fb6b 52bd 5bfa 36be

bias f4 [32]
-0.3631647 -0.1505759 0.18574136 -0.35604444 -0.11990615 -0.012741015 -0.014621491 -0.036820635
0.031655293 -0.37196657 -0.4702049 -0.06792938 0.015338045 -0.0785243 -0.12831433 -0.09293207
-0.41495973 -0.16148888 -0.1659716 -0.051598005 -0.15628159 -0.38932285 -0.19344805 0.04662499
0.031929333 -0.043010976 -0.24761204 -0.1000411 -0.32543576 0.20350114 0.066979624 -0.060706444
00000000: b9f0 b9be 9230 1abe fc32 3e3e 754b b6be
00000010: 5b91 f5bd b1bf 50bc fa8e 6fbc 3cd1 16bd
00000020: fba8 013d 6772 bebe b2be f0be 8f1e 8bbd
00000030: 6c4c 7b3c 59d1 a0bd d564 03be 2b53 bebd
00000040: 9a75 d4be 575d 25be 76f4 29be 6e58 53bd
00000050: 4808 20be 5355 c7be 3f17 46be d8f9 3e3d
00000060: 55c8 023d 472c 30bd 038e 7dbe 59e2 ccbd
00000070: 849f a6be 9a62 503e 9d2c 893d 52a7 78bd

weight f4 [32]
0.081556946 0.13962805 0.1559984 0.12008268 0.105197616 0.17121175 0.16300036 0.18831903
0.11241887 0.15488131 0.16897626 0.19992958 0.13471583 0.16171345 0.14486134 0.14346892
0.06502818 0.14065453 0.24433929 0.109453894 0.17187299 0.027978009 0.13659696 0.17134227
0.08712086 0.17916568 0.1619403 0.11525324 0.1281494 0.11836853 0.15626593 0.20820878
00000000: 5407 a73d a8fa 0e3e 0bbe 1f3e e8ed f53d
00000010: d971 d73d 2252 2f3e 91e9 263e b4d6 403e
00000020: dd3b e63d 3599 1e3e 1d08 2d3e 57ba 4c3e
00000030: f2f2 093e 3698 253e 8856 143e 84e9 123e
00000040: 7f2d 853d be07 103e 1434 7a3e 5d29 e03d
00000050: 79ff 2f3e 2332 e53c 13e0 0b3e 5974 2f3e
00000060: 6c6c b23d 3577 373e aed3 253e e409 ec3d
00000070: 9939 033e 336b f23d 2d04 203e af34 553e

bias f4 [32]
0.0021885221 0.028951893 -0.10547965 0.01640829 0.007969919 -0.018852372 -0.0117096035 0.016120404
-0.02264043 0.029735189 0.027429732 0.03608678 0.010568182 -0.0050228066 -0.023881717 -0.025213307
-0.018744024 0.0028790561 0.04149352 -0.054597653 -0.012749921 -0.0008642837 0.041210294 -0.043743547
-0.07584291 0.034726243 0.01507519 0.008141859 0.04164713 0.05539596 -0.03314132 0.07841982
00000000: 4f6d 0f3b 852c ed3c b705 d8bd ae6a 863c
00000010: 4394 023c 4a70 9abc a3d9 3fbc f00e 843c
00000020: 6c78 b9bc 3697 f33c 51b4 e03c bbcf 133d
00000030: 2b26 2d3c 5b96 a4bb 97a3 c3bc 238c cebc
00000040: 118d 99bc 8cae 3c3b 1cf5 293d caa1 5fbd
00000050: 0be5 50bc 1991 62ba 20cc 283d 6f2c 33bd
00000060: 8753 9bbd 1b3d 0e3d eefd 763c 6f65 053c
00000070: 2e96 2a3d e0e6 623d 31bf 07bd 929a a03d

running_mean f4 [32]
0.019120911 0.105065316 0.49096698 0.07245899 0.21697718 0.2911113 0.44299117 0.26996624
0.27595523 0.09386956 0.17964506 0.031136723 0.31102636 0.100598216 0.32407638 0.07811347
0.10409636 0.20284656 0.14657637 0.09209505 0.6681513 6e-45 0.3016077 0.4123483
0.53633666 0.22362313 0.3478409 0.011728075 0.13736865 0.43318716 0.4096726 0.11557193
00000000: 75a3 9c3c 7c2c d73d 0660 fb3e 6165 943d
00000010: 442f 5e3e 8a0c 953e bdcf e23e 0439 8a3e
00000020: 014a 8d3e af3e c03d e0f4 373e 7112 ff3c
00000030: d93e 9f3e 7006 ce3d 57ed a53e f4f9 9f3d
00000040: 7930 d53d 02b7 4f3e 1e18 163e 549c bc3d
00000050: f70b 2b3f 0400 0000 536c 9a3e 511f d33e
00000060: 5c4d 093f 76fd 643e 3418 b23e 1d27 403c
00000070: 5eaa 0c3e b5ca dd3e 9bc0 d13e fab0 ec3d

running_var f4 [32]
0.0104693845 0.14271949 0.18545337 0.0975414 0.17183617 0.22938554 0.2772725 0.6617583
0.23066163 0.10268557 0.4264964 0.024374949 0.28464055 0.064215034 0.7527203 0.06473706
0.09001651 0.381998 0.25331238 0.03483942 3.444826 6e-45 0.42732006 0.33066767
0.7528548 0.22297525 1.2944782 0.003408438 0.13877569 0.1317713 0.76165307 0.044033367
00000000: c887 2b3c 0f25 123e 7de7 3d3e c9c3 c73d
00000010: d2f5 2f3e 0be4 6a3e a9f6 8d3e fe68 293f
00000020: 9032 6c3e d04c d23d bc5d da3e f9ad c73c
00000030: 68bc 913e 2c83 833d 47b2 403f dd94 843d
00000040: 935a b83d 3e95 c33e 29b2 813e c8b3 0e3d
00000050: 0778 5c40 0400 0000 b2c9 da3e 464d a93e
00000060: 18bb 403f a053 643e 76b1 a53f 1a60 5f3b
00000070: 371b 0e3e 0eef 063e b2fb 423f 555c 343d

weight f4 [1, 512]
-0.03058039 -0.11622893 -0.043921825 -0.05971417 -0.06682209 0.03779342 0.17280431 -0.0032061797
-0.0571128 -0.05400576 0.072253294 -0.07513798 0.17638871 -0.07624276 0.042614825 0.08661155
-0.01930318 0.11406747 0.020346357 -0.28396773 0.20507753 -0.29006678 -0.123614155 -0.14384104
-0.04952466 -0.02079571 -0.07050323 -0.06169912 0.020602038 0.03220532 0.098001756 0.03293625
0.011793187 0.06866495 -0.35102293 0.0015959564 0.018235512 -0.10894807 -0.20427017 0.020727241
-0.011100956 -0.034219217 -0.015594674 0.041861225 0.027034596 0.019360097 0.041645836 0.024716688
-0.019644352 -0.09389319 -0.17260943 -0.16094327 -0.08744153 -0.017886668 0.014748635 0.00870986
-0.043105043 0.011546073 -0.06522634 -0.00695831 0.017602364 0.06521215 0.12916619 -0.021159673
-0.041196223 0.23809923 -0.023000134 -0.06198015 0.026851617 0.13241133 0.0062700934 -0.06162705
-0.046329904 0.032960292 -0.040381063 -0.035761528 -0.10583538 -0.007139125 0.014462049 -0.027341446
0.11678124 0.0034334888 -0.05205185 -0.004822625 0.055975262 -0.40149975 0.109464556 0.1092654
-0.068806976 0.022147253 -0.011212445 0.009320099 -0.015649477 0.0026579176 -0.020302786 0.011057773
0.10150249 0.0019748984 -0.10478543 0.013303051 -0.02729906 -0.024313264 -0.13388193 0.13425143
-0.1014667 -0.06594208 0.01756449 0.03370387 -0.0112611465 0.026668789 6.630827e-05 0.0021959904
-0.011629335 -0.02267244 0.047824517 -0.08075224 -0.428579 0.18543386 0.1670303 -0.050334424
-0.00014230993 -0.013707075 -0.058696393 -0.017312374 0.0010869554 -0.075751014 -0.0031318213 0.089643955
0.18300706 0.009811867 -0.091547556 0.067908995 -0.014047236 0.11700122 0.0030732863 0.032186594
0.07800728 -0.018773718 0.008694314 -0.04153992 -0.028330905 -0.048085988 -0.020998394 -0.033741783
-0.008619553 -0.043031484 -0.28803247 -0.23003443 -0.0293542 0.008928539 0.010562349 -0.01953359
0.021681726 0.031128427 -0.044982754 -0.031939525 -0.0030567194 -0.0027112141 0.10079541 -0.028058143
0.00012823417 -0.06210896 0.027067702 -0.07585218 0.05622096 0.06267235 0.23251294 -0.05039096
-0.19423398 -0.017977424 -0.059657708 0.15590075 0.12557805 -0.0163507 -0.09624379 0.0011158314
-0.0076809055 -0.03926156 -0.34829247 -0.09404409 -0.20126972 -0.042138863 -0.05007735 -0.044863302
0.05085792 0.17009932 0.037171617 -0.12321338 -0.03395795 0.30403998 0.09158901 -0.056086145
-0.049142573 0.21738698 -0.008018091 -0.07022336 0.06463736 0.256982 -0.043312766 -0.021493161
0.007538887 0.0012764607 -0.0056998553 -0.07073445 -0.029356534 -0.001457421 -0.007791568 -0.031825636
-0.042410966 0.23094366 0.01088292 -0.10108484 0.08426929 0.20524795 -0.026203895 -0.022813208
-0.0059341746 0.013966495 0.0197895 0.018612513 -0.079229206 -0.021252397 0.009945242 -0.033386793
-0.017603233 -0.17285646 0.08485679 0.06377782 0.0013999202 0.04428815 -0.21316151 -0.14646572
-0.0044938927 0.033812016 0.04762109 -0.0039225454 0.044259284 -0.0011792245 0.018994477 0.059070405
0.08780838 0.010200807 -0.060824685 0.25882658 0.039369546 -0.07244375 -0.027813766 0.013976688
-0.0048836772 0.03155052 -0.016876038 -0.044416916 0.019538382 -0.03083859 -0.016900796 -0.024236225
00000000: ba83 fabc 6f09 eebd 5fe7 33bd d896 74bd
00000010: 05da 88bd 46cd 1a3d 9df3 303e c51e 52bb
00000020: 1def 69bd 2535 5dbd 89f9 933d f1e1 99bd
00000030: 3e9f 343e 2a25 9cbd e28c 2e3d 6561 b13d
00000040: b421 9ebc 359c e93d 67ad a63c 3864 91be
00000050: d8ff 513e a283 94be 6b29 fdbd 114b 13be
00000060: 5fda 4abd c45b aabc ff63 90bd 37b8 7cbd
00000070: 9bc5 a83c bae9 033d 25b5 c83d 29e8 063d
00000080: 3638 413c 36a0 8c3d 47b9 b3be 692f d13a
00000090: a462 953c 2a20 dfbd 332c 51be 2dcc a93c
000000a0: c9e0 35bc 7329 0cbd ce80 7fbc ad76 2b3d
000000b0: a877 dd3c 1199 9e3c d394 2a3d a77a ca3c
000000c0: 31ed a0bc 134b c0bd 87c0 30be 50ce 24be
000000d0: 8b14 b3bd 1087 92bc 42a4 713c cdb3 0e3c
000000e0: ea8e 30bd bd2b 3d3c 6395 85bd 8902 e4bb
000000f0: d532 903c f38d 853d 2444 043e 0d57 adbc
00000100: 5fbd 28bd 49d0 733e c76a bcbc e6de 7dbd
00000110: ecf7 db3c d696 073e 5b75 cd3b a56c 7cbd
00000120: 6dc4 3dbd 5f01 073d 9d66 25bd ae7a 12bd
00000130: 38c0 d8bd 52ef e9bb 3bf2 6c3c 2bfb dfbc
00000140: 012b ef3d 6204 613b 5234 55bd 1c07 9ebb
00000150: 5146 653d 6091 cdbe f42e e03d 8ac6 df3d
00000160: acea 8cbd 286e b53c 67b4 37bc 54b3 183c
00000170: 5533 80bc 7530 2e3b 0752 a6bc a92b 353c
00000180: 8ae0 cf3d 4c6d 013b be99 d6bd 0af5 593c
00000190: 47a2 dfbc 9c2c c7bc 5818 09be 3579 093e
000001a0: c6cd cfbd a40c 87bd 68e3 8f3c 120d 0a3d
000001b0: ac80 38bc 8178 da3c fb0e 8b38 9bea 0f3b
000001c0: f788 3ebc 8ebb b9bc a4e3 433d 6e61 a5bd
000001d0: b56e dbbe 60e2 3d3e fe09 2b3e 782b 4ebd
000001e0: 0839 15b9 a493 60bc a16b 70bd aed2 8dbc
000001f0: 2c78 8e3a 5923 9bbd 3e3f 4dbb 4097 b73d
00000200: 3466 3b3e f4c1 203c 497d bbbd df13 8b3d
00000210: 6126 66bc 569e ef3d 3069 493b 17d6 033d
00000220: 48c2 9f3d 57cb 99bc 9972 0e3c c325 2abd
00000230: 3716 e8bc d0f5 44bd d304 acbc d334 0abd
00000240: 0739 0dbc c841 30bd fe78 93be 258e 6bbe
00000250: 3878 f0bc 0249 123c b40d 2d3c e804 a0bc
00000260: e09d b13c 0b01 ff3c d63f 38bd 05d3 02bd
00000270: 3e53 48bb a0ae 31bb d36d ce3d 31da e5bc
00000280: 9976 0639 f765 7ebd 16bd dd3c 6358 9bbd
00000290: f347 663d 5c5a 803d df17 6e3e c066 4ebd
000002a0: 46e5 46be 6445 93bc a45b 74bd 72a4 1f3e
000002b0: 8897 003e e7f1 85bc 771b c5bd 1741 923a
000002c0: 1bb0 fbbb bbd0 20bd 6453 b2be 309a c0bd
000002d0: a619 4ebe cd99 2cbd e81d 4dbd 95c2 37bd
000002e0: 6550 503d 842e 2e3e 4441 183d 4c57 fcbd
000002f0: 7e17 0bbd 21ab 9b3e 0593 bb3d 96ba 65bd
00000300: b949 49bd b19a 5e3e 505e 03bc 44d1 8fbd
00000310: 9860 843d 2593 833e ba68 31bd 6d12 b0bc
00000320: c508 f73b ea4e a73a dac5 babb 39dd 90bd
00000330: 1d7d f0bc ef06 bfba 6950 ffbb 995b 02bd
00000340: 1fb7 2dbd 7f7c 6c3e 464e 323c 9205 cfbd
00000350: 6195 ac3d 852c 523e 8da9 d6bc c4e2 babc
00000360: 7773 c2bb bad3 643c 971d a23c 4579 983c
00000370: ec42 a2bd 8219 aebc 5ef1 223c 97c0 08bd
00000380: a834 90bc 4901 31be 66c9 ad3d f29d 823d
00000390: 877d b73a 7e67 353d 0347 5abe 1cfb 15be
000003a0: 8141 93bb 787e 0a3d 550e 433d b288 80bb
000003b0: 3949 353d 3590 9aba 4e9a 9b3c cff3 713d
000003c0: e1d4 b33d 4921 273c 4e23 79bd eb84 843e
000003d0: f641 213d 645d 94bd b2d9 e3bc 7afe 643c
000003e0: 4107 a0bb 1e3b 013d 9e3f 8abc 83ee 35bd
000003f0: f50e a03c 36a1 fcbc 8a73 8abc 0c8b c6bc
