SpecGen/model/S2C_Model/Ni/model.pth (torch, 37467 bytes, 19 tensors)

weight f4 [4, 1, 17]
000000 0a 59 7e be 9e 5d b7 bd 73 bf 16 3e b2 4e 62 3e
       -0.24838653 -0.08953403 0.1472147 0.22100332
000010 b6 82 69 3d a9 61 ca 3d 45 af 04 be 4a 91 b0 3d
       0.05700942 0.098819084 -0.12957485 0.08621462
000020 83 36 3a 3e 78 ab b4 bd d4 d4 13 be 8a 37 47 bd
       0.18184857 -0.088217676 -0.14436656 -0.04863695
000030 cd df 05 be e4 c3 80 bd b2 45 1e be 5a b5 95 3d
       -0.13073654 -0.06287363 -0.15456274 0.07309981
000040 ae 7b 5e be 16 73 49 3e b8 16 17 be 30 00 bf 3c
       -0.21726868 0.19672808 -0.1475476 0.02331552
000050 a4 ca 57 3e 4c f8 6a be bc d0 88 bd 3a b0 5e be
       0.21073395 -0.2294628 -0.06680438 -0.21746913
000060 d0 be 63 3e 00 37 e1 3d 66 c4 41 be a8 65 10 be
       0.22240758 0.109968185 -0.18922576 -0.14101279
000070 48 d0 08 3d 47 37 64 be 80 05 75 3d 24 de 5a be
       0.033401757 -0.22286712 0.0598197 -0.21373802
000080 0c 75 fd 3d 46 bd 40 3e 87 61 c2 3e 77 28 ad 3e
       0.123758405 0.18822202 0.37965032 0.33819935
000090 fc d0 5a bc 8c ec ab 3e 6a b6 b2 3e eb 40 87 bd
       -0.01335549 0.33578908 0.34904796 -0.06604179
0000a0 13 c7 d5 bd 02 44 38 be a4 e2 72 bd 38 d9 0e 3d
       -0.10438361 -0.17994693 -0.059298173 0.034875125
0000b0 bb 01 88 bd 92 86 6b 3d ae c7 d3 bd 9a f4 bc bd
       -0.06640955 0.057501383 -0.1034082 -0.092263415
0000c0 26 34 0a bd 63 f3 83 be 63 93 a9 be 92 f4 b3 3d
       -0.03374114 -0.25771627 -0.3312026 0.087868825
0000d0 17 3a 12 3e 12 d9 f7 3d 52 19 75 be 17 78 80 be
       0.14279972 0.1210195 -0.2393544 -0.2509162
0000e0 4d f5 24 be 05 54 9c bd 1c 0b 5a 3e b1 01 4f 3d
       -0.161092 -0.07633213 0.212933 0.050538722
0000f0 46 02 0c be ec 79 3b be 80 29 ec 3c 29 5f 69 3d
       -0.13672742 -0.18308228 0.028828382 0.056975517
000100 43 ab 09 be 5b 7b 7b 3d 9d 7b 47 3e 8b 14 84 be
       -0.13444237 0.061396938 0.19480748 -0.25796923

bias f4 [4]
000000 bb a6 d7 3d 40 01 1a bb e0 4e c5 bc 2f fb 2a 3e
       0.10529848 -0.002349928 -0.024085462 0.16697381

weight f4 [4]
000000 3a ba 85 3f 00 00 80 3f 5c 62 5f 3f a4 06 80 3f
       1.0447457 1.0 0.8725946 1.0002027

bias f4 [4]
000000 08 5c 9d ba 3d 13 70 3c d3 4b f9 bd 8e a7 4d b9
       -0.0012005577 0.014653024 -0.121726654 -0.00019612742

running_mean f4 [4]
000000 04 00 00 00 00 00 00 00 d1 d9 e3 3e 04 00 00 00
       6e-45 0.0 0.44502118 6e-45

running_var f4 [4]
000000 04 00 00 00 04 00 00 00 32 6a 12 3d 04 00 00 00
       6e-45 6e-45 0.035745807 6e-45

weight f4 [16, 4, 17]
000000 32 0c b6 3d 61 7f 06 3d ec 9d 70 3d 29 21 3f 3c
       0.08889045 0.03283632 0.058744356 0.011665621
000010 2c 9a fd 3d 5a b9 bc bd 97 bb 36 3d 45 8b 3a bd
       0.123829216 -0.092150405 0.044612493 -0.045542974
000020 a7 f3 4a 3d f1 c1 c0 bc d0 b0 25 bd 44 fc 87 3d
       0.04954877 -0.023529978 -0.040451825 0.06639913
000030 91 4e a4 bd fe 32 98 bd 5f 28 cb bd 90 01 06 3d
       -0.08022798 -0.07431601 -0.099198096 0.032716334
000040 30 c6 85 bd 75 22 cc 3d 35 5f 11 bd 22 37 b0 bd
       -0.06531942 0.0996751 -0.035491187 -0.08604266
000050 3c 2e b0 bd 6e 38 2c bd 70 4f 67 3d db b0 11 3e
       -0.086025685 -0.042046003 0.056472242 0.14227621
000060 96 93 5f bc 15 ca 89 3d 3b dd c7 3d c2 ac bd 3d
       -0.013646027 0.06727997 0.09758993 0.092614666
000070 c8 61 0a 3e d4 6c 10 3e 47 6a 05 3e bb d9 44 3d
       0.13513863 0.14104015 0.13028823 0.048059206
000080 d9 a9 70 bd 84 be 7f bd f0 d9 93 bd 58 9c a0 3d
       -0.05875573 -0.06243755 -0.07219303 0.0784232
000090 e7 05 68 bd c2 08 dc 3d 71 cd 82 3d 95 ad 2f 3e
       -0.056646254 0.10743858 0.06386841 0.1715606
0000a0 a6 83 4b 3e 36 8c 03 3e a0 38 3f 3e f0 c8 ef 3c
       0.19874439 0.12846455 0.18673944 0.02927062
0000b0 cb f3 5f 3b ff 3b b1 3c 80 93 34 be aa fc 95 bd
       0.0034172412 0.021635054 -0.17634392 -0.073235825
0000c0 1b c7 80 be 2a 51 9a be 95 27 5c be 19 9c 01 be
       -0.25151905 -0.30140048 -0.21499474 -0.12657203
0000d0 d2 4a f6 bd f2 ac d7 bd 5e 80 8e 3d c7 e2 73 3c
       -0.120259896 -0.105310336 0.06958078 0.014885611
0000e0 49 73 d9 bd 69 6e 19 be cb 85 92 3c e2 da 43 bd
       -0.10617692 -0.14983524 0.017886063 -0.047816165
0000f0 c3 d0 4e bd 4a 66 20 3c a6 ae 29 3d 2e 92 1b 3a
       -0.05049206 0.009790013 0.041426323 0.0005934563
000100 a9 52 22 be 80 ff c2 bd 6b 93 86 bc 8c d9 ea bd
       -0.15851845 -0.09521389 -0.016427716 -0.11467275
000110 8e 00 39 3d 75 b8 9f 3d 0d 03 49 bd cb 02 64 3d
       0.045166545 0.07798854 -0.049075175 0.055666726
000120 36 e4 fe 3d 90 41 7d bd a0 be a3 bb b1 6e c9 3c
       0.124458715 -0.061830103 -0.0049970895 0.024588915
000130 ea b0 57 3c ce 38 a2 bd 0b 2c 98 bc 9c e3 d7 bc
       0.013164738 -0.07920991 -0.018575689 -0.02635365
000140 0c 6b 90 bd 41 ab d0 3d 4a a9 af 3d 93 fe c2 bd
       -0.070516676 0.10188914 0.08577211 -0.095212124
000150 3d 51 c3 bd 41 44 82 3c bf d4 b0 bb 0a 06 0b 3d
       -0.09536979 0.015901687 -0.005396455 0.033941306
000160 f6 02 08 bd 2c de 23 bd c9 d1 b9 bd 1c 04 9e 3d
       -0.03320595 -0.0400068 -0.090732165 0.077156276
000170 0f 22 e8 3d e7 3b 40 bd 04 f1 d0 bc 00 3c e6 bc
       0.11334621 -0.046932127 -0.02550555 -0.028104782
000180 8d bf 70 3d d0 f3 bb 3d c9 46 bf bd ac 83 37 3d
       0.058776427 0.09177363 -0.09339673 0.044803306
000190 3c 87 85 3d fb 9f e6 3c af 65 cd bb 94 64 c8 bd
       0.065199345 0.028152457 -0.006268225 -0.09784809
0001a0 ca 7b 4d be 5e 91 70 be 2a 2c 84 be 64 c3 8a be
       -0.20066753 -0.23492953 -0.25814945 -0.27102196
0001b0 73 4d 03 3d fa ec 70 3c ee 43 96 3b 08 79 c7 3d
       0.032056283 0.014704937 0.0045857346 0.09739882
0001c0 ef a1 2e 3e 48 f3 f0 3d b7 72 b2 3d 24 0b 52 3e
       0.1705396 0.11765152 0.08713286 0.20512062
0001d0 99 79 ee 3d 75 71 c8 3d 72 77 1b 3e 75 3a 42 3d
       0.11644287 0.09787265 0.15182284 0.04741903
0001e0 41 34 f1 bc 4e f7 e9 3d 69 12 16 ba c3 32 e0 3d
       -0.029443862 0.11424123 -0.0005724789 0.10947182
0001f0 f6 a6 df bd 82 eb 7e 3d 0c 3f 53 bc 0d 74 d5 3b
       -0.10920517 0.062236317 -0.0128934495 0.0065140785
000200 6e 61 01 3c b1 8e c2 3d fd 0a 77 bc f4 47 33 bd
       0.007896764 0.094998725 -0.015078303 -0.04376979
000210 75 85 f3 bc c8 5e e8 bd cb 96 b7 3d 41 57 83 bd
       -0.029726723 -0.11346203 0.08964308 -0.06413127
000220 d6 18 9a 3d f4 ae ee 3d b0 09 49 bd ae 4f b9 bc
       0.07524268 0.116544634 -0.049081504 -0.022621002
000230 7d d3 16 bd 69 0e bc bd dd 86 0c bd 85 6a b8 3d
       -0.036822785 -0.09182436 -0.034308303 0.09004692
000240 19 eb 73 3d c4 35 b3 bd ed 02 32 bc 58 c3 95 bd
       0.05955038 -0.08750489 -0.010864955 -0.073126495
000250 5f 54 66 bd 29 3b 75 bd f6 33 8c 3d b7 b0 9d bd
       -0.056232806 -0.059870873 0.06845848 -0.07699721
000260 66 9b 2a be 61 e9 d7 bb 96 d3 dc 3d 85 f9 16 3e
       -0.16660842 -0.0065891 0.10782544 0.14743622
000270 07 03 f5 bc 17 ea cc 3d 01 4f 2c 3c e1 10 09 3d
       -0.02990867 0.100055866 0.010516883 0.033463363
000280 0f 22 9a bd 99 0b ac bd ad 57 35 bd 33 01 ba 3d
       -0.075260274 -0.084006496 -0.044273067 0.0908226
000290 72 d4 66 3d 38 05 16 3e 0f fd e9 3d 8f 7d cd 3d
       0.056354947 0.14650428 0.1142522 0.10033714
0002a0 27 1d 07 3e 25 76 f8 3d 72 1c 86 bd 67 8e 07 be
       0.13194714 0.12131909 -0.06548394 -0.13237916
0002b0 4c 78 91 3e b0 eb 81 3e 55 56 aa bc 78 2f 02 3e
       0.28412092 0.25375128 -0.02079312 0.1271342
0002c0 08 2b 0f bc 4c b4 20 be 0a f9 93 bd 14 29 55 3d
       -0.008738287 -0.15693778 -0.07225235 0.05204113
0002d0 e8 4c f1 3c b3 c8 d3 3d 73 d4 21 3e 59 75 1b bd
       0.029455617 0.10341015 0.15803699 -0.03795371
0002e0 05 29 15 3b 0a 63 ad bd 30 21 80 be 7d 17 88 bc
       0.0022760045 -0.08466156 -0.2502532 -0.016612763
0002f0 08 06 80 bd f3 e5 c6 3d 01 82 5d bd e2 db 8d bd
       -0.0625115 0.09711828 -0.05407906 -0.06926705
000300 3e 3e 37 bd 47 29 64 bd ba d0 a7 bd a8 ec 14 3d
       -0.044737093 -0.055703428 -0.08194108 0.036358505
000310 33 26 a8 bd 91 30 97 3d 6c e7 29 3c f4 4f d1 bc
       -0.08210411 0.0738231 0.010370117 -0.02555082
000320 f2 29 04 bd 49 46 9b bd d9 d3 91 bd e5 3c 29 3d
       -0.032266565 -0.07581765 -0.07120485 0.04131784
000330 b3 ca a2 bd 69 a2 5d 3d 8b 6a c2 3d f8 9d 85 3d
       -0.07948818 0.054109965 0.09492978 0.06524271
000340 fc 64 af bc a9 80 fb 3d d1 64 24 3c b7 2d 91 3c
       -0.021410458 0.12280399 0.010033802 0.017721994
000350 89 a8 bd 3d 0b 88 72 bd 48 7d 1b 3c d3 20 01 3b
       0.09260661 -0.059211772 0.009490319 0.0019703403
000360 5f 00 10 be 10 fa 0c bd c1 c6 99 bd 5c da 0c bd
       -0.14062642 -0.034418166 -0.075086124 -0.03438793
000370 80 a5 f1 bd f3 58 88 bc 48 80 b2 bc cf 6e 71 bd
       -0.11799145 -0.016643977 -0.021789685 -0.058943566
000380 eb 90 86 bc f1 ca 59 bc cc cc 9b 3d 72 83 dc bb
       -0.016426524 -0.013293014 0.07607421 -0.0067295367
000390 9d a6 ed 3d ae ac 7b bd 30 b3 27 3e e5 35 47 bd
       0.116040446 -0.061443977 0.16376948 -0.048635382
0003a0 42 f7 c2 3d 2d 7a 4a bb 60 73 28 3e 4b ef 2d 3d
       0.09519817 -0.0030895576 0.16450262 0.042464536
0003b0 2f 73 28 3e af 64 cf 3c d1 90 9c 3d 05 5b 4a bc
       0.16450189 0.025316564 0.07644809 -0.012350802
0003c0 91 59 89 3e a8 de 7e 3e 06 e0 9e 3c 31 05 1e 3e
       0.26826146 0.24889624 0.019393932 0.15431668
0003d0 f2 83 9d bd 6f 28 4f be f2 96 0e be 65 8d 29 be
       -0.07691182 -0.20230268 -0.13924769 -0.16557844
0003e0 6e ac 0f bd f1 6d 1a bd 9b eb ad bc 53 4a 0a 3e
       -0.03507655 -0.037702505 -0.02123051 0.13504915
0003f0 0d 9a 8a 3d d0 9e 4e be 2b 14 61 be 7f 82 af 3d
       0.06767664 -0.2017777 -0.2198035 0.08569812

bias f4 [16]
000000 01 55 9e bc e0 74 ac 3c 96 3a 22 3e 01 46 26 bd
       -0.019327642 0.021051824 0.15842661 -0.040594105
000010 28 11 b2 3d f8 00 84 3e ab 93 33 be 2a 35 1a 3e
       0.086946785 0.2578199 -0.175368 0.15059343
000020 7b da 5e be a0 64 5b 3e 67 c2 89 be 49 31 54 be
       -0.21763031 0.21425104 -0.2690613 -0.20721926
000030 91 ea 86 bc 8b 96 4e 3e de c8 1d 3c 27 07 56 be
       -0.016469272 0.20174615 0.00963041 -0.20901166

weight f4 [16]
000000 cc 7f 38 3f 36 d4 95 3f b7 d3 3e 3f 20 84 60 3f
       0.7207 1.1705387 0.745418 0.87701607
000010 2a 1c 9b 3f 9a 74 a5 3f da ff 6b 3f 92 7c 04 3f
       1.211797 1.2926209 0.92187274 0.5175258
000020 da 45 93 3f 08 02 b6 3f 1a d3 0f 3f 60 b4 c3 3e
       1.1505692 1.421937 0.5618149 0.38223553
000030 7b 29 d1 3e c5 fd 8e 3f 87 b4 6b 3f a5 5d 0f 3f
       0.4085196 1.1171194 0.9207234 0.56002265

bias f4 [16]
000000 e7 2a c5 bd b8 0f 7d 3e 95 3e 13 be 0c a3 2f be
       -0.096273236 0.24713027 -0.14379342 -0.17152041
000010 f6 ca 19 bd cd e0 5e 3e 1e 07 70 3e a8 c8 9d bc
       -0.037547074 0.21765442 0.23440215 -0.01926072
000020 d1 0a 2e 3e 13 d5 46 3e 8f 0f fe 3c 35 7c 43 3e
       0.16996314 0.19417219 0.031013278 0.1909035
000030 8b f5 78 3e e7 5b 2a 3e f5 a1 5c 3e 54 30 ff bb
       0.24312417 0.1663662 0.21546157 -0.0077877436

running_mean f4 [16]
000000 70 4b 61 3e 99 8b ad 3d 1b 0c 60 3e c8 01 1d 3e
       0.22001433 0.08473892 0.21879618 0.1533271
000010 69 0a 2d 3e fd 42 3d 3e 39 30 05 3e 5c f8 bd 3e
       0.16898502 0.18482585 0.13006677 0.37103546
000020 62 1e 02 3d 97 ed 81 3e bd db 19 3d 2c d5 cd 3d
       0.031767257 0.2537658 0.037563074 0.10050425
000030 5e 07 89 3d a8 17 52 3e 1b c8 a0 3d 67 dd 27 3d
       0.06690858 0.20516837 0.07850667 0.04098263

running_var f4 [16]
000000 66 5e e5 3d a6 97 9f 3d c7 6a 98 3d 18 fc 6f 3d
       0.11199646 0.077925965 0.07442241 0.058590025
000010 49 d6 47 3c 04 df 44 3d d5 90 6b 3e d3 ad dd 3d
       0.012197086 0.048064247 0.23004468 0.1082417
000020 62 13 e1 3c 96 08 01 3d 27 c4 0b 3d 43 d2 ee 3c
       0.027475063 0.03150233 0.034122612 0.029152995
000030 ff 32 0d 3c 3f 89 47 3d 6a 3f ea 3d 77 d0 05 3d
       0.008618115 0.048714872 0.114378765 0.03266951

weight f4 [32, 16, 9]
000000 2a 5c 9a be 16 cd df bd 88 9e 4a bd 9d 94 46 3e
       -0.3014844 -0.10927789 -0.049467593 0.19392629
000010 87 c3 31 3e 6f ed a5 bd af f8 24 bd fc 75 dc 3c
       0.17359744 -0.081019275 -0.040276226 0.026911728
000020 cb 72 1e 3d 4d b4 90 be 61 98 b2 be 55 cc 16 3e
       0.038683694 -0.2826256 -0.3488188 0.14726384
000030 c7 10 dd 3d 2b 21 f8 3d db b6 29 3e 83 1e 60 be
       0.10794216 0.12115701 0.1657366 -0.2188664
000040 4a 1a 62 bd 2b c0 f8 3d fa d6 60 bd 01 f2 dc bd
       -0.055200852 0.12146028 -0.054892518 -0.10788346
000050 15 3c 07 3e 3a a4 ca 3d 11 5e 39 3c 6b 9b 89 3d
       0.13206513 0.09894605 0.011313931 0.06719097
000060 c7 0f 9a bd 67 d1 31 3c 70 39 0c 3e e4 db bd bb
       -0.075225405 0.010853148 0.13693786 -0.0057940353
000070 b8 e8 b5 bd 2d b1 00 3d 99 f4 2c b8 5a d2 92 3d
       -0.08882278 0.031418968 -4.1235795e-05 0.071690276
000080 71 a6 ad ba 77 ea 0f be 7e 0e 76 bc 19 f0 1e 3d
       -0.0013248456 -0.14054285 -0.015018104 0.038803194
000090 b8 1f 25 3e bf 45 17 be a0 a2 b9 bb ed e8 a7 bd
       0.16125381 -0.147727 -0.0056651384 -0.08198724
0000a0 2f ef 65 be d4 b2 e7 3d c2 2c 3a 3e c1 4c b3 bc
       -0.22454523 0.11313406 0.18181136 -0.021887185
0000b0 70 97 ba 3d 9f c5 8e 3e 2a 52 e3 bd df 5d 8d 3c
       0.09110916 0.27885148 -0.11099656 0.017256675
0000c0 c5 24 04 be f9 63 8e 3d 7f f6 1a be f7 a7 36 3d
       -0.12904651 0.06952662 -0.15133093 0.044593778
0000d0 ba 4c 78 bd 0f 48 71 bd 01 cc 12 3e a3 42 1f 3d
       -0.060620047 -0.05890661 0.14335634 0.03888191
0000e0 ac b3 85 bd e7 49 1b be 5b 75 93 bd b8 13 ad 3c
       -0.0652841 -0.1516491 -0.07200118 0.021127567
0000f0 48 a9 ec 3d 30 26 08 3e 74 66 47 bd 47 c8 a7 3d
       0.11555725 0.13295817 -0.04868169 0.08192497
000100 9b b3 ed 3d d7 85 82 3d f7 81 88 bd 97 52 ec bc
       0.11606523 0.06373184 -0.06665414 -0.028847976
000110 33 12 57 bd 09 bd d5 bd 13 3e 09 bd 61 cc 3d 3d
       -0.05250759 -0.10436446 -0.033506464 0.04633749
000120 a1 11 9e bb f3 44 5f be f4 0a 37 3e 50 f6 7c 3d
       -0.004823879 -0.21803646 0.17875272 0.06175834
000130 9e fe f2 3c 76 ab 85 bd 53 dc a2 bd f4 67 97 bc
       0.029662427 -0.06526844 -0.0795218 -0.018482186
000140 28 89 90 bd d6 5d 69 3e 36 e2 0b 3e 8d f7 a1 bd
       -0.070574105 0.22789702 0.13660511 -0.07908545
000150 f7 34 02 bd 83 c6 ab bd 0c 8b 4b be 72 01 2d bd
       -0.031788792 -0.083874725 -0.19877261 -0.042237706
000160 db 83 97 3e 9c ce 3c 3c b0 34 1d 3e 78 d0 3e 3d
       0.29592785 0.011523869 0.1535213 0.04658553
000170 15 8d 0e be 00 43 f1 bc b2 68 a7 bc a1 44 8a bd
       -0.13921006 -0.029450893 -0.020435665 -0.06751371
000180 1a 9b 85 3b c8 5d 0f 3c 91 82 6a 3d dc 5c 52 bd
       0.0040773274 0.008750387 0.057253424 -0.05135809
000190 e9 2e 9f bd 04 4e ec bd 20 5d 3d be 0e 8a ca bd
       -0.07772619 -0.11538318 -0.18492556 -0.09889613
0001a0 b6 8b 4c 3d cc 68 cd 3d d1 d1 0a 3e fa e3 2b 3e
       0.049937926 0.10029754 0.13556601 0.16786185
0001b0 87 d9 02 be 02 63 13 be 5a 79 8a bc 87 79 03 be
       -0.12778293 -0.14393237 -0.016903568 -0.12839328
0001c0 54 10 1f be a6 d5 0d be 6e 50 66 3d 49 dc fc 3d
       -0.15533572 -0.13851032 0.056229047 0.123467036
0001d0 78 f1 b3 bc c6 51 38 3e 29 15 0f 3e d8 64 41 bd
       -0.021965727 0.17999944 0.13972916 -0.047215313
0001e0 cc bc 67 3c fc ae d0 bc 21 1f 99 bd ab 02 62 3d
       0.014144134 -0.025474064 -0.074766405 0.055178326
0001f0 2c d5 b5 3c 9f 64 d6 bd ad c9 bb bd 95 3f 4b bd
       0.022196375 -0.10468411 -0.09169326 -0.049621183
000200 84 cd 73 3d 91 2b 38 3d dd f6 52 3e e2 2c a1 3d
       0.059522167 0.044963423 0.20601983 0.07869889
000210 49 20 14 3e 47 f0 94 3e 9d e1 24 be b9 42 17 3d
       0.14465441 0.29089567 -0.1610169 0.036928866
000220 46 67 66 3d aa 3b 67 3c 61 2c 02 3c 79 01 3a bc
       0.056250833 0.014113346 0.007945151 -0.01135289
000230 8c c6 c2 bb 23 52 88 3c 95 6a 7f bd ce 3b 43 3d
       -0.005944079 0.016640728 -0.062357504 0.047664456
000240 43 bf 1b 3d 2d a0 ae bc c7 d1 46 3e ef 0c ba 3d
       0.0380242 -0.021316612 0.19415961 0.09084498
000250 f9 de d7 bd 85 68 3d be ba 16 5b be da 26 b5 bd
       -0.105405755 -0.18496902 -0.21395388 -0.08845301
000260 af 69 c1 3d 09 8f ce bc 0a 24 3c 3d 6c 64 08 be
       0.09443986 -0.025214689 0.045932807 -0.13319558
000270 a8 50 80 bd 07 9a 95 3c 24 bc 03 be 88 d8 13 be
       -0.06265384 0.018261923 -0.12864739 -0.14438069
000280 42 f1 66 be fa 12 0b be 33 8f a8 3b a1 c5 0c bd
       -0.2255297 -0.13581458 0.005144024 -0.03436816
000290 a7 81 28 3d b1 71 56 3c b9 8a b1 bd 87 b5 7e 3d
       0.04113927 0.01308863 -0.08669037 0.062184837
0002a0 0f 8f 01 3e 91 63 71 3e d7 0f 26 3e 9c 1e b0 3d
       0.12652229 0.23573138 0.1621698 0.08599588
0002b0 ed 54 de 3d eb 25 98 3c 9a 4d 79 3d 06 65 4a bd
       0.10856042 0.018572768 0.060865022 -0.04941275
0002c0 f2 db de bc e0 93 2d bd fc 84 5d 3e c1 e4 a3 3e
       -0.027204487 -0.042377353 0.21632761 0.32010463
0002d0 89 ce ba be f7 ea a6 3d 19 ae 09 bd 36 26 f9 3d
       -0.364857 0.08150285 -0.033613298 0.12165491
0002e0 e5 ac a3 3e 01 21 81 bd 6d 90 5f 3c f6 19 09 be
       0.31967846 -0.06305123 0.013645274 -0.1338881
0002f0 a4 ff 84 3d 7f e0 12 bd 4a 74 57 bd 3d 84 ad ba
       0.06494072 -0.035858627 -0.052601136 -0.0013238263
000300 ac 9b 9b bd cd 11 23 3d e4 2d 49 3e 2b 9c 66 bc
       -0.075980514 0.039811898 0.19646412 -0.014075319
000310 d3 f9 15 be 8f 04 8e be 99 25 cc bd 76 05 84 3c
       -0.14646082 -0.27737853 -0.09968109 0.016115885
000320 53 1c 63 3c cc 6c 79 bd 39 bd d6 bd dd a6 01 bd
       0.0138617335 -0.060894772 -0.1048531 -0.031653274
000330 46 9b 12 bd bb 59 5a be 9a c3 d6 bd f9 61 45 bc
       -0.03579261 -0.21323292 -0.10486527 -0.012047284
000340 8e 05 32 bc f1 b1 b2 bc 69 eb 2b ba af c0 6a bc
       -0.010865582 -0.021813365 -0.0006558211 -0.014328166
000350 03 f5 07 be 67 a6 30 be eb 86 c9 bd 1d 99 a6 bd
       -0.13277058 -0.17250977 -0.09840187 -0.08134673
000360 21 a4 3a bd 48 57 c1 3a d4 64 ed bc b4 6e 3c bd
       -0.04556668 0.0014750743 -0.028978743 -0.046004012
000370 a5 52 4c bd cf c5 bd bc a0 88 15 bd d5 4e 39 bc
       -0.049883503 -0.023165612 -0.03650725 -0.011310299
000380 11 9c 8e 3d 55 f0 23 3d bf 1c 2b be fc f1 47 bd
       0.06963361 0.04002412 -0.16710185 -0.04881476
000390 eb e7 7f bc 0f 5c e0 3c 1a 7a 50 3e f2 c4 96 3d
       -0.015619258 0.027387647 0.20359078 0.07361783
0003a0 38 d5 91 3e 61 4f 1c 3c 18 d2 3f 3c f4 52 c5 3d
       0.28482985 0.00954041 0.011707805 0.09634963
0003b0 fe 5d af 3c 25 f2 a4 bb 80 9c 83 3c a5 c2 da 3d
       0.021407124 -0.0050337487 0.016065836 0.10681657
0003c0 22 a7 e6 3d 83 00 01 bc 65 76 da b9 7e 05 85 bc
       0.11262347 -0.007873657 -0.0004166841 -0.01623797
0003d0 fe 4e d5 bd 91 ab ab bd 03 25 11 3c 32 91 8c 3d
       -0.10415457 -0.08382333 0.008858922 0.06863631
0003e0 5e f5 03 bd f0 f5 bd 3a 78 dc 5e bd 89 4a 8f bd
       -0.032216422 0.0014492851 -0.054409474 -0.06996638
0003f0 41 54 6b be 6c d7 65 be e9 f3 40 3d 0b d1 3d bb
       -0.22981359 -0.22445458 0.04710761 -0.002896371

bias f4 [32]
000000 90 7c 0e be 61 e0 76 be fd 47 e4 3d 83 bf 1a be
       -0.13914704 -0.24109031 0.11146543 -0.15112118
000010 5c 55 e6 be c6 0b 9e be c8 87 12 be cd 0b 59 be
       -0.44987 -0.30868357 -0.14309609 -0.21195908
000020 ed ac f7 bd 91 70 9a bd 2b 51 1b be cf 19 8b be
       -0.1209353 -0.075410016 -0.15167682 -0.27168128
000030 00 f2 25 be b4 0d 73 be dd 44 eb bd 02 9b 4a be
       -0.16205597 -0.23735696 -0.11487744 -0.19785693
000040 19 5e 40 bd eb 66 3e bc bf f4 0a bb b2 22 09 be
       -0.04696474 -0.011621217 -0.002120301 -0.13392141
000050 29 36 9f 3e 6c 54 61 bd 52 14 cd bb ce e5 88 be
       0.31096008 -0.05501215 -0.006258526 -0.26737827
000060 37 88 82 be a8 28 fb bd 19 38 c7 bd 85 61 88 be
       -0.2549455 -0.12263614 -0.09727497 -0.26636901
000070 55 47 e1 bd e1 3d 66 3d 0a 15 ae bd 9e 0d 90 3d
       -0.10999934 0.056211356 -0.08500107 0.07033847

weight f4 [32]
000000 77 49 b0 3e 3d c2 06 3e 65 8e 4b 3e e0 61 63 3e
       0.3443105 0.13160034 0.19878538 0.22205305
000010 4d fa f7 3d 4b af 87 3d 65 f8 44 3e 58 ef 65 3e
       0.12108288 0.06625231 0.1923538 0.22454584
000020 62 32 84 3e bb 6b 47 3e 1c ac aa 3e 64 f3 4f 3e
       0.2581969 0.1947469 0.33334434 0.2030769
000030 92 ac f0 3d b3 c6 04 3e 21 f5 2b 3e 4d 58 1c 3e
       0.11751665 0.12966423 0.16792728 0.15268059
000040 1f 55 9b 3e 3f 15 ba 3e 4b da b4 3e bb 2b 73 3e
       0.3033838 0.36344334 0.35322794 0.2374715
000050 08 a5 5d 3e 75 0b b5 3e 9a 5f 3a 3e b5 25 3b 3e
       0.21644986 0.35360304 0.18200532 0.18276103
000060 f1 5e cb 3d 5f 44 36 3e c4 34 bc 3e 9e 10 6e 3e
       0.09930218 0.17799519 0.36759007 0.23248526
000070 10 a5 7d 3e 56 f0 e7 3d 03 82 3a 3e 3f 1f 14 3e
       0.24769998 0.11325137 0.18213658 0.14465044

bias f4 [32]
000000 d1 a3 0e 3c e5 4d 5e 3b 52 92 e6 bd 16 e8 d6 3d
       0.008706049 0.003392094 -0.11258377 0.10493486
000010 f2 e4 1f 3c e4 d9 17 3c 85 b0 15 3d bd b8 81 bd
       0.009759175 0.009268258 0.036545295 -0.06334064
000020 a4 10 f3 3c 38 ab 77 3b 86 d8 6e 3d ba 3e 98 3d
       0.02967102 0.0037791263 0.05831196 0.07433839
000030 e0 a9 17 3c 67 0c fe 3b a5 e4 2f 3d f9 ae 84 3c
       0.00925681 0.0077529433 0.04294266 0.016196715
000040 bb 01 09 3e fa 7b b0 3c f7 bd 41 3e 63 c8 cb 3b
       0.13379566 0.021543492 0.18920122 0.0062189563
000050 16 1b 77 bd 95 4e 6d 3d 2a 06 08 bd 09 a6 8c 3d
       -0.060328566 0.05793627 -0.033209004 0.06867606
000060 25 4c 08 bc 96 18 b2 3d a1 bc 82 3c 61 ef 38 3d
       -0.0083189355 0.08696096 0.015959086 0.045150165
000070 77 26 98 3d 35 0d 13 bc 39 e4 46 3c 8d 8d a9 3b
       0.074292116 -0.008975317 0.012139373 0.005174345

running_mean f4 [32]
000000 a3 5f 8a 3e 58 bd d2 3d 96 81 26 3f bc d7 d1 3e
       0.2702609 0.10290021 0.6504148 0.40984905
000010 d2 6d 4a 3c 3b 02 49 3e b1 2d 5d 3e c5 69 a1 3e
       0.012355285 0.19629757 0.21599461 0.31526008
000020 d1 95 a1 3e 2a da 1a 3e 13 07 4e 3e e7 79 c7 3d
       0.31559613 0.15122285 0.20119886 0.09740048
000030 08 9f c0 3e 16 88 27 3d 53 a8 23 3e ea 66 07 3e
       0.3762133 0.040901266 0.1598218 0.13222852
000040 eb 97 35 3e 69 05 a4 3e a8 a4 92 3e a1 70 a2 3e
       0.17733733 0.32035378 0.28641248 0.31726554
000050 9a 93 0f 3f 33 76 9a 3e de 75 00 3e 79 50 5a 3e
       0.560846 0.30168304 0.12544963 0.2131976
000060 3e 6b 60 3e 7b 46 c2 3e 8c e1 9d 3e c4 c7 ac 3e
       0.2191591 0.37944397 0.3083614 0.3374616
000070 b9 f9 1b 3e 80 99 cc 3e 20 a2 94 3e b9 ca 93 3e
       0.1523198 0.3996086 0.29029942 0.28865603

running_var f4 [32]
000000 8f 2e fe 3e d8 bb 45 3e 1a d0 db 3e 02 76 bc 3e
       0.49644896 0.19309938 0.42932206 0.36808783
000010 d9 dd d6 3b 1f 28 96 3e 42 80 82 3e 36 c2 85 3f
       0.006557208 0.29327485 0.25488478 1.0449893
000020 40 9c 35 3f 8e ab c2 3d d3 69 a6 3e 05 47 65 3d
       0.70941544 0.09505378 0.32502612 0.055975933
000030 ff a5 cd 3e 57 b6 84 3d ee 81 0d 3e a6 60 26 3e
       0.40165707 0.06480091 0.13819095 0.16247806
000040 6e cf 94 3d b2 4b 15 3f 02 59 62 3e 2b 60 cc 3f
       0.072661266 0.58318627 0.22104266 1.5966848
000050 2c ca 73 3e b6 62 72 3f 3c 78 22 3d 95 44 35 3e
       0.23807591 0.9468187 0.039665446 0.17701943
000060 65 cd 65 3e 67 55 79 3e b9 e4 b6 3e 5f f8 9a 3f
       0.22441633 0.24348985 0.35721377 1.2107047
000070 d4 11 bc 3d 15 a3 88 3e 2c b8 25 3e 63 93 c1 3d
       0.09183088 0.26686922 0.16183537 0.0945194

weight f4 [1, 512]
000000 2f 21 ab b9 86 ac 29 bc 98 4c 3e 3e c0 00 b0 3d
       -0.00032640385 -0.010356074 0.18583906 0.08593893
000010 6b 24 0a 3b e6 e6 de 3c 1e 45 0b bd 01 c8 55 3b
       0.0021078836 0.02720971 -0.034001462 0.0032620432
000020 91 03 b6 bc c5 74 ca 3c 57 ab 25 3c 91 fd 9f bd
       -0.022218497 0.024713883 0.010111651 -0.07812036
000030 89 6f f6 bc c4 b3 f1 bb 71 3f d2 bc 1f a9 a1 3c
       -0.030082481 -0.007376166 -0.025665017 0.019733964
000040 8f 9a b3 3a 35 eb e3 b9 01 0c e9 bc 06 11 28 3e
       0.0013702678 -0.00043472057 -0.028448107 0.16412744
000050 02 9c 00 3e 71 89 da bd e6 97 88 3d de a8 80 3d
       0.12559512 -0.10670746 0.06669597 0.06282209
000060 ab 92 80 bc a3 31 54 bc 5b 6c c6 3c 44 bf 06 3b
       -0.015694937 -0.012951287 0.02422159 0.002056078
000070 44 84 ef bd 1d a9 4c 3c 0b 80 c0 3c bc 34 90 bd
       -0.116951495 0.012491492 0.023498556 -0.07041308
000080 53 07 b2 3c 9d c1 f0 bd fc ee b9 bd ed d3 90 3d
       0.021732008 -0.11755679 -0.09078786 0.07071672
000090 59 51 aa 3d 6f 7f 8f 3c e9 2e c1 3b 5f e2 cb 3c
       0.08316297 0.01751682 0.0058954847 0.024888216
0000a0 2a b8 29 bc f5 9b 30 bd 78 7c ac 3a 0a 4a 83 3a
       -0.01035885 -0.043117482 0.0013159653 0.0010016572
0000b0 07 59 39 3c 66 4f e4 3b 2a d6 6b 3c de a0 20 bc
       0.01131273 0.006967473 0.014394322 -0.009803979
0000c0 0d 87 a9 bc ba dd 42 3e eb c6 aa bd 11 be 53 be
       -0.02069428 0.19029894 -0.08338722 -0.20677973
0000d0 6f 34 97 bb 2f 3e b8 bb 2a 0a e8 3b 4d cd 53 3e
       -0.004614405 -0.0056226472 0.00708129 0.20683785
0000e0 34 f0 0c bb 42 92 1e 3b a7 b6 25 bb 6e 02 53 3c
       -0.0021505477 0.0024196063 -0.0025285871 0.012878997
0000f0 d1 cf 13 3d 0d b9 29 3e d0 ab a1 3d f4 18 e0 bc
       0.03608686 0.16574498 0.07894099 -0.027355649
000100 09 11 72 3c bf 0a ba bd 36 ff 24 be 55 ea 91 bd
       0.014774569 -0.09084081 -0.1611298 -0.071247734
000110 4f 61 28 3e da 6c 5c 3e 68 4f 7d bc 34 44 ed ba
       0.1644337 0.21525899 -0.015460826 -0.0018101991
000120 4a e4 83 3c f9 48 73 3d 96 16 74 bd 8b 59 8a b8
       0.016100068 0.059395764 -0.059591852 -6.5970315e-05
000130 2e 69 45 3b ff 0d f4 3c 86 2e c9 bb 14 42 29 bd
       0.0030122506 0.02979183 -0.006139579 -0.041322783
000140 b8 1c 5c 3d 06 a8 39 be b8 2b 95 bc a1 68 8e bc
       0.053738326 -0.18130502 -0.018209323 -0.017383875
000150 bb 4a ee 3d 89 d0 4f 3d 44 c4 30 3d 44 45 a0 bc
       0.116353475 0.050735984 0.043155923 -0.019564278
000160 05 fb c8 bd 3a e1 a8 3d f6 ed 96 3d 70 73 4d 3c
       -0.09813503 0.082460836 0.07369606 0.0125397295
000170 1c a9 1d bd b4 99 51 bd c2 f2 d7 bc 9c 2c 6e bb
       -0.038491353 -0.051171973 -0.026360873 -0.0036342507
000180 db 4d aa bd c4 08 c9 bb 87 50 b6 ba 96 a8 60 be
       -0.08315631 -0.006135078 -0.0013909497 -0.2193931
000190 32 68 ed 3d 06 bf 47 3e 16 c7 83 bd a0 42 d6 3d
       0.11592139 0.19506463 -0.06434457 0.104619265
0001a0 26 4a 2d 3d a5 80 d2 3c 3c de 16 bd 41 71 82 bd
       0.04230704 0.025696108 -0.036833033 -0.06369258
0001b0 7d d4 94 3d b2 78 1b 3c 95 eb 7b 3c f3 b6 51 bd
       0.072670914 0.009489225 0.015375991 -0.051199865
0001c0 5e 7a 8c ba f2 45 a2 bd 12 cb ff 3d 9d db bf 3c
       -0.0010717621 -0.07923497 0.124899045 0.02342015
0001d0 66 53 c0 3b a1 74 34 bc e2 4c 77 3c 65 fa 49 3c
       0.005869317 -0.011014135 0.015094014 0.012327765
0001e0 b3 85 7f ba 30 e8 05 3c 83 a7 16 3c d3 19 12 3c
       -0.0009747401 0.008173034 0.009195211 0.00891729
0001f0 a8 c5 9a 3b 46 b7 2e bc 4a cb 99 ba 9a fd 8e 3b
       0.0047232695 -0.010663813 -0.0011733558 0.0043637278
000200 a0 86 b8 bb c2 eb 85 ba fb 37 31 3e c7 90 70 3d
       -0.005631283 -0.0010217356 0.17306511 0.05873182
000210 e5 14 04 3c 82 86 2a 3c 13 1a 36 3e dc 2d 2e 3d
       0.008061622 0.010408046 0.17783384 0.042524204
000220 7e 18 4f 3b 3d 1b 4a 3c 11 cc 87 3c a5 db f9 bc
       0.0031600292 0.012335596 0.016576799 -0.030500242
000230 48 b1 47 bd e2 2f 02 bd cb 12 23 bd 03 ae 85 3c
       -0.048753053 -0.031783946 -0.039812844 0.016318327
000240 4d 65 3f bd b7 cb 0c 3e 31 77 15 b7 17 d6 25 3c
       -0.046727467 0.13749586 -8.9088435e-06 0.010121844
000250 0b b6 19 be d6 4a 67 ba 91 4f 85 bd 6c 34 81 3c
       -0.1501085 -0.0008823102 -0.06509317 0.015772067
000260 7d e6 69 bc d7 a6 09 3d 95 08 08 bd b6 be 8c 3c
       -0.014276144 0.033606376 -0.03321131 0.017180782
000270 ac a9 0f 3b 06 11 a8 ba 91 04 89 bc 66 36 68 bc
       0.00219212 -0.0012822456 -0.01672581 -0.014173126
000280 92 9e 35 bb a2 92 b6 3c 41 17 15 3e 36 e0 4b 3e
       -0.0027712923 0.022286717 0.14559652 0.19909748
000290 16 9c 1a bc 16 ab f6 3d aa e5 c7 3c a8 45 6f bd
       -0.009436628 0.12044351 0.024401505 -0.05841604
0002a0 f0 3f 17 3c f6 11 04 3c 1d a8 c5 bd fd ba cc bc
       0.0092315525 0.008060923 -0.09651206 -0.024991507
0002b0 28 46 ad bc 74 ce 6b bc f6 03 7f 3b b0 e3 ea 39
       -0.021151617 -0.014392484 0.0038912273 0.00044801598
0002c0 5e 97 c8 3d e9 ab f9 3d 8c 1b 65 3e 07 ac 10 bd
       0.09794496 0.121909924 0.2237379 -0.035320308
0002d0 80 8e 81 3c 0c 0a 90 bc 7d f8 ce bb 0a 98 46 3d
       0.01581502 -0.017582916 -0.006316243 0.04848484
0002e0 2a 5d 51 be 3d 8a 48 be 08 00 7c bd e8 c6 e3 bc
       -0.20445696 -0.19583984 -0.061523467 -0.027804807
0002f0 90 89 08 bc c9 50 21 38 e5 8f db bb c3 ac 46 bc
       -0.008333579 3.846063e-05 -0.006700503 -0.012126151
000300 5a ee 8b 3d 78 e6 21 3e 2d de 40 bd bf 40 fa bd
       0.06832571 0.15810573 -0.047086883 -0.122193806
000310 ad 24 dd bc 54 a8 04 bd 53 8c 6f bc 5a 4e a5 3c
       -0.026995027 -0.032387093 -0.014620858 0.020178962
000320 0c 2b 0e bc 69 40 26 bc f6 dc 3a bc ae 62 22 bd
       -0.008677255 -0.0101471925 -0.01140522 -0.03964489
000330 00 04 4f bd d4 3a b2 3a 09 ee 71 3c 16 a8 13 3d
       -0.050540924 0.0013597854 0.014766225 0.03604897
000340 e7 4c d9 bc c6 98 be 3c 8a d1 86 be 9b 30 87 3d
       -0.026525928 0.023266207 -0.2633174 0.06601068
000350 27 30 e9 3d 48 37 55 bc 17 c5 c4 bc 73 13 cb 3d
       0.113861375 -0.013013668 -0.024019761 0.09915819
000360 ed c9 0f bb 52 e9 a8 bc cb 48 c4 bd b8 44 33 3d
       -0.0021940426 -0.020619068 -0.09584197 0.043766707
000370 1f d7 e0 bc 4d 24 07 bd 33 9d 8b 3d 70 4a 92 bd
       -0.027446328 -0.032993603 0.06817093 -0.07143104
000380 c9 56 a3 bb b9 84 76 bd 40 ec 59 be eb 45 0b 3e
       -0.004984711 -0.060185168 -0.21281528 0.1360089
000390 09 6b d7 bd 6f b5 04 3e 8d 21 b8 3d f2 4d ae bb
       -0.10518462 0.12959836 0.08990774 -0.0053193504
0003a0 7a f1 eb 3c 87 53 dc 3c b6 a2 3a 3d 51 af 16 bc
       0.028801668 0.026895298 0.04556533 -0.009197072
0003b0 5f e5 49 bc 65 ac 09 bc 9a e0 07 bd b4 c6 19 bd
       -0.012322753 -0.008402918 -0.03317318 -0.037543014
0003c0 fe 5a c6 bd 97 b9 82 3a de 19 8d bd b0 3f 69 3d
       -0.09685324 0.0009973523 -0.068896994 0.056945503
0003d0 9a 04 6c 3e 90 c1 d7 3d 49 49 31 3b cb fa 25 bd
       0.2304863 0.10534966 0.0027051738 -0.040522378
0003e0 60 bd 34 bd b4 73 9d bc 13 26 02 3d e1 19 16 3e
       -0.044125915 -0.01922021 0.03177459 0.1465831
0003f0 0e 14 9b bb 90 49 30 bc ea 18 fa 3c 3c 77 35 bd
       -0.0047326153 -0.010759726 0.030529458 -0.044303164
