SpecGen/model/S2C_Model/Cd/model.pth (torch, 37467 bytes, 19 tensors)

weight f4 [4, 1, 17]
000000 8c 70 26 be e0 f4 38 be d0 e7 33 bd ac 2e 5b 3e
       -0.1625387 -0.18062162 -0.043922246 0.21404523
000010 d6 24 90 bd 44 3c 39 bd c2 8c 52 be 5a f1 63 be
       -0.07038276 -0.04522349 -0.20561507 -0.22260037
000020 08 3d 67 3e c0 15 48 3e 26 86 51 3e a6 1c 12 3e
       0.22581875 0.19539547 0.2046133 0.14268741
000030 f0 b4 5f be ea 86 33 be 1e 97 73 3e 9f 3c f4 bd
       -0.21846366 -0.17531934 0.23788115 -0.11925625
000040 77 d5 02 be 42 d5 9a 3d fd 30 71 be 74 4e 8e be
       -0.12776743 0.07560207 -0.23553844 -0.2779423
000050 3a a5 8b be 66 4b 72 be 11 be 20 3e 43 b9 23 3c
       -0.27274495 -0.23661575 0.15697505 0.0099929
000060 08 4e 05 3e d4 64 6b 3d 22 00 5e 3e 5a a7 10 be
       0.13018048 0.057469204 0.21679738 -0.1412634
000070 8c 08 34 bd 8a a4 fa 3d 6b b2 a6 bd 56 d8 46 3c
       -0.043953463 0.122384146 -0.08139499 0.012136539
000080 2f 2b bf 3e e1 c1 37 3e 6c 11 a3 3e 00 4b 2a bd
       0.37337634 0.17945053 0.3184923 -0.04157543
000090 91 11 43 3e 9b 62 c4 3d e9 fa 1b 3e 65 6b 46 3e
       0.1904967 0.0958912 0.15232433 0.19376905
0000a0 09 45 57 bc 14 d4 43 3e 92 de 43 be ce 89 72 be
       -0.013139018 0.1912387 -0.19127873 -0.23685381
0000b0 f4 dc 3e bd 14 85 5e bd 53 13 c1 bd 43 94 8e bd
       -0.046597436 -0.054326132 -0.09427514 -0.069618724
0000c0 65 a1 31 bd e0 6d 1d be e3 81 c7 bd 69 fd 8d bd
       -0.04336681 -0.15373945 -0.09741571 -0.069331
0000d0 eb a6 1e 3e 7d 6d 35 3d 17 44 ff 3b 6e dc 05 3c
       0.15493362 0.04429387 0.0077900994 0.00817023
0000e0 a8 3c 97 3e 83 09 04 bd 0a e5 17 3e ed 8d a5 3d
       0.29538465 -0.032235634 0.14833465 0.08083711
0000f0 1a 6b 71 3e b4 10 0b be 3c 89 35 3e 42 32 c8 3d
       0.23576012 -0.1358059 0.17728132 0.09775211
000100 c8 9e 73 be 24 27 29 3d e3 5f b5 be 5b 55 06 be
       -0.23791039 0.041297093 -0.35424718 -0.13118498

bias f4 [4]
000000 80 08 84 bc bf 57 28 3e 90 40 77 3e 01 74 29 bc
       -0.016117334 0.16439722 0.24145722 -0.010342599

weight f4 [4]
000000 00 00 80 3f 3e a8 9f 3f 5c 09 2a 3f cb ed 65 3f
       1.0 1.2473218 0.6642053 0.8981597

bias f4 [4]
000000 b2 15 84 3d 9d c2 b0 bd ee fe cf bd 4d 18 d1 bc
       0.064494506 -0.086308695 -0.10156046 -0.025524283

running_mean f4 [4]
000000 00 00 00 00 de cd 67 3e 89 51 fa 3e 8d 0d 37 3f
       0.0 0.22637126 0.4889033 0.7150505

running_var f4 [4]
000000 04 00 00 00 7b 62 48 3b a5 cd 53 3c 94 13 98 3d
       6e-45 0.0030576277 0.012927447 0.07425609

weight f4 [16, 4, 17]
000000 b7 85 ed 3c 84 2e 09 be d6 f5 f1 bc 7b e3 70 3c
       0.028994424 -0.1339665 -0.029536169 0.014702673
000010 ae 8a 33 be 88 1c b0 3c be 71 0d be be 40 4f be
       -0.17533371 0.02149798 -0.1381292 -0.20239541
000020 de 4c 46 bd c4 d7 13 be 33 c4 4c be f4 7e 08 bd
       -0.04841315 -0.14437777 -0.19996719 -0.033324197
000030 12 43 cf 3c 66 20 77 bd a2 8c 11 bd 8d b9 49 3c
       0.025300536 -0.060333632 -0.03553451 0.012312305
000040 8c 20 34 be d8 9c e4 bd 8b 6d be 3d 6e 84 20 bd
       -0.1759054 -0.11162728 0.092982374 -0.039188795
000050 7b 0c bb bb c0 a6 9d bd 32 58 d7 3c 84 81 17 be
       -0.005708275 -0.07697821 0.026287172 -0.147955
000060 8a d0 38 be ef dd 0f 3d d8 27 ae bc 15 98 c2 bd
       -0.18048301 0.03512376 -0.021259233 -0.095016636
000070 eb c8 a9 3d a5 ef 5b be 62 00 67 3d a1 97 be bd
       0.08290275 -0.21478136 0.05639685 -0.09306265
000080 88 3b 08 be d1 43 3d be f2 53 27 bd 3e 0b 08 3d
       -0.1330396 -0.18482901 -0.04085154 0.033213846
000090 6f 53 07 3e c0 d9 27 3e 34 ed 55 3e 41 00 43 3e
       0.13215421 0.16391659 0.20891267 0.19043066
0000a0 70 39 5b 3e 0c de 55 3e 57 74 0d 3d 4e 0c 0f 3d
       0.2140863 0.20885485 0.03453478 0.034923844
0000b0 43 34 f2 3d f3 cc ae ba b1 f7 8d 3d 71 fa f8 bd
       0.118263744 -0.0013336226 0.06932009 -0.12157143
0000c0 05 80 05 be bc e5 b2 3d 7f cf 70 3d 28 7f 89 3d
       -0.13037117 0.087352246 0.058791634 0.06713706
0000d0 64 5d 5d bd b7 78 0e 3e 01 c9 8a 3d cc ed 1c 3e
       -0.054044142 0.13913237 0.0677662 0.15325087
0000e0 3e 2c 1a 3e f0 0f b4 3d 8f 3c 3f 3d 70 72 e7 bd
       0.1505594 0.08792102 0.046688613 -0.11301124
0000f0 79 7c cf bc e0 f8 1a 3c 41 31 80 bd a4 94 ae bd
       -0.025327908 0.0094587505 -0.062593944 -0.08524445
000100 92 03 ea bd 0b f3 b5 bd df 15 1d be 59 11 21 be
       -0.11426462 -0.088842474 -0.15340374 -0.15729274
000110 73 e5 95 3d f1 3b a6 bd 1e 20 1e 3c bf 18 86 bd
       0.073191546 -0.08116902 0.009651212 -0.06547689
000120 c5 5c 7a 3d d1 17 19 3c 73 47 95 bd 34 f7 d4 3c
       0.06112363 0.009344057 -0.072890185 0.025996782
000130 4c 61 89 bd 24 f4 35 3b 48 07 01 3c a5 d6 6f bd
       -0.06708011 0.0027763927 0.007875271 -0.05855431
000140 a2 9e df bd f9 26 8e bd a6 4b c0 3d fe 8a c2 bd
       -0.10918929 -0.06941027 0.09389429 -0.09499167
000150 1b 1f 14 bc d3 c8 fa bd 1f 29 95 3d 69 17 3c be
       -0.009040619 -0.122453354 0.07283234 -0.18368305
000160 da fd 46 3d 40 c3 3d 3e c1 c1 ae bb 5a 77 7d 3e
       0.048581935 0.18531513 -0.005333156 0.2475256
000170 a5 af 80 3d 1a 58 16 bd fd ea 1c 3d 49 d3 16 be
       0.062835015 -0.036705114 0.03831004 -0.14729036
000180 7f a7 14 be df 34 b6 bc 58 a6 6d be 2b b8 6b be
       -0.1451702 -0.022242008 -0.23207986 -0.23019473
000190 e5 87 d3 bd 5f fc 45 be e6 df 28 3d 0f 4b 36 3e
       -0.10328654 -0.19334553 0.04122915 0.1780207
0001a0 c1 4d 5e 3e c7 a1 c5 3d 3a 53 12 3e e4 6d 9d bd
       0.21709348 0.09649997 0.14289561 -0.076869756
0001b0 47 0e 89 bd 96 bc 3a 3d 21 e7 78 bd 37 d2 92 3d
       -0.06692176 0.045590006 -0.060767297 0.071690015
0001c0 d7 96 ff bc ae ac ae 3d ec c2 56 3d d5 0d 19 bc
       -0.031199856 0.0852903 0.052431986 -0.009341677
0001d0 4a 83 4b bd a1 7a 91 3c 26 c2 12 be 79 70 20 3e
       -0.049685754 0.01775867 -0.14331874 0.15667905
0001e0 9a cb 53 3e 7b 72 26 3e ce f5 c0 3d 89 c2 c1 bb
       0.20683137 0.16254608 0.094218835 -0.005913083
0001f0 57 46 74 3d 85 e7 a9 3d 8b dd 77 bd c5 e1 58 3d
       0.059637394 0.08296112 -0.060514014 0.052949686
000200 62 f5 c9 bd e3 bb c9 bc 4a 13 a6 3d 3c 8a e3 bd
       -0.09861256 -0.024625724 0.08109148 -0.111103505
000210 ee b4 bc bc 0a 2d 53 3d 7e 3c 7b bd a5 9c 00 be
       -0.023035493 0.051556624 -0.061336987 -0.12559755
000220 0f e3 69 3c 9d ce 48 bd 73 6b 98 3c 9d ef 19 bc
       0.014275326 -0.049025167 0.018605923 -0.009395507
000230 63 c0 b3 bc 34 75 97 bd e7 76 32 be 58 a6 9f bc
       -0.021942323 -0.073954016 -0.1742817 -0.019488499
000240 3d 49 34 be 31 0f a2 3c 4b 63 e6 bc 6c 88 13 be
       -0.17606063 0.019782634 -0.028123518 -0.1440751
000250 1f d4 90 bd 64 06 19 be 2b 16 d1 bd e1 55 cf bd
       -0.07071709 -0.14943844 -0.10209306 -0.10123802
000260 4e 02 a8 bc eb bf bb 3d a3 01 04 be e5 c6 78 3d
       -0.020508911 0.09167465 -0.1289125 0.060736556
000270 d2 79 f9 bb bb ed f4 bd e5 ce cf bd 34 00 2f be
       -0.007613399 -0.11959406 -0.10146884 -0.17089921
000280 0e 3a 0e be 6e 35 2e 39 4f bf 18 be 09 08 d2 3d
       -0.13889334 0.00016613837 -0.14916728 0.10255439
000290 c6 78 e7 3d cd dc 1f 3e d0 e2 60 3e ac dd df 3d
       0.113023326 0.15611573 0.21961522 0.109309524
0002a0 00 cb 94 3d bb d5 70 be 31 d0 c1 bd 4c 95 09 be
       0.07265282 -0.23519032 -0.094635375 -0.13435858
0002b0 ae 8a f2 bd fe 62 84 bd 1c cf 26 3e 71 47 1d 3d
       -0.11842857 -0.06464194 0.16289943 0.03839821
0002c0 7c 7e 4e bc 8f 6a 43 3c 89 97 c9 3b 7d 5d 6e 3d
       -0.012603398 0.011927261 0.0061520976 0.058194626
0002d0 ac af 97 3d 60 35 bc 3d 28 71 f8 bd 69 1d 84 3c
       0.074065536 0.09189868 -0.12130958 0.016127305
0002e0 c8 35 79 ba 91 88 0a 3c c5 04 9e 3e 43 45 e6 bd
       -0.000950661 0.0084554115 0.30863014 -0.112436794
0002f0 5e 07 89 bd e2 56 cf 3d cf ec 92 3d ac 25 b4 3c
       -0.06690858 0.101239935 0.07174074 0.02199062
000300 ae e5 8c 3d 85 a9 8d bd d2 3b ae 3d c7 fd 14 bc
       0.068797454 -0.06917099 0.085075036 -0.009093708
000310 47 a8 b3 3d 96 43 e6 3d a0 67 8b 3d 1b 0c 82 bb
       0.08772331 0.1124336 0.06806874 -0.0039687282
000320 4d c2 cb 38 39 ab 70 3e 74 2a 93 3e d4 13 f6 3d
       9.715986e-05 0.23502816 0.28743327 0.12015501
000330 a0 bd 2d bd 72 c6 49 3d 28 00 47 bb 89 f3 f6 3c
       -0.04241717 0.049261518 -0.0030365083 0.030145423
000340 1c 9c be bd cf 39 30 be 7d 63 3b be 45 22 2d be
       -0.09307119 -0.17209552 -0.1829967 -0.16907604
000350 9c b4 e2 3c 71 8e b1 bd ef 99 16 3d fe f4 0b bd
       0.027674012 -0.08669747 0.036767896 -0.03416919
000360 23 45 39 be cb a8 6e bd a0 c4 f4 bd 5f 75 08 be
       -0.1809278 -0.058266442 -0.11951566 -0.13326024
000370 d5 7c 10 be a8 da dc 3d c8 1a 9f be e0 cd 0e be
       -0.1411012 0.10783893 -0.3107512 -0.13945723
000380 84 9f 5e be 36 0d 6e bd 65 c5 81 bd 4c d9 8e bd
       -0.21740538 -0.058118068 -0.06336478 -0.0697504
000390 29 b6 06 3d 65 a4 70 3d 1c 4c c1 3d ae 3b 70 3d
       0.032888565 0.05875053 0.09438345 0.058650665
0003a0 5f 9e 46 3e cd d3 63 3e b3 eb 6c 3d d7 b8 aa bd
       0.19396351 0.22248764 0.057841968 -0.08336037
0003b0 85 2d 10 3d ae f9 2e 3e fe ce 48 3e 0d ab 0d 3e
       0.03519966 0.17087433 0.19610211 0.13834782
0003c0 dc a6 4e 3e 81 0d c6 3d d5 a2 8c 3d f1 47 17 3e
       0.2018084 0.096705444 0.06866995 0.14773537
0003d0 0d 3d 1e 3e 8c 8c ce 3d 57 fe b0 bd 6a 69 7b 3a
       0.15452977 0.10085401 -0.086422615 0.0009590598
0003e0 d1 5c ca bd e8 ee a6 3c 13 8a 1e be 49 a9 b2 3c
       -0.098809846 0.020377591 -0.15482359 0.021809237
0003f0 3c ed 42 3c 3d eb 27 bd 29 31 32 be 71 3f 4c 3e
       0.011897381 -0.040995825 -0.17401566 0.19946076

bias f4 [16]
000000 e5 e7 60 be 6a 00 c0 3d 6c 52 34 be 76 6d bb bd
       -0.2196346 0.09375079 -0.17609566 -0.091517374
000010 91 16 a8 3d 6c fb 52 be 0c f9 a2 be c9 64 f6 bd
       0.08207429 -0.20603722 -0.31830633 -0.12030942
000020 44 79 40 be bf 06 51 3e c9 21 82 bd da 9f ee bd
       -0.18796259 0.2041273 -0.063541 -0.11651583
000030 e4 35 97 3e ce e0 7d 3d ef 51 94 bd e4 8f 8d 3d
       0.29533303 0.06198197 -0.0724219 0.069122106

weight f4 [16]
000000 02 c6 64 3f 2b 65 8e 3f c4 91 68 3f ca b6 85 3f
       0.89364636 1.1124624 0.9084742 1.0446408
000010 82 80 a6 3f 55 29 8b 3f 94 b6 4a 3f 33 ac 51 3f
       1.3007967 1.0871989 0.7918484 0.8190338
000020 b5 a0 5b 3f d3 0a 48 3f c1 2d 9e 3f 82 4c 3b 3f
       0.85792094 0.78141516 1.2357713 0.73163617
000030 6b 43 65 3f 74 21 47 3f ce bf 13 3f 40 60 9d 3f
       0.89555997 0.7778542 0.57714546 1.2294998

bias f4 [16]
000000 a6 a9 60 3e b8 53 71 3d 48 e0 8b 3d 82 f0 9d 3d
       0.21939716 0.05891773 0.06829888 0.07711889
000010 23 bf b6 3d 2a 90 ce 3d 58 94 93 3e 20 8b ce 3e
       0.08923175 0.10086091 0.28824115 0.4034052
000020 ef 1d b1 3e 7c 57 48 3e ba 5d aa 3e 3e 0f 52 3e
       0.3459315 0.19564623 0.33274633 0.20513627
000030 9f 94 ed 3d bb a0 ca 3d d2 b2 64 3e e4 eb b4 3e
       0.11600613 0.09893938 0.2233384 0.3533622

running_mean f4 [16]
000000 8e d7 b6 3e 06 7a e7 3e 7e 10 13 3e 15 eb af 3e
       0.3571133 0.45210284 0.1436176 0.3435904
000010 d2 c6 bf 3e 07 de 99 3e 93 13 a4 3d 37 51 98 3e
       0.37456375 0.30052206 0.08011546 0.29749462
000020 72 72 9c 3e 80 1d 19 3f 43 ff af 3e 15 5a a0 3e
       0.30556065 0.5981064 0.34374437 0.31318727
000030 db 3b 4d 3f 59 49 d9 3e 89 66 0e 3f 06 2a af 3e
       0.8016946 0.42438772 0.55625206 0.3421175

running_var f4 [16]
000000 d0 bb 85 3f 98 6b 8c 3f 4b a8 87 3e da 65 98 3f
       1.0447941 1.0970335 0.26495585 1.1906083
000010 08 cf 0a 3f cc 1c 82 3f e2 9f e3 3d 56 51 aa 3e
       0.54222155 1.0165038 0.111144796 0.3326518
000020 25 f3 64 3f f7 6f 9b 3f 26 24 17 3f a7 e5 86 3f
       0.8943351 1.2143544 0.59039533 1.0538834
000030 43 23 be 3f 1f e9 6c 3f 36 e9 05 3f cf 57 0d 3e
       1.4854511 0.92543215 0.52308977 0.13803028

weight f4 [32, 16, 9]
000000 ab b2 f8 bd f0 ee f9 3d 97 71 a0 3c 60 4d 9b 3d
       -0.12143453 0.12203777 0.019585414 0.075831175
000010 35 47 21 3d f2 f7 09 3c e3 9c 1c bd c5 f8 b6 bc
       0.03937455 0.008420931 -0.038235556 -0.02233542
000020 d4 4c 04 be 4d 27 2a be e3 b5 54 3d dd 99 5d 3d
       -0.12919933 -0.16616555 0.051931273 0.054101814
000030 90 48 8f 3e d2 bf 1d 3d 8d 62 5b bd 1b 05 9f bd
       0.27985048 0.038513012 -0.053560782 -0.07764646
000040 17 b6 5d bc 38 db 7d be 9c 61 17 be e6 0a 9c bc
       -0.013532183 -0.24790657 -0.14783329 -0.019048166
000050 f7 b8 f1 bd e4 08 3c be bf 2e 28 be 24 53 b3 bd
       -0.11802857 -0.18362767 -0.16424082 -0.08756092
000060 72 4b 6c be a3 08 f1 bd 87 70 59 bc bc 4a 91 3c
       -0.23075655 -0.117692254 -0.0132714575 0.017735831
000070 58 3b d0 bc 8d 23 b2 3d bb 9e ab 3d e5 6d cc 3c
       -0.025418922 0.08698187 0.08379885 0.024954746
000080 cd 53 58 3e c4 bf 20 3c 17 21 44 be 3d 67 49 be
       0.21125717 0.0098113455 -0.19153248 -0.19668289
000090 fc c8 2b 3e a0 b3 69 bd d7 f7 de be 3f 6c 56 be
       0.16775888 -0.05705607 -0.43548462 -0.2093973
0000a0 50 d8 b8 bc 82 87 68 bd 8f 23 81 bd a6 75 98 bd
       -0.022564083 -0.056769855 -0.063056104 -0.07444315
0000b0 08 93 11 bd a6 9b df bd ba 7e 1a be d3 ad 02 3d
       -0.03554061 -0.109183595 -0.15087405 0.031904053
0000c0 0a d0 ff bd e0 77 f9 bd 9f 95 7e be a6 a5 2d be
       -0.12490852 -0.121810675 -0.24861763 -0.16957721
0000d0 d2 ca 8b be b6 d7 a3 be 15 2c ba bd 4b bd 8f bc
       -0.27303177 -0.32000512 -0.09090439 -0.017546317
0000e0 8e 97 95 be e8 64 c3 be bc f6 6a bc 33 f0 34 be
       -0.2921719 -0.38162923 -0.014341053 -0.17669754
0000f0 a8 19 d2 bd 1f 70 04 3d fd f7 7a 3d 43 b4 0f bd
       -0.102588 0.03233349 0.061271656 -0.03508402
000100 38 a9 33 3e c0 f3 66 3d ae 15 15 3e 57 48 90 bd
       0.1754502 0.056384802 0.14559051 -0.07045048
000110 dd 24 87 3d 82 13 7f 3d bf 70 77 3d 6c 22 91 3d
       0.06598828 0.062274463 0.060410257 0.070866436
000120 38 f0 48 3d 47 0f 9e bd 86 d2 db 3c c6 64 5e bc
       0.049057215 -0.07717758 0.026833784 -0.013573831
000130 89 c2 85 bd 99 fa 42 bd a7 c0 01 be 0f 27 72 be
       -0.06531245 -0.04760227 -0.12671147 -0.23647712
000140 0b 31 20 3d 66 d0 1d be c7 96 0b be 1c b3 5d bc
       0.03910927 -0.15411529 -0.13631736 -0.0135314725
000150 1a c1 c0 3c 2b 03 80 bc 89 56 85 3d 92 97 88 3a
       0.023529578 -0.01562651 0.06510646 0.0010421148
000160 0d 81 c8 3a 4b 9b 3d 3e ab fc 37 3e f0 97 2f 3e
       0.0015297249 0.18516271 0.17967479 0.17147803
000170 54 c3 03 bd 8b f7 ba bc b7 ec a8 3d 39 eb 11 3e
       -0.0321687 -0.022823116 0.08248275 0.14249887
000180 52 62 67 3d 0b d8 22 3e 7d a2 83 3d e0 38 35 3d
       0.05649025 0.15902726 0.064274766 0.044243693
000190 a2 f9 f0 bd 43 5f cd bd b8 3c c3 bd 1a 97 0a 3e
       -0.11766364 -0.10027935 -0.095330656 0.13534203
0001a0 3b 2d 0c be 7a 77 95 bd 2f 0d d4 bd 9f 88 01 be
       -0.13689129 -0.07298179 -0.10354077 -0.12649773
0001b0 4a b3 1d bd 83 c7 e3 3c e1 7d bc 3d 4f 0a 30 3e
       -0.03850106 0.027805096 0.09203697 0.17191432
0001c0 bb 01 2d 3e b4 f9 8c bb ac 26 7a 3d ce 63 97 3c
       0.16895191 -0.004302228 0.061072037 0.018480208
0001d0 33 af 43 3d d7 d6 4d 3e 86 67 c8 bd 6c b3 2c be
       0.047774505 0.20101486 -0.097853705 -0.16865319
0001e0 f0 62 03 3d 14 b9 51 bd 53 8f f7 bd 09 2b a9 39
       0.032076776 -0.051201895 -0.12087884 0.00032266256
0001f0 25 f7 2d bb a0 aa 6c 3b 59 e2 d1 bd 92 03 6d bc
       -0.0026545015 0.0036112443 -0.102482505 -0.014466183
000200 c4 45 b3 bd 62 42 aa 3d 6d 61 bc bd aa fa e6 bd
       -0.08753541 0.08313443 -0.0919827 -0.11278279
000210 db ad 8b bd cf 7d af bb ca ad ac bc 52 60 36 3e
       -0.0682027 -0.0053555737 -0.021078963 0.17810181
000220 6c 1a d9 bd d8 1b f5 bd 81 3a cc 3d 89 a9 68 bd
       -0.10600743 -0.119682014 0.09972096 -0.056802306
000230 4c 41 e9 39 2c 27 40 bd 71 72 1a 3d 27 22 56 3e
       0.00044489873 -0.046912357 0.037706796 0.20911466
000240 ac 5f 2a be bd f9 f1 bd cb 4b 38 bd 3f bd 65 bb
       -0.16638058 -0.11815212 -0.044994157 -0.0035055426
000250 3f 71 f2 bd 85 c2 9f bd 65 7b 83 3c a9 3a 12 3e
       -0.11838006 -0.078007735 0.01605005 0.1428019
000260 ce f7 10 3e a7 d6 84 bd 29 eb d2 3d d9 9d 71 3d
       0.1415703 -0.06486254 0.102987595 0.058988426
000270 bf b1 db 3c 5f 1e be 3d df bc e8 3d 8a 9c 7f 3d
       0.026818154 0.092831366 0.11364149 0.062405147
000280 f9 1b 0b 3d 1a b8 30 bd ff ac bf bd fe d8 a3 bc
       0.033962224 -0.043144323 -0.09359168 -0.02000093
000290 bb b9 01 3e 6d d9 05 bd 4a fe 3a 3d 28 e5 c0 bd
       0.12668507 -0.032678057 0.045652665 -0.09418708
0002a0 7a 6c 22 bc 7d 68 de 3d 56 cb b1 bd 43 9e 67 bd
       -0.009913558 0.10859773 -0.086813614 -0.056547415
0002b0 04 3b 99 bd 42 2c af bb 41 08 28 bd 7b 50 2a 3e
       -0.074819595 -0.005345852 -0.041023497 0.16632263
0002c0 5a f6 b5 3d 70 76 9a bd 8e b7 9e bc 70 90 47 3d
       0.088848785 -0.075421214 -0.019374635 0.04872173
0002d0 cd 19 1b be 5f 58 46 be 46 7a b6 3e 98 1d 12 3e
       -0.15146561 -0.19369648 0.35640162 0.14269102
0002e0 81 b2 94 be 8f e2 02 be 0b 12 a5 bc d3 16 40 be
       -0.29042438 -0.12781738 -0.020150205 -0.18758707
0002f0 a7 4c a2 3b bb 54 dd bd 4b 35 a8 bd dc 4c ee bd
       0.0049529853 -0.10807177 -0.0821329 -0.116357535
000300 fc a9 42 bd 87 b5 92 bc bd 2d e4 3c 38 8b ec bd
       -0.04752539 -0.017908825 0.027853841 -0.11549991
000310 07 71 10 3e 5d 88 94 bd c5 a1 09 be 89 fe 56 bd
       0.14105617 -0.07252572 -0.13440616 -0.052488837
000320 fa a5 ea bd 7b b5 4c bd 75 68 20 bc 04 18 b9 bd
       -0.11457439 -0.04997776 -0.0097905295 -0.09037784
000330 18 d3 9f bb 5b 0f b3 bd 17 d1 89 bd 04 9d 91 bd
       -0.0048774593 -0.08743163 -0.06729334 -0.071100265
000340 69 4c d4 bd 7e 28 da bd fd 4f 08 be b0 0f de 3c
       -0.103661366 -0.106522545 -0.13311763 0.02710709
000350 ac c6 8e 3d 2d 24 f9 bd b4 8a 04 3b 37 94 d6 bc
       0.069714874 -0.12165103 0.0020224275 -0.026193721
000360 54 a3 2d be b2 71 46 be ce 77 89 ba ac 93 b3 3d
       -0.16956836 -0.19379309 -0.0010487975 0.087684005
000370 d2 92 bc bb 0d f8 5b 3d 5c 0f cb bd 21 60 ac bd
       -0.005754807 0.053703357 -0.09915039 -0.08416773
000380 e5 cd 23 3d db cb 88 bc 9d d9 2f bd 67 12 0f be
       0.03999128 -0.016698768 -0.04293214 -0.13971864
000390 71 1e da bc 13 95 50 3d 35 ef d9 bd 4a 43 c5 bd
       -0.026625844 0.05092342 -0.10641328 -0.09631975
0003a0 71 3e ca 3d 73 4a 51 bd 94 e4 27 be c4 0d 86 bd
       0.09875191 -0.05109639 -0.1639579 -0.06545594
0003b0 3f de 23 3d 18 61 91 3d 70 56 9c 3c 6e 3a 48 bc
       0.040006872 0.07098597 0.019084185 -0.012220962
0003c0 e8 1d 59 3d 36 9c 9d be ef be d7 bd be 4a 45 be
       0.053007036 -0.30783242 -0.105344646 -0.19266793
0003d0 5a 08 60 3c a0 a1 44 bd b3 bd 17 3d a2 7b da bd
       0.013673866 -0.0480057 0.037046146 -0.10668112
0003e0 6d dc 4a 3d 9d 0c 54 3d 15 5e 0d bc ba 5f 7d be
       0.04952662 0.05176984 -0.008628388 -0.24743548
0003f0 62 73 93 3d 85 60 17 bd af da ef bd fe 57 82 3d
       0.07199742 -0.036957283 -0.117116325 0.063644394

bias f4 [32]
000000 77 f3 1e 3e a0 6b 54 bd 00 f8 39 bd fd a2 be bd
       0.15522562 -0.05186045 -0.045402527 -0.09308431
000010 5f b1 d1 bd 8e 2c a9 be ef 57 de bd 45 24 cb ba
       -0.10238909 -0.33041805 -0.10856616 -0.001549848
000020 8f 7a 10 be 33 89 3c be 49 6a e6 bd fd 9e d5 bc
       -0.14109252 -0.18411712 -0.11250741 -0.026076788
000030 a8 d0 be bd fc 4f 6f bd de ec 11 be d3 d1 57 be
       -0.09317142 -0.05842589 -0.14250514 -0.21076135
000040 5b 26 10 be 64 b8 40 be ec 27 12 be ec b7 51 be
       -0.14077131 -0.1882034 -0.14273041 -0.20480317
000050 ec 78 95 be a7 ef 70 bd 97 6c e8 bd e2 22 13 be
       -0.2919382 -0.0588223 -0.11348837 -0.14368775
000060 cd 29 38 3c 7f 17 08 be 63 da 09 bd a3 40 68 be
       0.011240435 -0.13290213 -0.033655535 -0.22680907
000070 b6 30 cf bd 09 88 33 be fc 90 2d be 36 c7 34 bd
       -0.10116713 -0.17532362 -0.16949838 -0.044135295

weight f4 [32]
000000 95 83 1f 3e 02 78 8c 3e 5a e9 91 3e 93 15 96 3e
       0.15577538 0.2743531 0.28498346 0.29313335
000010 99 c2 8b 3e 1a b4 4c 3e 7a f4 22 3e ca 78 97 3e
       0.27296904 0.19990578 0.15913573 0.29584342
000020 81 5e a6 3e 73 aa 94 3e f2 c2 ae 3e 34 13 8a 3e
       0.32493976 0.29036292 0.34133106 0.26967776
000030 ca da 4c 3e d1 0d 82 3e 51 70 e3 3e 0e 40 2f 3e
       0.20005336 0.25401166 0.44421628 0.17114279
000040 a7 50 79 3e 37 51 6e 3e 3b 67 e2 3e 3e 83 83 3e
       0.24347173 0.23273169 0.44219384 0.25686067
000050 cc 9b c5 3e a9 e2 10 3e 5d 28 aa 3e e9 5e 95 3e
       0.38595426 0.14148964 0.3323392 0.29173973
000060 ee 2d 7e 3e 08 4e b1 3e 5d 93 99 3e 47 d1 5e 3e
       0.24822208 0.34629846 0.29995242 0.2175952
000070 a0 53 be 3e af e0 9b 3e 54 f7 7e 3e ea f4 c3 3e
       0.37173176 0.30444857 0.24899036 0.38272792

bias f4 [32]
000000 51 02 80 bd f6 ae 2d 3c 6b 2f 64 3d 12 df 85 3d
       -0.06250442 0.010600796 0.055709284 0.06536688
000010 aa 0a de 3c 66 99 16 3d 33 ff 6d 3c a1 15 8b 3d
       0.027104694 0.036767386 0.014526176 0.06791235
000020 ae dc 27 bc 6b 54 10 3c 9f a3 8b 3d e6 13 83 3d
       -0.010245485 0.008809189 0.068183176 0.0640028
000030 b9 0c 83 3d a4 22 9c 3c f5 09 15 3e 00 c8 4d 3d
       0.06398911 0.019059487 0.1455458 0.050239563
000040 80 19 91 3d 3e a6 16 3d d0 c5 dc 3d 3d 01 94 3d
       0.07084942 0.036779635 0.10779917 0.07226799
000050 35 7c b9 3d 09 ca 70 3b d8 15 9e 3d b5 c5 61 3d
       0.09056894 0.0036741516 0.0771901 0.05512019
000060 ef 54 23 bd 3d f1 84 3d 62 c2 ee 3c 41 b4 cc 3b
       -0.03987592 0.06491325 0.029145423 0.006247074
000070 49 31 b7 3d 26 0d 3e 3d 8a ff 49 3d 6a 1d db 3d
       0.08944947 0.046399258 0.049315967 0.1069897

running_mean f4 [32]
000000 ba 20 62 3f c2 9a a6 3c c1 e7 ba 3e 9d 4a 4d 3e
       0.88331187 0.020337466 0.3650494 0.20047994
000010 00 ae 1f 3d 6c ef a1 3e 42 f2 2c 3e 1a 67 4e 3e
       0.0389843 0.31627977 0.16889289 0.20156518
000020 c4 c6 8e 3c 97 48 eb 3c 72 ed 5a 3d 97 8a 9f 3d
       0.017428763 0.028721137 0.0534491 0.07790106
000030 2f 0a 61 3e ce be 1b 3e 27 f7 30 3e 92 67 99 3e
       0.21976541 0.15209505 0.17281781 0.2996183
000040 89 e2 89 3e 07 16 83 3e 8b d1 32 3d ef c7 84 3d
       0.26930645 0.25602743 0.043656867 0.06483447
000050 9b 19 03 3d c1 80 13 3d e4 3b b1 3c ee c5 0a 3e
       0.03200684 0.03601146 0.021635003 0.13552067
000060 fd 13 5e 3e be ec 8c 3d c3 dc 8e 3d bb 0f 02 3e
       0.21687312 0.068810925 0.06975701 0.12701313
000070 6e 9c e7 3e 6b 11 d1 3e fe d7 a5 3e aa f1 48 3e
       0.45236534 0.408336 0.3239135 0.19623438

running_var f4 [32]
000000 9e 4a a1 3e fe 4e 09 3c f0 f3 f7 3f e5 6d f5 3e
       0.3150224 0.00838065 1.9371319 0.47935405
000010 cc 45 7b 3c 8c d1 ab 3f 9e 4c 2a 3e 1e 00 ef 3d
       0.015336465 1.3423324 0.1663079 0.11669944
000020 4b 39 ec 3b a5 1a 8b 3c d2 c5 9d 3c c6 49 f3 3c
       0.0072089783 0.016980479 0.019259367 0.029698264
000030 0b b6 51 3e b4 a4 b1 3d 09 5f 1e 3e 71 dd 06 3f
       0.204796 0.08673993 0.1546594 0.5268164
000040 58 36 01 3f 2a 69 fc 3e bf 29 8e 3c df f9 0a 3d
       0.50473547 0.49298984 0.01735389 0.033929702
000050 37 04 62 3c 84 26 80 3c 99 a0 07 3c 50 43 20 3e
       0.01379495 0.015643366 0.008278036 0.15650678
000060 c8 1a 0b 3e 47 6f d5 3d c7 8b f1 3c 6f 5d 4d 3e
       0.13584435 0.10421615 0.029485596 0.20055173
000070 9a 90 fb 3f e2 30 f5 3f 1c 6b ad 3f e2 4f 4e 3e
       1.9653504 1.9155543 1.3548312 0.2014766

weight f4 [1, 512]
000000 46 04 9a 3d af a3 76 3c 94 35 53 3c 8d 86 03 bc
       0.07520346 0.015053674 0.012891192 -0.008027685
000010 e9 a4 d0 3d 4b 36 52 bd 33 36 83 bd ee 56 ae bd
       0.10187704 -0.05132131 -0.06406822 -0.08512674
000020 0a 33 44 bd 23 ae 35 3c 32 f6 e5 bb 54 c0 a2 3c
       -0.047900237 0.011088881 -0.007017874 0.0198671
000030 06 da 1e bd cd f7 8b 3c 2f 11 5a bd 3e be 08 bd
       -0.038782142 0.017085934 -0.053239044 -0.033384554
000040 b0 79 90 3c 3b 07 80 3c 67 ce c6 bb f3 7d 87 3e
       0.01763615 0.015628448 -0.0060670855 0.2646328
000050 7d fe ab bd 72 7b 95 3b c9 bf a5 bb 31 95 27 3d
       -0.08398149 0.004561835 -0.005058263 0.040913764
000060 54 39 8f 3d b4 84 5c bc 1f dd 81 bd d3 2b 11 bd
       0.06993356 -0.013459373 -0.063410036 -0.035442185
000070 f5 16 08 3e a7 04 0b be 09 02 5f bd 2f 37 ac 3d
       0.13290007 -0.13575993 -0.0544453 0.08408963
000080 5a 9c 18 38 07 06 60 bc c0 8c 2a 3c 53 cb b9 3d
       3.6385238e-05 -0.013673312 0.010409534 0.09071984
000090 f3 01 c1 3d 37 5e 06 3e f6 cd be 39 59 10 d7 3d
       0.094242 0.13121878 0.00036393077 0.10501165
0000a0 db 73 a8 bc 4b d8 58 3d 9a 35 96 bd 58 d4 dd bc
       -0.020563057 0.052940648 -0.073344424 -0.027078792
0000b0 28 94 60 bd 7b 8f 1a bc ff 21 55 bd 16 13 87 bc
       -0.054828793 -0.0094336225 -0.052034374 -0.016488593
0000c0 57 4e 8a 3a 5b 14 e0 3c 0a 89 05 be ac 46 2c bd
       0.0010551912 0.027353456 -0.13040558 -0.042059585
0000d0 fb 63 64 3e bb ff 0a 3e 44 b8 09 3e 0e 20 42 3e
       0.22303765 0.13574116 0.13449198 0.1895754
0000e0 5d ed aa 3c 35 1c 89 3d 6c c1 a0 bd 5f 26 45 bd
       0.020865137 0.06694833 -0.07849392 -0.048132297
0000f0 b9 0e e1 bc ff 09 11 3d b6 d2 61 bd 2d 7d 57 bd
       -0.02747284 0.035409924 -0.05513259 -0.05260961
000100 3d 9a ee 3c 0f 0f 04 3c 65 b9 0e 3e 84 1e e5 3d
       0.02912628 0.008060231 0.1393791 0.11187461
000110 b5 0f b0 3c 7d bd b4 3b 9d 0c da ba ec d7 fc bb
       0.021491865 0.005515753 -0.0016635839 -0.0077161696
000120 72 b7 60 bc 20 0c ae 3b 8e ca 8b 3b e7 78 c0 bc
       -0.013715612 0.005311504 0.0042660898 -0.02349515
000130 2e 07 34 bd e1 ca 49 3e 2a 42 7c 3d 4c 86 09 bc
       -0.04395216 0.19706298 0.061586536 -0.008393835
000140 06 19 4d 39 96 90 65 3b 5f 54 1c 3e 85 b9 19 3e
       0.00019559645 0.0035028807 0.1526656 0.15012176
000150 d3 95 41 3c 63 cc 31 3d f6 02 86 3d a5 d2 a7 3c
       0.011815506 0.04340781 0.065435335 0.020486185
000160 92 42 c8 bd 01 d1 c3 bd 8f 40 c7 bd 79 06 70 bd
       -0.09778322 -0.09561349 -0.097291104 -0.058599923
000170 0a 2c 2b bd d6 46 74 bd bd ae d8 3d c8 f6 b2 3d
       -0.041790046 -0.059637867 0.10580204 0.08738476
000180 32 37 1b bc 9c 29 ef bc dc ff 0a be 57 46 a5 bd
       -0.009473609 -0.029194646 -0.13574165 -0.08070057
000190 1e ea 8d 3c 74 3a 0c 3d fa 03 35 3e 07 a0 2c 3d
       0.01732355 0.034235433 0.17677298 0.0421448
0001a0 29 42 6d bd 2a d5 2d bd 7f b4 04 bd ec e7 2f bd
       -0.057924423 -0.042439617 -0.032398697 -0.042945787
0001b0 1c 8d 53 bc 50 9b ec bd 32 22 b1 3d 88 27 ce 3c
       -0.012912061 -0.11553061 0.086491 0.025165334
0001c0 97 d1 69 3c 2a e4 0e 3d 73 b9 12 bd 89 4f 0a bc
       0.0142711615 0.034885563 -0.03582139 -0.008441814
0001d0 24 7f 92 ba d9 3f 85 bd ca 22 7a 3e 88 67 14 bb
       -0.0011176807 -0.065063186 0.24427333 -0.0022644717
0001e0 02 c0 24 bc 6a 91 91 bc 9e 00 7f 3d 63 64 d6 3c
       -0.010055544 -0.017769534 0.062256448 0.026170915
0001f0 1c 35 4b bd 2a 21 5e bc ef d6 10 3d fd 5e eb 3b
       -0.049611196 -0.013557712 0.035361227 0.0071829543
000200 13 cb bd ba 64 9d 00 bd 8f be 56 3e c0 13 e4 bb
       -0.0014480076 -0.0314001 0.2097113 -0.006960362
000210 f1 58 c7 3d ea 42 70 b9 48 0c 00 bb 62 be 7b 3d
       0.09733761 -0.00022913111 -0.001953857 0.06146086
000220 af 2e ac bd 1d 64 bd 3d 4f 32 a4 bc 74 de 1a 3c
       -0.08407342 0.09247611 -0.02004352 0.009452451
000230 b9 b2 b2 bd 1a 0c 24 3b a3 e6 6d 3c a5 12 3d 3d
       -0.08725495 0.0025031627 0.01452032 0.04616036
000240 d5 a1 52 bd 66 3d dd 3d b0 3c dc bc d2 d8 75 3b
       -0.051423866 0.108027264 -0.026884407 0.0037513268
000250 90 40 d7 3d aa ef 88 3c 03 e0 75 bc fa 5f c1 3c
       0.10510361 0.016715843 -0.015007022 0.023605336
000260 a8 70 87 bc 71 a5 fd bc 02 b5 0d 3e 62 d7 1d bd
       -0.01653321 -0.030962678 0.1383858 -0.038535483
000270 ad f3 aa 3d 2d 98 a7 bd b5 33 f2 bb d2 17 f9 bb
       0.08347259 -0.08183322 -0.007391418 -0.0076017166
000280 eb b2 68 bc 7b 02 2a 3d 10 18 89 3b 1f 9e 03 3c
       -0.014202814 0.04150627 0.0041837767 0.0080333045
000290 7d f5 d3 bc 04 ef aa 3c cc 6f 99 3e cb e0 54 3c
       -0.025873894 0.020865925 0.29968107 0.012993048
0002a0 b4 c8 2d bc 71 6f 62 3c e5 bd 1b 3e d8 a4 d9 bb
       -0.010606933 0.013820515 0.15209158 -0.0066419654
0002b0 48 10 e1 bd 1b 5b 01 bd 81 1b 47 3d 91 9d d3 3c
       -0.109894335 -0.031581026 0.048610214 0.02583197
0002c0 10 b9 2c bd 7a ca 2b bc 41 88 13 3e 8c 4f 08 bb
       -0.042168677 -0.010485286 0.14407445 -0.0020799367
0002d0 df 2d 43 3c 6d fb e8 bb cc 9a f5 bd 65 1f 10 3e
       0.011912792 -0.0071100504 -0.11992416 0.14074476
0002e0 e5 bb e9 ba 51 d7 73 bc 7e be 0e be 81 27 f6 3c
       -0.0017832486 -0.014882878 -0.13939855 0.030048134
0002f0 e4 15 fb 3b be 83 49 bd 97 91 79 3d 80 86 9d 3d
       0.0076625217 -0.049197905 0.06092986 0.076916695
000300 87 2b 36 3c 85 38 f4 bc 41 79 04 bc e0 71 4a bd
       0.011118776 -0.029812107 -0.00808555 -0.049425006
000310 a0 78 e6 3d 19 d7 96 3d e6 81 62 bd d7 fe 64 be
       0.11253476 0.07365245 -0.055299662 -0.22362839
000320 55 26 fa bc bd 55 4f 3d 56 d6 f1 3d 23 19 5b bc
       -0.030535856 0.050618876 0.118084595 -0.013372692
000330 68 98 8f bc eb dd 85 bc 46 fc a2 bc fe da ef 3d
       -0.017528728 -0.01634117 -0.019895684 0.11711691
000340 ce cd 9c bc 9e b0 c1 3c 2e 47 5b 3c 14 b0 95 bc
       -0.019141104 0.023643788 0.01338367 -0.018272437
000350 70 af 41 3e 86 02 c4 bd 12 3b 7e 3d f2 37 06 bc
       0.1891458 -0.09570794 0.062068053 -0.008192049
000360 48 40 65 bc 75 62 1e be 69 57 2a 3c 3b 19 fe 3a
       -0.013992377 -0.15467246 0.010396817 0.0019386181
000370 5b 40 ba bc 01 a1 1e 3c 45 c1 91 bd 99 3a 65 3b
       -0.022735765 0.009681941 -0.07116941 0.0034977554
000380 43 de 19 bd bf 9a 33 bb c7 85 1d bd ed d3 ed 3d
       -0.03756548 -0.0027405468 -0.03845766 0.11612687
000390 95 64 dd 3b 19 6e dd bc 56 0c d4 bc e7 49 90 bc
       0.006756375 -0.027030038 -0.025884788 -0.017613364
0003a0 43 04 b8 3e 97 0e 94 bb 33 10 e7 3a cd c1 c7 bb
       0.3594075 -0.004518341 0.0017628729 -0.006096101
0003b0 5f a7 0c bb 69 02 44 bc 09 16 72 bc b1 a4 12 bd
       -0.0021462066 -0.011963465 -0.014775761 -0.035801593
0003c0 94 b0 85 ba 66 cc da bc ab 36 f3 3d 35 12 2d 3e
       -0.0010199719 -0.026708793 0.118756615 0.16901477
0003d0 41 4b bd 3d 76 15 76 3d 62 52 b7 bb 6a b2 8f bd
       0.09242869 0.06007906 -0.0055945376 -0.07016452
0003e0 4c 11 94 bc 7b 56 dc bd be b8 b0 bd 08 6b aa bd
       -0.018074654 -0.10758682 -0.08628987 -0.08321196
0003f0 75 b7 42 bd 93 92 8c bb 72 5f a6 bb 2c 77 08 bc
       -0.04753824 -0.004289934 -0.005077296 -0.008329194
