SpecGen/model/S2C_Model/Zn/model.pth (torch, 37467 bytes, 19 tensors)

weight f4 [4, 1, 17]
000000 20 83 86 3d 00 fc 6f bd 98 94 2e be 10 24 68 be
       0.06567979 -0.058589935 -0.17048872 -0.22670007
000010 a0 fc 4e 3e 4c 24 2b be 30 8f 05 bc 08 8d 57 3e
       0.20213556 -0.16713065 -0.008151814 0.21049893
000020 74 4f f8 3d e8 a8 ae bc 67 f9 24 be 9a f9 01 3e
       0.121245295 -0.021320775 -0.16110764 0.12692872
000030 d7 0d 6f be 00 54 e5 ba 0a 62 1f 3e c5 e1 1c be
       -0.23345123 -0.0017496347 0.15564743 -0.15320499
000040 94 24 66 bd f0 04 39 be 58 f0 6d be 25 bf 99 bc
       -0.056187227 -0.1806829 -0.23236215 -0.018767903
000050 94 2f 9a 3d 0b 71 8c be 31 be 9d be cc 9d ae bd
       0.07528606 -0.27429995 -0.30809167 -0.08526191
000060 25 68 55 3e c9 cf b4 bb 0d 9b c3 3d ce 19 8d 3e
       0.20840509 -0.005517934 0.09551058 0.2755875
000070 2e 26 bb 3d 3e 80 31 be 01 ba 95 3e ec e3 83 3e
       0.091381416 -0.17334077 0.29243472 0.25759828
000080 8e 70 2f 3e f5 52 2e be c0 8c b6 3d 00 41 d8 bc
       0.1713278 -0.17023833 0.08913565 -0.026398182
000090 c0 76 cb bb 03 20 48 be 86 e6 1d 3e 20 26 22 3c
       -0.0062092245 -0.19543462 0.15419969 0.009896785
0000a0 42 2d a0 bd f8 45 78 be 26 3a 22 3e ec f5 8f 3d
       -0.07821132 -0.24245441 0.15842494 0.07029328
0000b0 a0 3a 5d 3d a4 93 0c be fc 60 c6 3d 10 8e 3c 3d
       0.054010987 -0.13728195 0.09686467 0.04603392
0000c0 78 b3 c2 bd ce 78 14 3e 81 7b ff bd a1 39 64 be
       -0.09506887 0.14499208 -0.124747284 -0.22287609
0000d0 00 91 b9 3d 2c 83 a5 bd 09 34 41 3e cc 0b 45 3e
       0.0906086 -0.0808166 0.18867506 0.19242781
0000e0 69 9d 85 be dd 24 d5 bc 10 9b 80 3d 06 67 12 be
       -0.26096657 -0.026018554 0.06279576 -0.14297113
0000f0 df 2d 17 be c3 2f 23 3d 78 2d eb bb 0a 50 7c bc
       -0.14763592 0.03984047 -0.007177051 -0.015399942
000100 ad 00 5d be 88 7f 8d bd 25 f3 5d bd 7c d5 da 3d
       -0.21582289 -0.0690909 -0.05418696 0.1068525

bias f4 [4]
000000 a4 9a d1 bd fe f8 2b 3f 47 0b 37 be 2b a4 61 3e
       -0.102345735 0.67176807 -0.17875396 0.22035281

weight f4 [4]
000000 00 00 80 3f aa c5 9e 3f 00 00 80 3f 17 9e 71 3f
       1.0 1.2404072 1.0 0.9438185

bias f4 [4]
000000 32 55 92 ba 8a b5 63 be 57 cf 35 b9 b9 9f a8 3a
       -0.0011164306 -0.2223722 -0.00017338745 0.0012864984

running_mean f4 [4]
000000 00 00 00 00 e0 7d 2e 3f 00 00 00 00 04 00 00 00
       0.0 0.6816082 0.0 6e-45

running_var f4 [4]
000000 04 00 00 00 be 77 51 3b 04 00 00 00 04 00 00 00
       6e-45 0.003196224 6e-45 6e-45

weight f4 [16, 4, 17]
000000 9a dd ec bd 8f b0 39 be 11 b1 57 be 79 cb fd bd
       -0.11565705 -0.18133758 -0.21063639 -0.12392325
000010 26 d2 21 be c8 6e 04 be bf 60 a3 bb 2a 5e d0 3c
       -0.15802822 -0.12932885 -0.0049858983 0.025435526
000020 9c f3 23 bc 9b e7 49 be dc b8 ee 3c 22 75 bf 3c
       -0.0100068115 -0.19717257 0.029140882 0.023371283
000030 0c 04 8e bd e0 89 a1 bc c6 27 47 be 65 ee bf 3b
       -0.06934366 -0.019719064 -0.19448766 0.0058572763
000040 98 3e 55 be 85 ae b5 3b 5e 5f 8f 3d 95 cf 2d 3e
       -0.20824659 0.005544486 0.07000612 0.16973718
000050 5e b8 3b 3e 5f 7a a8 3d 91 51 a4 3d 11 e2 38 3d
       0.18332049 0.082264654 0.0802337 0.04513747
000060 8d 25 e0 bb 93 2c 79 bd dc 29 51 bd b9 7e 3a be
       -0.006840414 -0.060833525 -0.05106531 -0.18212403
000070 ee 1f 0a be 3e c0 a2 be 8b 6a 05 be 75 75 20 be
       -0.13488743 -0.31787294 -0.13028924 -0.15669806
000080 4a c1 90 3c 5f 83 b0 bc 43 9b 1a bd db b7 b9 bd
       0.017670292 -0.021547018 -0.037745725 -0.09068271
000090 af af 63 3d e0 23 bb 3d 59 96 15 3d 86 95 a7 3d
       0.055587467 0.09137702 0.036520336 0.08182816
0000a0 cc 1c ad 3d cf 7f f5 3b 5c 37 e6 3d f7 3f 4e bb
       0.08452758 0.0074920426 0.11241028 -0.0031471231
0000b0 92 ef 84 3d 44 3b 07 3e 87 de de 3d 35 0f a1 bd
       0.06491007 0.13206202 0.108822875 -0.07864229
0000c0 b0 aa 0e bd 0c 9f 0c bc 48 9c 20 3c 60 62 34 3d
       -0.03483075 -0.008582842 0.009802885 0.04403913
0000d0 37 3d 7b 3d e3 62 96 3d 91 5c ae 3c c9 bb 8a 3d
       0.061337676 0.0734308 0.021284373 0.067740984
0000e0 78 dd cf bd 58 77 21 3d 58 b4 cb 3d 91 14 7b bd
       -0.10149664 0.039420456 0.09946507 -0.06129891
0000f0 c4 4e c0 3c 48 d4 93 bd 68 5d 37 bd 36 0d e0 bd
       0.023475058 -0.07218224 -0.044766814 -0.1094002
000100 43 cb 57 3b f3 d0 63 bd 84 d2 51 3d 90 a5 19 3e
       0.003292755 -0.05561919 0.051226154 0.15004563
000110 69 bf 62 bd a9 e3 62 bd 96 3d ca 3d 8b 55 47 39
       -0.055358324 -0.055392895 0.09875028 0.00019009986
000120 b1 72 6b 3c 86 1f e2 3d 9e ba 74 bc 06 bd cb 3d
       0.014370606 0.11041169 -0.014937071 0.09948163
000130 a8 fb 02 3d 53 ff 2f bd ff 0c b1 3d 3a e3 87 bd
       0.03197828 -0.042968106 0.08645057 -0.06635137
000140 30 1b a7 3c 22 4f b7 bc c4 9c 95 bd cd 33 dd 3c
       0.020398706 -0.0223766 -0.07305291 0.02700224
000150 c0 7b ca 3d fa 36 27 bd 8d b1 63 bc 7a b9 0a 3e
       0.09886885 -0.040823914 -0.013897312 0.13547316
000160 69 aa 62 be bd 46 8b bd 60 8d 93 3c 81 ec 7a 3d
       -0.22135319 -0.06800602 0.018011749 0.061260704
000170 30 20 11 3e 35 80 ab 3e 4d 14 6e 3e 0e 84 6d bc
       0.14172435 0.33496252 0.23249932 -0.014496816
000180 fd 23 a6 3d f7 32 0e bd 33 bb 41 be c3 b4 7c be
       0.08112333 -0.034716573 -0.18919067 -0.2467833
000190 d6 df 21 be ad 97 fd bd 35 f5 f7 3d ce a8 f9 3d
       -0.15808043 -0.123824455 0.121073164 0.121904
0001a0 9d d9 96 3d 8f 77 62 bd f7 90 cb bd 65 aa f1 bc
       0.07365725 -0.0552898 -0.09939759 -0.029500196
0001b0 87 c6 d6 3d 6a f1 35 3d ef 8c 9c bd 0d 0e c3 bd
       0.10487085 0.044419684 -0.076440684 -0.09524164
0001c0 6f 24 75 bd 59 e5 f3 3d d8 e2 8e 3d a7 29 27 bd
       -0.0598492 0.11908979 0.06976861 -0.040811207
0001d0 2c 08 cc bd 51 c4 6a bd ae 35 7f bc b1 7e f8 bd
       -0.09962496 -0.05731613 -0.015576763 -0.121335395
0001e0 9d 79 f2 bd 9a 51 a2 3d d4 84 a7 bd 61 13 1d bd
       -0.11839602 0.079257205 -0.08179632 -0.03834856
0001f0 66 71 85 3d 38 15 45 bc 32 0f cb bd ac 43 3a 3d
       0.0651577 -0.012028985 -0.09915008 0.045474693
000200 8a bc 57 3d 73 07 31 bc a9 d6 18 3d d0 6a dc 3d
       0.05267004 -0.010804999 0.03731409 0.1076256
000210 3c bc b0 bd af 8c 70 bd 13 56 e2 bb 35 0e 87 3d
       -0.08629653 -0.058727916 -0.0069072335 0.06594507
000220 71 b3 2a 3d 67 70 e3 bd 19 78 23 bd 66 1a 29 bd
       0.041675035 -0.111054234 -0.039909456 -0.04128494
000230 1a c9 f1 bd 3e 08 98 3d ae 4a 5d 3d 4b b0 e6 3d
       -0.11805935 0.07423447 0.0540263 0.11264094
000240 62 54 df 3d 87 3d f3 bd 8e 60 05 3d 5a 03 26 3c
       0.109047666 -0.1187697 0.032562785 0.010132635
000250 28 e3 61 3d d9 7c f8 bd 7f 99 e1 bb fc 44 1c 3c
       0.055148274 -0.12133188 -0.0068847532 0.0095379315
000260 24 08 a7 3b 2a 91 4b be 82 c6 15 3d 40 ca 9c 3b
       0.005097406 -0.19879594 0.036566265 0.0047848523
000270 ac ef 6a 3c 12 de f5 3c 58 31 14 3e bd 74 96 3e
       0.014339369 0.030013118 0.14471948 0.2938594
000280 d8 48 23 3e 56 32 0b bd e6 82 1a be 12 69 99 be
       0.15945756 -0.03398355 -0.15088996 -0.29962975
000290 87 bd 42 be 24 0b 22 be 3d 1d 20 bd c8 a5 48 3e
       -0.19017611 -0.15824562 -0.039090384 0.1959449
0002a0 dc 17 4e 3d 37 9c fc 3d e6 d0 be bd 1c 2c 6c 3d
       0.050315723 0.12334483 -0.09317188 0.057659253
0002b0 aa 2b 76 bd 21 91 78 3d 70 c9 57 bd 53 91 cd bd
       -0.060100235 0.06068528 -0.05268234 -0.10037484
0002c0 47 25 1f bd ce 8f cc 3d 6c 34 32 bb 80 e7 f8 3d
       -0.03885391 0.09988366 -0.002719189 0.1215353
0002d0 2e a9 82 bc ba 28 0f 3d 55 ca 5b bd 7b e3 e3 bd
       -0.015949812 0.03495095 -0.053659756 -0.11127373
0002e0 49 03 97 3d 06 e8 b3 3d 9e 0f 8f bc ec 94 b0 bc
       0.073736735 0.08784489 -0.017463502 -0.021555386
0002f0 31 f3 f8 bc 7a 96 b1 3c ab cc 36 bd a2 3f 2b 3c
       -0.0303894 0.021678198 -0.04462878 0.010452183
000300 10 8d 3d 3d 3c 56 07 3b 3f 17 de ba 25 2d dd bd
       0.046277106 0.0020650765 -0.0016944184 -0.10799626
000310 ef 44 a1 bc f4 35 0d 3e 09 cb b9 3c 11 75 c0 bd
       -0.01968619 0.13790113 0.022679823 -0.09397329
000320 e1 de f6 3d a7 8a 60 3d cb 87 87 3d 7c cc d9 3d
       0.120542295 0.05481973 0.06617697 0.106347054
000330 5b 51 ca bc 1b 19 4b bc 6f 5e ce 3c f7 66 83 3c
       -0.024696996 -0.012396122 0.025191514 0.016040308
000340 96 88 8b 3d 53 e1 be 3d 97 1e 70 3d f0 bb c5 bd
       0.06813161 0.09320321 0.058622923 -0.09654987
000350 e3 48 30 3d cf 94 d3 3d 54 0a 87 bd ad 3c aa bc
       0.04303826 0.10331117 -0.06593767 -0.020780886
000360 3b ac b7 3d b6 23 ed 3d 30 72 77 3d 00 7f b5 3d
       0.08968397 0.11579077 0.060411632 0.08862114
000370 50 98 e1 ba 3c ec 97 3d 74 c9 92 be dd db 13 3d
       -0.001721153 0.07418105 -0.28669322 0.03609835
000380 b3 38 0a be 2f 6c 99 be f9 96 6e be df 39 3a bc
       -0.13498192 -0.2996535 -0.23299779 -0.011366337
000390 a9 e6 1e 3e f5 e2 70 bd 75 70 a1 3d 9c 2b b2 bd
       0.15517677 -0.058810193 0.078827776 -0.08699724
0003a0 b7 ef 52 3b fd e1 15 be f7 b6 60 3d 53 06 05 3e
       0.0032186338 -0.14636989 0.05486199 0.12990694
0003b0 3c 8d 93 3e 6c 2d 0a 3e 2c 02 3e 3d 5d 13 e9 3c
       0.2881869 0.1349389 0.04638879 0.028451616
0003c0 de 76 87 3d ea 00 4f bd 8f 78 bf bd 8d 94 57 3c
       0.06614469 -0.05053798 -0.093491666 0.013157976
0003d0 81 ae b7 3d ca df fc 3c 7b 3d d6 3d 09 49 c8 bd
       0.08968831 0.03086843 0.10460945 -0.09779555
0003e0 56 15 82 3d 02 c8 fe bd b1 27 ea bb 91 f4 95 bb
       0.06351726 -0.12440492 -0.007145845 -0.0045762737
0003f0 21 ce d9 bb 04 86 76 3c 65 cd a1 3c f2 e3 0d be
       -0.006646887 0.0150466 0.01975126 -0.13856485

bias f4 [16]
000000 8b 6c b1 3e 70 85 9e 3d c6 9e a6 3d 33 53 f8 bc
       0.34653124 0.07740295 0.081357524 -0.03031311
000010 2f e2 f6 3d 09 4d ce 3a 0c db 7c be bd 10 03 bd
       0.1205486 0.0015739511 -0.24692935 -0.031998385
000020 47 f1 12 3e 7a b3 68 3d 9d 92 3f be 2e d2 03 3e
       0.14349853 0.056811787 -0.18708272 0.12873146
000030 0c 37 2d bd ba a5 31 be 77 c2 65 bd cd 2a 4b 3c
       -0.042288825 -0.17348376 -0.05609366 0.012400341

weight f4 [16]
000000 80 e0 10 3f 7d 55 a5 3f e6 99 91 3f c0 0f f8 3e
       0.5659256 1.2916714 1.1375091 0.48449516
000010 23 99 82 3f a0 44 96 3f d5 b2 67 3f 8f 19 3c 3f
       1.0202984 1.1739693 0.9050725 0.734765
000020 f4 a5 96 3f 28 c3 c6 3f 55 70 25 3f 8f 55 8a 3f
       1.1769395 1.5528307 0.6462453 1.080736
000030 69 3b 27 3f 43 8a eb 3e ff 26 66 3f 92 69 cc 3f
       0.6532503 0.46003923 0.89903253 1.5969718

bias f4 [16]
000000 a2 05 16 3e 7c 63 74 3e a6 fd 3b 3e 61 44 3a 3e
       0.14650586 0.23866075 0.18358478 0.18190147
000010 e1 9e 2a 3e b0 3e 5e 3e 6f 4b 09 3e 75 d3 39 3e
       0.1666217 0.21703601 0.13407682 0.1814707
000020 fb a3 25 3e 07 e8 db 3d 8a f2 3a 3e b4 c8 72 3e
       0.16175835 0.10737615 0.18256584 0.23709375
000030 ad 30 44 3e 7b 87 02 3e f2 91 57 3e d5 85 71 3e
       0.19159193 0.12746994 0.21051767 0.23586209

running_mean f4 [16]
000000 27 44 11 3f f6 97 45 3e 9f b6 3c 3e c6 96 83 3e
       0.5674462 0.1929625 0.1842904 0.25700969
000010 e2 0d 42 3e 9a 70 1a 3e 07 c6 8f 3c 06 ab 3c 3e
       0.18950608 0.15082017 0.017550481 0.18424615
000020 98 5c 4c 3e 33 9e ea 3d f5 ad 09 3e 2e f7 80 3e
       0.19957197 0.11455955 0.13445266 0.25188583
000030 df 9a 6f 3e f9 6a 1f 3e a7 47 21 3e 38 31 f8 3d
       0.23398922 0.1556815 0.1574999 0.12118763

running_var f4 [16]
000000 bf 60 60 3f 70 b4 85 3e 99 59 8a 3e 42 a6 d5 3e
       0.8764762 0.26114225 0.27021483 0.41728407
000010 f3 8b 93 3d 1c e1 80 3e 73 54 68 3c 1c ee 6c 3e
       0.072044276 0.25171745 0.0141802905 0.23137707
000020 b5 dd be 3d e4 60 4f 3d 4b df 09 3e 82 e8 83 3e
       0.09319631 0.05062951 0.13464086 0.25763327
000030 06 2b f2 3e a4 63 35 3e dc 8f 3a 3e 9b d6 32 3e
       0.4729845 0.17713791 0.1821894 0.17464678

weight f4 [32, 16, 9]
000000 b2 89 85 3d b8 ff c0 bb 16 a6 7d bd 17 14 d4 bd
       0.06520404 -0.005889859 -0.06192597 -0.10355394
000010 87 4c 4f 3d 4b c2 89 3d 48 cb 79 3d 63 c4 e1 3d
       0.05061009 0.067265116 0.06098488 0.11023786
000020 96 f5 a2 3d f9 41 83 bd 39 e6 88 be 8a 3c f7 bc
       0.07956998 -0.06409068 -0.26738146 -0.030180234
000030 1e 81 c9 3e 8e 35 ee 3d 12 7f bf bc fa 28 82 3e
       0.3935632 0.116313085 -0.023376022 0.25421888
000040 d6 41 41 bd 02 77 53 bd 1d a4 f6 bd 85 17 b7 bc
       -0.047181927 -0.051627167 -0.12043021 -0.022350082
000050 d4 eb 94 bc 2f 63 81 be 7a 56 f0 3d e7 ea 01 3d
       -0.018178858 -0.25270984 0.11735244 0.03171816
000060 10 7d 73 be a5 be 67 3d 29 47 1a be 6a 92 77 3d
       -0.23778176 0.056578297 -0.15066208 0.060442366
000070 16 3e 23 3e f1 c9 51 bd 75 5d d1 bd 2f db 3e 3c
       0.15941653 -0.051217977 -0.10222904 0.011648937
000080 c7 f2 2a 3e b4 bb d5 3d 32 e1 00 3e e0 f7 2b 3d
       0.16694175 0.10436192 0.12585905 0.04198444
000090 d9 08 20 be fa a5 f1 bb 33 ec 19 bd 87 38 54 3d
       -0.15628375 -0.0073745223 -0.037578773 0.05181172
0000a0 05 ac 37 bd 16 f1 49 3c 8e 29 57 bb e8 bd ee 3c
       -0.044841785 0.012325546 -0.0032831165 0.029143289
0000b0 d0 cb a2 bd 3c d7 96 bd 7e 53 4a 3d 68 bc 3a bd
       -0.079490304 -0.073652714 0.04939603 -0.045589834
0000c0 ab 02 b9 bd cb 43 1a 3e 1f 64 64 bd 49 b7 b1 bd
       -0.09033712 0.15064923 -0.055759545 -0.08677537
0000d0 db d1 7d 3e cb ed 72 be 35 66 18 3e a2 3d 98 3d
       0.24787085 -0.23723523 0.14882739 0.074336305
0000e0 49 a2 34 3e e6 1a 0b bd 43 d2 97 bd 72 12 91 be
       0.17640032 -0.0339612 -0.07413151 -0.28334385
0000f0 07 a5 3f 3e c2 c5 05 3e fc 4f 37 3e fb 37 63 3d
       0.18715297 0.1306372 0.17901605 0.05547331
000100 30 88 a7 3d c5 43 19 3d 7a 8a 08 bd d7 03 29 be
       0.081802726 0.037418146 -0.033335187 -0.16505371
000110 ed 86 9a 3d 32 e5 a7 3c 44 eb 56 bd 35 88 28 3e
       0.07545266 0.020495031 -0.05247046 0.16458209
000120 ef d0 87 bd 1f c0 8b 3d ea c0 4b be b7 4d 49 3d
       -0.06631648 0.068237536 -0.1989781 0.04914638
000130 c9 57 ba 3e 30 25 83 be 8b d6 5a 3d 98 b8 f3 3c
       0.363951 -0.2561431 0.05342726 0.029751107
000140 2e 2b fe bc 6f b7 ff bd 6f 67 97 bd ce ed bd bc
       -0.031026449 -0.12486159 -0.07392775 -0.023184683
000150 d4 0f 51 3e b6 c5 bf bd 8f 3d 1a be 06 a8 2a 3e
       0.20416194 -0.09363882 -0.15062545 0.16665658
000160 09 19 ad be dc a4 e9 bc 9c 00 5d 3e 89 0b e1 bc
       -0.33808163 -0.028520994 0.21582264 -0.02747132
000170 51 cf 3e bd 0a 60 89 bd 59 2b 8a be d1 6a c8 be
       -0.04658443 -0.06707771 -0.26986197 -0.39143994
000180 54 69 ab be 7b 3f 9c bd 4d 81 88 3d db f0 84 3d
       -0.33478796 -0.076292954 0.06665287 0.06491252
000190 a2 2f 58 3e db 1d 10 bd c2 b6 65 be fc 8f ac bd
       0.2111192 -0.035184722 -0.22432998 -0.084259
0001a0 19 07 41 bd c6 b3 35 be de 41 3b be fe 08 9b 3d
       -0.04712591 -0.1774436 -0.18286845 0.075700745
0001b0 4d e4 f9 3d 6f 6e 9c 3c 4c 0d be bd 39 b4 92 3d
       0.12201748 0.019095628 -0.0927988 0.07163281
0001c0 80 3d 92 bd 76 30 a8 bd 32 59 9a bc bd 0e bd 3d
       -0.071406364 -0.08212368 -0.01884136 0.09231327
0001d0 5b 84 3d bd 0d a9 f0 3d 22 9e 07 3e 2d f5 ae bc
       -0.046268802 0.11750994 0.13243917 -0.021357143
0001e0 a9 a4 50 bd 8c 5b 0f bd 4a cf e5 bd f6 15 57 be
       -0.050938282 -0.034999415 -0.11221178 -0.21004471
0001f0 5c 03 9e be 9e a9 93 be a8 d8 6c 3c 18 81 b9 bd
       -0.30861938 -0.28840345 0.014455952 -0.09057826
000200 c5 be 29 3e fe 2d 05 3b ab d8 9f 3d f4 6d be bd
       0.16576679 0.0020321603 0.07804998 -0.09298316
000210 64 68 9f bd a9 3f 36 3e 45 72 bf 3d 0a 0a c3 3d
       -0.07783583 0.17797722 0.09347967 0.09523399
000220 77 8c 58 3d b4 3d 43 be d7 89 89 be fc e5 df 3e
       0.052868333 -0.19066507 -0.26862976 0.43730152
000230 8c 64 b8 3c c8 cb 7b be 59 54 9d 3e 2d c5 77 bd
       0.022508882 -0.24589455 0.30728415 -0.060490776
000240 42 86 0c 3c ed cd ef 3d 43 e4 1c bd b4 c8 47 be
       0.008576931 0.11709199 -0.038303625 -0.19510156
000250 de 46 e2 bd 5a 13 61 bd 80 2e dd bd cf 5e 7c bc
       -0.11048673 -0.054950096 -0.10799885 -0.0154034635
000260 41 79 4f 3e 95 5f 10 39 cd 94 98 be dd bf 23 be
       0.20261098 0.00013768517 -0.29801026 -0.15991159
000270 85 1e 39 3e a9 a8 ee bd 08 1e d2 bd d3 47 12 3e
       0.18078049 -0.11653263 -0.10259634 0.14285211
000280 bb 74 10 be 15 15 99 bd c4 0f 27 3d 4c f5 42 bd
       -0.14107029 -0.07474724 0.04078652 -0.047597215
000290 bb be f0 be e4 1b 70 be 8f 05 0f 3e f6 72 39 bd
       -0.47020516 -0.2344814 0.13966964 -0.04527565
0002a0 d4 85 23 3e 50 cd c8 3d 23 13 78 bd 47 66 9a 3c
       0.1596902 0.09804785 -0.060565125 0.018847598
0002b0 a0 f6 31 bd 66 51 7c bc cb e9 68 3d cb a1 98 3d
       -0.04344809 -0.015400266 0.056863587 0.074527346
0002c0 c2 3b ec 3d 77 49 25 3e aa fe e7 3d 90 7d 06 be
       0.115348354 0.16141306 0.1132787 -0.13133836
0002d0 c1 fc 32 be 42 87 71 be 6a c1 82 3d 4f 98 ab bd
       -0.1747923 -0.23586753 0.06384547 -0.0837866
0002e0 67 a8 b9 bb 15 f6 65 3e fe 36 22 3e ba ab 9a bc
       -0.005665827 0.22457154 0.1584129 -0.018880714
0002f0 d1 a9 2b ba 55 e5 9d 3d 99 95 02 bd 9c a1 80 be
       -0.0006548437 0.07709757 -0.03188095 -0.25123298
000300 ce d9 dc 3d 9a 3b 12 3d 89 01 67 be 27 ac b0 bd
       0.107837304 0.03570137 -0.2255918 -0.086265855
000310 64 c1 e8 bc 81 91 9f bd d7 49 2d be 60 8a 39 bd
       -0.028412528 -0.077914245 -0.16922699 -0.04529798
000320 ef 6d df 3c 79 52 ad 3d a6 59 a5 3d db 7b 14 bd
       0.0272741 0.08462996 0.0807374 -0.03625093
000330 b1 5f 20 3e c8 bd b9 be 9b 28 b3 3d 96 4b 94 be
       0.15661503 -0.36277604 0.08747979 -0.28963917
000340 2d a2 c4 3c e8 a3 c3 bd ba dc d6 3a 65 4e 38 bd
       0.024003113 -0.09552747 0.0016392686 -0.044996638
000350 b3 10 85 3d e8 b4 a0 bb e1 7c c1 bd 59 5a d8 bd
       0.06497326 -0.004904378 -0.09447647 -0.105641074
000360 9a ba 1b 3e e0 21 1e be 56 4f 14 be 80 7f 50 bd
       0.15207902 -0.1544261 -0.1448339 -0.050902843
000370 86 3d a5 3d 6d 25 ba bb 47 b3 18 3e 8d 91 33 bd
       0.08068375 -0.005680731 0.14912139 -0.04383998
000380 bc fa 97 be 58 a8 85 be 3c f3 1d be 12 fb 01 bd
       -0.29683483 -0.26105 -0.15424818 -0.03173358
000390 57 bb 55 3d b1 c2 be bd 3c 1f 13 3e ae cf 8a 3e
       0.052180614 -0.09314478 0.14367384 0.27111572
0003a0 12 a4 d7 3b 82 69 6b be d3 c6 8a 3e e5 d2 89 bc
       0.006580838 -0.22989467 0.27104816 -0.016824195
0003b0 9d 96 d4 bd 19 28 e7 bd 4a 38 29 be 9c 2b 3e be
       -0.1038029 -0.11286945 -0.16525379 -0.18571323
0003c0 78 84 87 3d 19 4d 20 bd d8 68 d0 3d ed be 2a be
       0.06617063 -0.039136026 0.10176247 -0.16674395
0003d0 d4 bf 8a 3a ab 08 9a 3c 95 c1 2d be 71 94 87 bd
       0.0010585734 0.018802961 -0.16968377 -0.0662011
0003e0 80 6d 38 be e0 3d 51 be be e2 d7 bd f3 d3 c3 3c
       -0.18010521 -0.2043376 -0.105412945 0.023904776
0003f0 9b 37 e5 bb 63 ad 3d bc e9 c6 de bd db 7d 22 be
       -0.006995154 -0.011576983 -0.10877783 -0.15868323

bias f4 [32]
000000 b2 94 f8 bd 52 40 d8 bc 6e 67 aa 3d c4 97 08 be
       -0.121377364 -0.026397858 0.08320509 -0.13339144
000010 3f 99 07 3c 8f 46 9a bd 56 d7 ce bd 9e 65 96 3e
       0.008276283 -0.07532989 -0.10099666 0.29374403
000020 ec 57 cc bd b2 05 d6 bc e1 c9 67 be b7 5d 01 3e
       -0.09977707 -0.026125763 -0.22635604 0.12633406
000030 0c 02 72 be ee 75 3a be cb 4c 25 bd ff 29 fa bd
       -0.23633593 -0.18209049 -0.04035644 -0.12215041
000040 88 4f 91 3d 56 17 26 be a6 bd 68 be d3 91 a2 bd
       0.070952475 -0.1621984 -0.22728595 -0.0793797
000050 4d 50 43 be 2f fa 12 be c8 e1 66 bd cf 12 02 be
       -0.19073601 -0.1435325 -0.056367666 -0.12702487
000060 f0 46 2f bc 3b 70 cc bc 92 e7 23 be 08 61 75 be
       -0.010698065 -0.02495586 -0.16006306 -0.23962796
000070 7e f4 d3 bd 8e 18 15 be eb 10 09 bb a8 01 55 be
       -0.103493676 -0.14560148 -0.0020914625 -0.20801413

weight f4 [32]
000000 ff 48 59 3e de 8e f3 3d 75 57 81 3e bc f1 37 3e
       0.21219252 0.11892484 0.25262037 0.17963308
000010 01 6c 81 3e b5 e7 85 3e 3c 66 39 3e 70 f4 39 3e
       0.25277713 0.2615334 0.18105406 0.18159652
000020 b4 ab 2b 3e b0 77 6f 3e 01 e0 0d 3e 02 fc 47 3e
       0.16764718 0.23385501 0.13854982 0.19529727
000030 45 e7 87 3e cb 9a b7 3e 44 9d 6e 3e 7c 5b 7a 3e
       0.26543632 0.35860285 0.2330218 0.24448961
000040 e1 10 8f 3e d4 e8 73 3e ac 13 60 3e b1 5c 7d 3e
       0.27942565 0.23819286 0.21882504 0.2474239
000050 ae eb 91 3e 1f 12 d8 3e 7a 2b 74 3e 14 6d 82 3e
       0.28500122 0.42201325 0.2384471 0.25473845
000060 c7 47 65 3e 5a cf 83 3e d2 fa 89 3e 16 de 95 3e
       0.22390662 0.25744134 0.26949173 0.29271
000070 88 d4 60 3e c5 b9 5c 3e 85 5a 54 3e bc 85 09 3e
       0.21956074 0.2155524 0.20737655 0.13429922

bias f4 [32]
000000 24 99 c4 3b c1 b2 c8 bd 6c 85 a3 bd a3 9d 1e 3c
       0.005999701 -0.097997196 -0.079844326 0.009681138
000010 28 fc 5b 3d 94 41 ac bb ba 87 1f 3d c7 ed 12 bd
       0.05370727 -0.005256841 0.0389478 -0.035871293
000020 af 66 c2 3c 0f 1f 4a 3d 46 94 16 bc 00 e6 ce bc
       0.023730604 0.049346026 -0.009190625 -0.025256157
000030 85 18 62 3d eb ee a6 3d 76 70 85 bc fd 61 0c 3d
       0.055199165 0.08151039 -0.016288977 0.034273136
000040 fe 32 2d bb d7 ce df 3c fd 7e a5 3c cd 5e 06 3d
       -0.0026428099 0.027320309 0.020202154 0.032805253
000050 01 ec b3 3c 74 4d 89 3d 4c 41 8e 3d ad a0 7c 3d
       0.021963121 0.06704226 0.06946048 0.06167667
000060 4d bc 30 bd 65 ae d1 3c 29 ec 35 3d 6d 2d 78 3d
       -0.043148328 0.025595853 0.044414673 0.060590196
000070 cb 91 88 3d 89 83 22 3d 55 e8 25 3d fa 71 95 3c
       0.06668433 0.039676223 0.040504772 0.018242825

running_mean f4 [32]
000000 f9 36 a4 3e c5 f4 2c 3e aa 0d 76 3e 4d 37 bf 3e
       0.3207319 0.16890247 0.2402865 0.3734688
000010 6c ff e5 3d 59 92 72 3e 59 20 04 3f 58 98 e1 3e
       0.112303585 0.2368864 0.5161186 0.44061542
000020 92 56 e0 3d 59 70 8d 3d 80 07 a2 3d 4d 2e cf 3e
       0.10954012 0.06906194 0.07911587 0.40465012
000030 82 cf 0c 3e 93 44 3e 3e 2e dc a3 3e d8 ac d6 3e
       0.13751033 0.18580846 0.3200392 0.41928744
000040 ff 3a df 3e 9e c0 df 3d 8c a7 48 3e ee cd 63 3e
       0.43599698 0.10925411 0.19595164 0.22246525
000050 ff 28 a6 3d 01 f9 23 3e 89 e2 87 3d 10 f2 04 3e
       0.08113288 0.16012956 0.06635005 0.12982965
000060 5b b1 4f 3e 4f 66 1b 3e 9d 1b 0e 3d 0b 02 d4 3d
       0.202825 0.15175746 0.034694303 0.10351952
000070 5e ee 7a 3d d2 17 a7 3c 1f 0c 16 3e 78 43 c6 3d
       0.06126248 0.0203971 0.14653061 0.096808374

running_var f4 [32]
000000 ee 2a 31 3f 5d 8c 11 3e 9e 6a 32 3e c0 33 82 3f
       0.6920613 0.142137 0.17423484 1.0172043
000010 ef 18 9f 3d e8 db be 3e fd 2f 8e 3f 3f ed af 3e
       0.077684276 0.3727715 1.1108395 0.34360692
000020 93 7d d5 3d 9d 8d 21 3d bb 7f 78 3d 7c 2c 62 3f
       0.10424342 0.039441694 0.06066869 0.8834913
000030 62 42 5f 3e f7 a6 a3 3e 5e 84 2d 3f ca 10 c0 3f
       0.21802667 0.31963322 0.677801 1.5005124
000040 cb 15 9a 3f b7 03 e3 3d b4 f0 ab 3e c9 00 e1 3e
       1.2037901 0.11084693 0.3358208 0.43945912
000050 04 7f be 3d 77 ed 87 3e 70 eb 34 3d bc 20 07 3e
       0.0930157 0.2654836 0.044169843 0.13196081
000060 3d 99 62 3e 9e 26 08 3e d4 50 0b 3d e7 1f 86 3e
       0.22128768 0.13295981 0.03401263 0.26196215
000070 10 15 ff 3c 13 dc be 3b 5f 55 db 3d 26 7c 75 3e
       0.031137973 0.0058245747 0.107096426 0.2397314

weight f4 [1, 512]
000000 23 b4 07 bb c1 21 ce bd 98 f0 38 be 73 12 12 be
       -0.0020706735 -0.10065032 -0.18060529 -0.1426485
000010 b8 b9 be bc d7 18 2f 3d 24 9a 30 3d b6 86 1a 3d
       -0.023281917 0.0427483 0.04311575 0.037726127
000020 b5 52 84 3d b3 e3 03 be de 43 a5 3d 74 8c f8 bd
       0.064610876 -0.12879829 0.08069585 -0.12136164
000030 de a3 b8 3c 6b bd 67 bc 9c 9a 40 bd cb 20 2a 3d
       0.022539075 -0.014144282 -0.047022447 0.04153518
000040 1b 81 14 3d 61 e2 b6 3c 6a 1a 91 bc cd cf 74 be
       0.036255937 0.022324743 -0.01771279 -0.23907395
000050 be ec c9 bb 9f 67 48 3d 66 34 9e bd 06 d1 c0 3d
       -0.006162255 0.048926946 -0.07724838 0.09414868
000060 58 b3 e6 bc 29 9b 94 3b dd 94 3e bb 6e c1 5c bc
       -0.02816169 0.004535098 -0.0029080429 -0.013473852
000070 78 1b 30 3d 33 4c cc 3a 0a 48 1a bd 67 5c 99 bc
       0.042994946 0.0015586674 -0.037666358 -0.018720819
000080 af 3c 1e 3d 7b 71 9f bb e3 62 fc bd 55 a5 16 be
       0.03863209 -0.004865823 -0.12323549 -0.14711507
000090 66 d0 a7 3d 04 85 d0 bd 02 ec 06 3d a1 7e 07 bc
       0.08194046 -0.10181621 0.03293992 -0.008269937
0000a0 6f df c3 3c 2d ac 01 3e 31 06 4b bd ba f0 4c bd
       0.023910252 0.12663336 -0.04956645 -0.050034262
0000b0 cb 67 0b bd 45 36 95 3c 44 69 d7 bc d3 e5 a9 3d
       -0.03403453 0.018214354 -0.026295312 0.082957886
0000c0 52 06 1f 3b 5b c4 a8 bd 87 20 65 bd 7e 65 4c be
       0.0024265242 -0.08240577 -0.055939224 -0.19960591
0000d0 ee f8 78 3a b3 90 bc bd ad e7 cd 3a dc 61 bb 3c
       0.00094975426 -0.09207287 0.0015709304 0.022873811
0000e0 69 2c 8e 3d 40 10 76 3b 88 58 2b 3e eb d1 6b be
       0.06942064 0.0037546307 0.1673299 -0.23029296
0000f0 75 fe bc 3d 1a 5e 09 3d 24 2f 7b 3d 4b 32 7a 3d
       0.09228221 0.033537008 0.061324254 0.06108312
000100 b3 fb 16 3e 6f 40 60 3c a9 c8 45 3e 56 b9 e6 bb
       0.14744453 0.013687237 0.19314827 -0.0070411367
000110 9a d2 33 3c 12 b1 32 3d 6b 60 1a bd 8e 83 45 3d
       0.010975504 0.0436259 -0.037689608 0.048221163
000120 05 78 25 3c 48 0e ce 3b d7 aa 0e be f9 7e a7 bc
       0.010099416 0.0062883236 -0.13932358 -0.020446287
000130 93 13 8a bd b3 9d 8e 3d de af 5c 3b 2a 27 0c bc
       -0.06742015 0.069636725 0.003367416 -0.008554259
000140 19 71 8a 3d 4a 94 a2 bb ef 75 5b 3d f7 8d d9 bd
       0.06759853 -0.004961525 0.053579267 -0.10622781
000150 f7 d2 4f 3e 9c 33 31 be 3f cb 11 3d 9b 91 a4 3b
       0.2029532 -0.17304844 0.03559422 0.0050222403
000160 5c 43 05 bd 65 02 03 3e 18 08 69 39 ae f3 ac bd
       -0.032534942 0.12793882 0.00022223627 -0.08444916
000170 0e 69 a3 bd ea d5 91 ba 61 12 02 bc 5e 6f a4 3c
       -0.07979022 -0.0011126373 -0.007938952 0.020072635
000180 7c 76 c1 b9 ea 55 b4 bd f6 e7 08 be 3f d7 3f be
       -0.00036900106 -0.08805449 -0.13369736 -0.18734454
000190 42 48 43 3d 5b 42 0e bd 81 52 22 bd f5 23 bf bd
       0.047676332 -0.03473125 -0.039629463 -0.0933303
0001a0 05 13 6e 3c ae e0 6a 3c 96 ec e2 3a 59 f6 a8 3b
       0.014530902 0.014335794 0.001731294 0.00515632
0001b0 52 ef 02 3b 74 76 23 bd 50 37 47 3c 4a 04 2a 3e
       0.0019979072 -0.039907888 0.012159184 0.16603199
0001c0 f4 46 3d bc 7f 36 8e bb 0c 35 18 bc 43 92 66 be
       -0.011552561 -0.0043399925 -0.009289991 -0.22516732
0001d0 a3 a3 81 be c8 4d 6f 3e 77 d0 89 bc 55 0b 0c bd
       -0.25320157 0.23369515 -0.016823037 -0.034190495
0001e0 c9 e2 0e bb 7c c9 34 bc e4 44 b3 3c f5 a0 00 3e
       -0.0021802655 -0.011034366 0.021883436 0.125614
0001f0 9b 82 55 3e c4 86 23 bc 3e 4b 4d 3b 4c ce ed bc
       0.20850603 -0.009980861 0.0031325365 -0.029029034
000200 d8 6b 54 3b db a9 67 bc 29 91 27 3e 3f dd a2 bb
       0.0032412913 -0.014139618 0.16363968 -0.0049702222
000210 cb e8 79 bd 96 08 33 3e 26 82 99 bd 0e 39 24 bc
       -0.061013024 0.17483744 -0.07495527 -0.0100233685
000220 3d da ff bc fc 0b f6 bc e7 ce 8a bd 02 cd e7 3c
       -0.031231994 -0.030035011 -0.06777745 0.028295998
000230 33 8c 05 3d 93 f7 98 bc 91 72 69 be 0b e2 be 3d
       0.032604408 -0.01867274 -0.2279761 0.09320458
000240 c4 2c e8 3d 2d f3 b9 bc 22 17 8c 3e 90 27 9d bc
       0.11336663 -0.022698963 0.273614 -0.019183904
000250 7e fa 36 3d 71 f0 31 bc d4 87 46 bb b1 b3 ea bb
       0.04467248 -0.010860548 -0.0030293362 -0.007162534
000260 05 df 92 bd 07 73 83 3c 05 e4 c9 3d 46 11 79 3d
       -0.07171444 0.01604606 0.098579444 0.06080749
000270 cf a8 5b bb d1 4e 04 bd 11 4b 8b bd 1e b9 40 3e
       -0.0033517366 -0.032301728 -0.06801427 0.18820617
000280 a0 eb b8 3d 50 47 93 bc 20 65 19 3e 54 5d 7a be
       0.09029317 -0.01797834 0.14979982 -0.24449664
000290 e1 77 b9 bd 1f 3e fb 3c 15 d2 4b 3c ea f5 93 bc
       -0.09056068 0.03066927 0.012440224 -0.018061597
0002a0 43 c5 5e bc cc bf eb 3c b5 ca c9 3d 64 d5 d5 bd
       -0.013596836 0.02877798 0.098531164 -0.10441092
0002b0 c9 61 2e bb c8 1d dd 3d b3 86 85 3b 5f 1b 0f bc
       -0.0026608577 0.10796696 0.0040748953 -0.008734553
0002c0 1c cc 80 bb 26 c9 14 be 5b e3 e1 3c 58 0e cb bd
       -0.0039305817 -0.14529857 0.027574232 -0.09914845
0002d0 a3 62 55 be cc 77 ec 3c 98 62 8e bc 4d 14 06 3c
       -0.20838408 0.028865717 -0.017380998 0.008183551
0002e0 99 7f a3 3d 41 bf 39 3e 84 70 09 3e 77 3f 1f be
       0.07983322 0.18139364 0.13421828 -0.15551554
0002f0 5d b4 0b bd 77 c7 cf 3c 08 4f c5 3c c0 13 ff bb
       -0.034107555 0.025363667 0.024085537 -0.007784337
000300 9d 97 a5 ba af 19 57 bd 01 17 d5 bd 49 27 fc bc
       -0.0012633685 -0.05251473 -0.10404778 -0.030780451
000310 11 ae 97 be 97 ab f8 bd 4a aa 2d 3e d6 45 03 bc
       -0.2962499 -0.12142103 0.16959491 -0.008012256
000320 b3 25 87 3c 6a 4c ac bc 02 5b 47 3e e0 2e 34 bd
       0.016497469 -0.02103253 0.1946831 -0.043990016
000330 f4 d8 4f 3d 66 e4 49 3d a5 7f 1b bd 22 91 d4 3c
       0.050744012 0.049290083 -0.03796353 0.025948111
000340 5e c2 9c 3d 59 1a 15 bb ea bb 7f bd 7e 32 47 be
       0.0765426 -0.00227513 -0.06243507 -0.19452855
000350 62 b8 88 3e f6 5f c8 ba 8b 10 b2 3c 40 1b 3c be
       0.26703173 -0.0015287388 0.021736404 -0.1836977
000360 b1 20 c1 bd 1b 22 72 3c e9 6d 90 3e d8 bf d7 3d
       -0.094300635 0.014778639 0.28208855 0.10534638
000370 c0 ca 04 bc e5 0d 78 bc 19 cb 88 bc 8e 17 12 3d
       -0.00810498 -0.015140031 -0.016698407 0.035666995
000380 24 7f 89 3d 9f 66 2e bb 10 c9 1a be 99 24 3e be
       0.06713703 -0.002661146 -0.15115762 -0.18568648
000390 0c a4 51 3d f2 6b 23 be 0c 5d 91 3d 08 25 9c bc
       0.051181838 -0.15959147 0.070978254 -0.019060627
0003a0 56 cc 21 bd 4e 6b 2b 3e 80 ca 8b 3c 59 65 63 3d
       -0.03950151 0.16740152 0.017064333 0.055516575
0003b0 fb 52 53 bd 37 e1 b7 3c a3 3b aa bc 7c 39 a8 3c
       -0.05159281 0.022446258 -0.02078039 0.020535223
0003c0 a0 f6 29 bb 16 7f 1b be 3e 17 39 be cb 8c 4d be
       -0.0025934353 -0.15185198 -0.18075272 -0.2007324
0003d0 fc e2 ed bc a9 34 1c 3d d4 61 b8 3c 17 b5 da bc
       -0.029038899 0.03813616 0.022507586 -0.026697678
0003e0 bc 9d 4f 3e 53 c4 04 3d 39 b6 e6 3d b9 cd 00 be
       0.20275015 0.032413792 0.11265225 -0.12578477
0003f0 58 25 7c 3d 41 b1 73 3b a8 21 2c 3c 04 aa 20 3d
       0.06155905 0.003718451 0.010506071 0.03922464
